models/hyperparameters/dropout/model_0.6do.PT (torch, 382909 bytes, 14 tensors)

LeNet.0.0.weight f4 [6, 3, 3, 3]
0	0xbe2b2319	-0.16712607
1	0xbe69028f	-0.22754882
2	0x3c1f40f1	0.009720073
3	0xbe1d9553	-0.15388994
4	0x3c3494f7	0.011021844
5	0xbe2fcc15	-0.17167695
6	0x3e6b713a	0.22992411
7	0x3dba4923	0.09095981
8	0xbe10d7c3	-0.14144807
9	0xbdc8958f	-0.09794151
10	0x3e179bd9	0.14805545
11	0x3c5364e5	0.012902473
12	0xba9f4405	-0.0012151009
13	0x3dd9eccd	0.10640869
14	0x3c9d37c9	0.01919164
15	0x3e13d7cc	0.14437789
16	0x3d431921	0.047631387
17	0x3e046163	0.12927775
18	0xbe43861d	-0.19094129
19	0xbd896cc9	-0.06710202
20	0xbe3acee9	-0.18242992
21	0x3d2a802a	0.041626133
22	0xbdea75ea	-0.114482716
23	0x3cd66725	0.02617223
24	0xbdc2cf67	-0.09512215
25	0xbdf07ac7	-0.11742168
26	0x3df7fcf0	0.12108791
27	0x3d71c9c6	0.059030317
28	0xbe190c5b	-0.1494612
29	0x3ca3ff54	0.02001921
30	0xbd3e4dee	-0.04646104
31	0x3e3105b0	0.17287326
32	0x3e177cfd	0.14793773
33	0x3c4f8823	0.012666735
34	0xbcf10e56	-0.029425781
35	0x3e225c11	0.15855433
36	0xbc050de9	-0.008120992
37	0x3d4b8300	0.04968548
38	0xbd2b7ba2	-0.041865952
39	0x3dc7aa71	0.09749306
40	0xbdb6eb86	-0.08931641
41	0x3e08cb98	0.13358915
42	0x3dc11972	0.094286814
43	0xbe189157	-0.14899193
44	0xbe16beb9	-0.14721192
45	0xbe20e53a	-0.15712443
46	0x3d3dbaa8	0.046320587
47	0x3e4ce5ce	0.20009539
48	0xbe06a354	-0.13148242
49	0x3dfaa788	0.12238985
50	0xbd65b663	-0.05608214
51	0x3e3e6306	0.18592462
52	0x3dbb1b81	0.09136105
53	0xbd6ead1f	-0.05827057
54	0x3d1546b2	0.036444373
55	0x3de8f09f	0.1137402
56	0xbce81cd1	-0.028334053
57	0xbd3edda1	-0.04659808
58	0x3d32f112	0.043686934
59	0x3e33764a	0.17525592
60	0xbe16d009	-0.14727797
61	0xbda7353b	-0.0816445
62	0xbcee0ba1	-0.02905828
63	0x3da76a22	0.0817454
64	0x3d366411	0.044529025
65	0xbddcd586	-0.10782914
66	0xbd855cd4	-0.06511846
67	0xbdce0652	-0.10059799
68	0x3bdb05a5	0.0066840225
69	0xbe4a7a89	-0.19773306
70	0xbdb300ae	-0.08740364
71	0xbe34208e	-0.17590544
72	0xbd8e73ee	-0.069557056
73	0xbd6c5e05	-0.05770685
74	0x3e0093fb	0.1255645
75	0x3dc2c66e	0.09510504
76	0x3d957583	0.07297804
77	0xbe1366e6	-0.14394721
78	0x3e0518cf	0.12997745
79	0x3d96f468	0.073708355
80	0x3d3e507c	0.046463475
81	0xbd6c9f9f	-0.057769414
82	0xbcba6c91	-0.022756847
83	0xbdb6ff8a	-0.08935459
84	0x3cb4f1db	0.022087982
85	0x3dc54459	0.09632177
86	0xbd6faa08	-0.058511764
87	0xbe928124	-0.2861415
88	0xbda4df95	-0.080504574
89	0xbd3d7c50	-0.04626113
90	0x3e017c7d	0.12645145
91	0x3e54726b	0.20746772
92	0x3e36f56d	0.1786706
93	0xbd7cda98	-0.061731905
94	0x3e734818	0.2375797
95	0xbe41d271	-0.18927933
96	0xbe6b46ac	-0.22976178
97	0xbe1b7435	-0.15181048
98	0xbe52ee3e	-0.20598695
99	0x3e6c91e0	0.23102522
100	0x3e708479	0.23488034
101	0xbd05d41c	-0.032672986
102	0x3b4dcda3	0.0031403087
103	0x3e3dd4e4	0.18538243
104	0x3d80c229	0.06287033
105	0xbdd8e590	-0.105906606
106	0x3e00bab7	0.12571226
107	0xbe05b035	-0.13055499
108	0x3cf20962	0.02954549
109	0x3d7d4ee9	0.061842833
110	0x3cd88ff6	0.026435833
111	0xbe2e5fa0	-0.17028666
112	0x3e743af2	0.23850611
113	0xbe457c0d	-0.19285603
114	0x3dffeb85	0.12496094
115	0x3ea4dff6	0.3220212
116	0xbe371bc4	-0.17881685
117	0x3e54526c	0.20734566
118	0x3d13b378	0.036059827
119	0xbd93c2de	-0.07214902
120	0xbe362d82	-0.17790797
121	0xbcbda008	-0.023147598
122	0xbe681aef	-0.22666524
123	0x3b010720	0.0019688085
124	0x3e8e4e96	0.2779433
125	0x3e04f5da	0.1298441
126	0xbde15b29	-0.110037155
127	0xbdb9fb6a	-0.090811566
128	0xbe4c11d9	-0.19928683
129	0xbe3b1b28	-0.18272078
130	0xbe02d7f2	-0.12777689
131	0xbe47fe43	-0.19530587
132	0x3e753333	0.23945312
133	0x3e9ad696	0.3024184
134	0xbcf7d739	-0.030253993
135	0xbd6ea5b0	-0.05826348
136	0xbe52d3bc	-0.20588583
137	0xbdcdbb8a	-0.10045536
138	0x3cdaff0d	0.026732946
139	0x3c313182	0.010815026
140	0x3de840e5	0.11340503
141	0x3e733bd7	0.23753296
142	0x3dd6a750	0.10481131
143	0xbdf7be3b	-0.120968305
144	0x3cb6e38e	0.022325303
145	0xbe0a71b6	-0.1351994
146	0xbe54a1d0	-0.20764852
147	0xbdf3dce6	-0.119073674
148	0xbdafe533	-0.08588638
149	0xbe204575	-0.15651496
150	0x3e2f597b	0.17123978
151	0x3e223b1d	0.15842862
152	0x3e256af1	0.16154076
153	0xbe859335	-0.26088873
154	0xbdf1e9ce	-0.11812173
155	0xbe18b8da	-0.14914265
156	0x3e534d66	0.20634994
157	0x3e5221e6	0.20520744
158	0x3dbe5cdd	0.09295056
159	0xbd46f774	-0.048575833
160	0x3dd30156	0.10302989
161	0xbd504e18	-0.050855726

LeNet.0.0.bias f4 [6]
0	0xbcc5c4ea	-0.024141748
1	0xbcda27ac	-0.026630245
2	0xbd4b7378	-0.049670666
3	0xbe274024	-0.16333061
4	0xbc01df46	-0.007926768
5	0x3d85ff8a	0.06542881

LeNet.0.1.weight f4 [6]
0	0x3f7ac727	0.9796013
1	0x3f859938	1.0437384
2	0x3f7d44cb	0.98933095
3	0x3f76e67a	0.9644543
4	0x3f7a2d45	0.97725326
5	0x3f82537d	1.0181729

LeNet.0.1.bias f4 [6]
0	0xbd6784c2	-0.056523092
1	0xbdb18a05	-0.08668903
2	0xbd801a5c	-0.06255028
3	0xbe09582c	-0.13412541
4	0xbe1e1c98	-0.15440595
5	0xbde2bf28	-0.110716164

LeNet.0.1.running_mean f4 [6]
0	0xbe9e11a0	-0.30872822
1	0x3e69d36b	0.22834556
2	0xbe3ed44d	-0.18635674
3	0xbe3dec33	-0.18547134
4	0x3b855e79	0.0040701
5	0xbd1248ba	-0.03571389

LeNet.0.1.running_var f4 [6]
0	0x3cd8347a	0.02639221
1	0x3ca72e02	0.02040768
2	0x3bc6eeca	0.0060709463
3	0x3b6ed266	0.0036441325
4	0x3b6d60b3	0.0036220967
5	0x3be0a96e	0.006856135

LeNet.1.0.weight f4 [16, 6, 3, 3]
0	0x3de55082	0.11196996
1	0x3dbbb5a4	0.091655046
2	0xbe0a3e3c	-0.13500303
3	0xbd912ed2	-0.070890084
4	0xbd8fcf2f	-0.07021939
5	0x3d0b9dc3	0.034086
6	0xbd0701e9	-0.032960806
7	0xbe197a32	-0.1498802
8	0x3d2b9fb1	0.04190034
9	0x3df86571	0.121287234
10	0x3e3d7db8	0.18504989
11	0x3e1edd08	0.15514004
12	0xbc9ab946	-0.018887173
13	0xbd87af5b	-0.06625243
14	0x3db29dc9	0.087215014
15	0x3ddeda1c	0.10881445
16	0x3e1bfc8a	0.15233055
17	0xbdb72c46	-0.08943991
18	0xbc82fa8f	-0.015988616
19	0xbc90d189	-0.01767804
20	0xbd87f170	-0.066378474
21	0xbd5ae6f4	-0.05344291
22	0xbc2962f0	-0.01033853
23	0xbe2de55f	-0.1698203
24	0xbe353fdc	-0.17700142
25	0x3d803fe4	0.06262186
26	0xbe23e140	-0.16003895
27	0xbca7ba32	-0.020474527
28	0xbbe254a8	-0.0069070645
29	0x3d9829b6	0.07429831
30	0xbcca0dc5	-0.024664769
31	0xbd02a9fd	-0.031900395
32	0xbd0e165f	-0.034689303
33	0xbdfd5cf5	-0.12371246
34	0x3d0b9dbc	0.034085974
35	0x3c7394a8	0.014866985
36	0xbd2f9295	-0.0428644
37	0x3dc3ea54	0.09566179
38	0x3df54bc5	0.119773425
39	0xbd02d47e	-0.03194093
40	0xbd8adf93	-0.06780925
41	0x3d619f10	0.055083334
42	0xbdfdb9e5	-0.12388972
43	0xbcc6bbc9	-0.024259465
44	0xbd8104ed	-0.06299768
45	0xbdaec8f7	-0.08534425
46	0xbd96fc99	-0.07372398
47	0x3c5cf035	0.013485004
48	0xbc279179	-0.0102275545
49	0x3a6bbe95	0.00089929375
50	0xbdc0f79d	-0.094222285
51	0xbcfceb5a	-0.030873943
52	0x3d303402	0.04301835
53	0x3d488638	0.048956126
54	0xbde2b33d	-0.11069343
55	0xbdcb6937	-0.099321775
56	0x3d48504f	0.048904713
57	0xbdeeaba4	-0.116538316
58	0xbd59db91	-0.05318791
59	0xbde39535	-0.11112443
60	0xbd9b1ded	-0.07574067
61	0xbd64ce98	-0.055861086
62	0xbdd51cd8	-0.10405892
63	0x3d4c6bb9	0.04990742
64	0xbd577e28	-0.052610546
65	0xbd4acef3	-0.04951377
66	0x3d73e297	0.059542265
67	0x3aff6ea2	0.0019487927
68	0x3dcfd1d3	0.10147443
69	0xbd6edac4	-0.0583141
70	0xbdaf97a4	-0.08573845
71	0x3d86f6cf	0.06590044
72	0x3b9531dc	0.004553063
73	0x3d81b9dc	0.06334278
74	0x3dd958bf	0.1061263
75	0xbe123df5	-0.14281447
76	0xbe1fc852	-0.1560376
77	0xbd076baa	-0.03306166
78	0x3df9c1eb	0.1219519
79	0xbd3ff033	-0.04685993
80	0xbdde1492	-0.10843767
81	0xbdc5d678	-0.09660047
82	0x3bb1be21	0.0054242765
83	0x3c43de8e	0.011954917
84	0x3d193e30	0.037412822
85	0x3e2bcab0	0.16776538
86	0x3dff04b6	0.124520704
87	0xbd62673d	-0.055274237
88	0xbd42a7ba	-0.047523238
89	0x3d209ca0	0.03921187
90	0xbd5a2c0d	-0.053264666
91	0x3dd9b433	0.106300734
92	0xbca3612e	-0.0199438
93	0xbe11688b	-0.14200036
94	0xbbee0ce8	-0.007264722
95	0xbd33b927	-0.043877747
96	0x3da64f43	0.08120587
97	0xbde1526d	-0.110020496
98	0x3d324f9e	0.04353296
99	0xbe08983f	-0.13339327
100	0x3c8b4393	0.016999995
101	0xbda3b9bf	-0.07994413
102	0x3cfd4803	0.030918127
103	0xbc6af194	-0.014339823
104	0xbd3ec3dd	-0.04657351
105	0x3db12d3e	0.086512074
106	0x3dbe1110	0.09280598
107	0xbc0ada36	-0.008474877
108	0xbdfef40b	-0.12448891
109	0x3cf4a132	0.02986202
110	0x3d2628d4	0.04056628
111	0xbdb81891	-0.08989061
112	0xbd96e771	-0.07368363
113	0x3dfd00e1	0.12353683
114	0xbdbf6229	-0.093448944
115	0x3ceb68af	0.02873644
116	0x3c81952b	0.0158182
117	0xbdcdd01c	-0.10049459
118	0xbd40a147	-0.047028806
119	0x3de2076c	0.11036572
120	0xbd935a2b	-0.071949326
121	0xbd9cc8cc	-0.076554865
122	0xbd3aaec3	-0.045576822
123	0x3d4fcfff	0.05073547
124	0x3d896e5f	0.06710505
125	0x3d5c33f5	0.053760488
126	0xbc1453e6	-0.009053206
127	0x3d37a2d1	0.04483301
128	0x3cb9f7ea	0.022701222
129	0x3df50a91	0.11964906
130	0x3ded5482	0.11588384
131	0xbde38cb6	-0.11110823
132	0x3d67866a	0.05652467
133	0xbd9d713e	-0.07687615
134	0xbd734900	-0.05939579
135	0x3dbb2234	0.09137383
136	0xbbe82394	-0.0070843194
137	0x3d84dc29	0.06487305
138	0x3d9c2e60	0.07626033
139	0xbdb529de	-0.08845876
140	0x3ca36f19	0.019950436
141	0x3d1df78e	0.038566165
142	0xbe0bc6bf	-0.13650034
143	0xbe3d1c7e	-0.184679
144	0x3e3772d7	0.17914902
145	0x3b142715	0.0022606303
146	0xbe0a29fe	-0.13492581
147	0x3e2d7f7e	0.16943166
148	0xbe024da2	-0.12724927
149	0x3d93d9ed	0.072193004
150	0xbcd49f20	-0.025954783
151	0x3d092f32	0.033492275
152	0xbdb233fd	-0.08701322
153	0x3e0877ca	0.13326946
154	0xbe0272d9	-0.12739123
155	0x3cba8bff	0.022771833
156	0x3e1cd03b	0.15313809
157	0xbdf0ccc1	-0.11757804
158	0x3de31fc5	0.11090044
159	0xbd60bdc8	-0.05486849
160	0xbd9f832c	-0.07788691
161	0xbbd79eff	-0.006580233
162	0x3da7f00b	0.082000814
163	0xbd283e40	-0.04107499
164	0xbd7437f7	-0.059623685
165	0x3d462ecc	0.048384473
166	0xbd13cb5a	-0.036082603
167	0x3da2bed3	0.07946553
168	0x3cabe322	0.020982329
169	0x3dc0d787	0.094161086
170	0xbda80a66	-0.08205108
171	0x3d24644d	0.040134717
172	0x3d4d874e	0.050177865
173	0xbba8f3e7	-0.0051560286
174	0xbbf5b6fb	-0.0074986196
175	0x3dd9bf12	0.10632147
176	0xbdd484d0	-0.103768945
177	0x3ddf9806	0.10917668
178	0xbdaf39c7	-0.08555942
179	0xbdf19acc	-0.11797103
180	0x3d0512e7	0.03248873
181	0x3dcbedb4	0.09957448
182	0x3de30e14	0.110866696
183	0xbdd0887d	-0.10182283
184	0xbdb4f9f4	-0.08836737
185	0x3d46302c	0.048385784
186	0xbd9d1aab	-0.07671102
187	0x3c1cc147	0.009567565
188	0x3d7b4b53	0.06135113
189	0x3d4b3a2d	0.049616028
190	0x3dc3784e	0.09544431
191	0xbd382d18	-0.04496488
192	0x3d4ee0d8	0.050507396
193	0x3d9f1ee8	0.07769567
194	0x3dd377fd	0.1032562
195	0xbca56d32	-0.02019367
196	0xbdc3340e	-0.09531413
197	0xbc16c75c	-0.009202804
198	0xbd4c3eec	-0.049864694
199	0xbdcfc92d	-0.10145793
200	0xbda922d5	-0.08258597
201	0x3d07df58	0.03317198
202	0xbcc3439b	-0.023835948
203	0xbdf47db8	-0.119380414
204	0x3da988d8	0.08278054
205	0x3d94e73c	0.07270667
206	0x3d9624c6	0.07331233
207	0xbdf17d4c	-0.117914766
208	0xbe0b8976	-0.13626656
209	0xbe0c1f01	-0.13683702
210	0x3cc65d00	0.024214268
211	0x3cc3e090	0.02391079
212	0x3cf4ec3c	0.029897802
213	0x3dd97ebe	0.10619877
214	0x3e11c10f	0.14233802
215	0x3d447305	0.047961254
216	0x3d65591c	0.055993184
217	0x3daaa6a9	0.08332569
218	0x3dc494f6	0.095987245
219	0xbdac432a	-0.08411248
220	0x3d94b304	0.07260707
221	0x3d57401a	0.052551366
222	0xbb602111	-0.0034199397
223	0xbce431af	-0.027855722
224	0xbbad7662	-0.0052936533
225	0x3ca4ae02	0.020102505
226	0xbdbc3d21	-0.09191347
227	0xbdc2c5ca	-0.095103815
228	0xbddb65e4	-0.107127935
229	0xbc389273	-0.011265385
230	0x3ab3e026	0.0013723418
231	0xbce99861	-0.028515043
232	0xbd3ad7a2	-0.0456158
233	0xbcbd7186	-0.023125421
234	0xbdffc72d	-0.12489162
235	0xbdd99e6a	-0.10625918
236	0x3cd35690	0.025798112
237	0xbd93066c	-0.07178959
238	0x3c3f2424	0.011666331
239	0x3cce62f6	0.025193673
240	0xbdbcbbd6	-0.09215514
241	0xbdd0ed85	-0.10201553
242	0xbc4b3def	-0.012404903
243	0xbded42d8	-0.11585015
244	0xbd1f80fa	-0.03894136
245	0xbe017064	-0.1264053
246	0xbe3261e4	-0.17420155
247	0xbe1c749e	-0.15278861
248	0x3d1afc64	0.037838355
249	0xbddbd931	-0.10734785
250	0xbd29d17c	-0.041459545
251	0x3c7875e3	0.015164825
252	0xbcff3bd2	-0.031156454
253	0x3cae84f2	0.021303628
254	0xbd42413c	-0.047425494
255	0xbd949ced	-0.07256494

LeNet.1.0.bias f4 [16]
0	0xbc101f5e	-0.008796541
1	0xbe07967e	-0.13241002
2	0x3cbcb649	0.02303614
3	0xbe03274b	-0.12807958
4	0x3da8336a	0.082129315
5	0x3dff0830	0.124527335
6	0xbc92f1f0	-0.01793763
7	0x3d32f91c	0.0436946
8	0x3c2872f5	0.010281314
9	0xbdf84b8e	-0.12123786
10	0x3b3397e6	0.002740377
11	0x3df1f498	0.11814231
12	0xbd80c6b9	-0.06287903
13	0x3da613e8	0.081092656
14	0x3dc9205a	0.09820624
15	0x3d6a8200	0.057252884

LeNet.1.1.weight f4 [16]
0	0x3f48ed49	0.7848707
1	0x3f512e56	0.8171133
2	0x3f4b17bb	0.79333085
3	0x3f382686	0.7193378
4	0x3f498ac3	0.7872736
5	0x3f4452e0	0.7668896
6	0x3f50c51d	0.8155077
7	0x3f4e6567	0.8062348
8	0x3f54ef0f	0.83177274
9	0x3f4e1021	0.8049336
10	0x3f370ec8	0.7150693
11	0x3f567141	0.8376656
12	0x3f4989f5	0.7872613
13	0x3f49f45e	0.788885
14	0x3f4e6cfc	0.80635047
15	0x3f32e6a4	0.6988318

LeNet.1.1.bias f4 [16]
0	0xbe6900dd	-0.22754236
1	0xbe77d316	-0.24201617
2	0xbe72f525	-0.23726328
3	0xbe72454b	-0.23659246
4	0xbe65635e	-0.22401187
5	0xbe70407a	-0.23462096
6	0xbe732eb9	-0.23748292
7	0xbe7c1110	-0.24615884
8	0xbe6da58c	-0.23207682
9	0xbe565505	-0.2093087
10	0xbe63175c	-0.2217688
11	0xbe65316d	-0.22382136
12	0xbe62ea31	-0.2215965
13	0xbe5f9a31	-0.21836163
14	0xbe758e8d	-0.2398016
15	0xbe5af044	-0.21380717

LeNet.1.1.running_mean f4 [16]
0	0xbeb50806	-0.35357684
1	0xbf58c944	-0.84682107
2	0xbd738909	-0.05945686
3	0x3d4c96ff	0.04994869
4	0xbed7bf48	-0.42138124
5	0x3f2fd6b1	0.6868697
6	0xbf115a14	-0.56778073
7	0xbe96732a	-0.29384738
8	0xbfa5b6bf	-1.2946395
9	0xbf9f3b9d	-1.2440068
10	0x3fa40c68	1.2816286
11	0xbd967aef	-0.073476665
12	0xbf6cb4a4	-0.92463136
13	0x3e8983b6	0.268583
14	0xbe873d06	-0.26413745
15	0x3da46c10	0.08028424

LeNet.1.1.running_var f4 [16]
0	0x4039324f	2.8936956
1	0x3fb42d68	1.4076357
2	0x3f30b428	0.69024897
3	0x3f66b47d	0.90119153
4	0x3fa5300c	1.2905288
5	0x3f9869b4	1.1907258
6	0x3f46f26c	0.77713656
7	0x3f8370d6	1.026881
8	0x3f93ab4b	1.153665
9	0x3fa86f40	1.3158951
10	0x3f983651	1.1891576
11	0x3f782dd2	0.96944916
12	0x3f9fd74f	1.2487582
13	0x3fe0047e	1.7501371
14	0x3fe282f1	1.769621
15	0x3fdd90c8	1.7309809

LeNet.3.weight f4 [2, 46656]
0	0x3baf5b3a	0.005351451
1	0xbc1a0219	-0.009399914
2	0xba8b3e18	-0.0010623364
3	0xbc87554b	-0.016520163
4	0x3b3a0641	0.0028385075
5	0x3bba3315	0.005682359
6	0x3c8bf787	0.017085804
7	0x3c42b7b5	0.0118846195
8	0x3c2401b6	0.010010174
9	0x3cbc9cad	0.023023928
10	0x3ccef903	0.025265222
11	0x3c886cc1	0.01665342
12	0x3ca7ea4c	0.020497464
13	0x3ce29394	0.027658261
14	0x3c81b1d4	0.015831865
15	0x3c768c8f	0.01504816
16	0x3d09c4c1	0.033634905
17	0x3d0a743a	0.03380225
18	0x3cba6964	0.022755332
19	0x3d0d595c	0.034509048
20	0x3cc68712	0.024234328
21	0x3d147eb8	0.03625366
22	0x3d0e98f8	0.03481385
23	0x3d0f0289	0.034914527
24	0x3ce921f2	0.02845857
25	0x3c8b717f	0.017021893
26	0x3c8e9af8	0.01740788
27	0x3cd91713	0.02650026
28	0x3cf62300	0.030045986
29	0x3cb63ff8	0.0222473
30	0x3ca9273d	0.020648593
31	0x3c1d0915	0.009584685
32	0x3caee07c	0.021347277
33	0x3d14790a	0.036248244
34	0x3d120bd9	0.03565583
35	0x3c4f6ede	0.01266071
36	0x3d2e4079	0.042541955
37	0x3d1a284a	0.03763608
38	0x3d0608b9	0.032723162
39	0x3ca297d8	0.019847795
40	0x3c8d3b3c	0.01724016
41	0x3cafdefe	0.021468636
42	0x3aa3be07	0.0012492546
43	0x3bc2cf32	0.0059451098
44	0xba6d2cdd	-0.00090475177
45	0x3bd1536c	0.0063881185
46	0x3c89526a	0.01676293
47	0x3cf1e279	0.029526936
48	0x3cb1516c	0.02164527
49	0x3bab4cf8	0.0052276812
50	0x3c5ce115	0.013481398
51	0x3b3c9383	0.0028774447
52	0x3c8125ab	0.015765032
53	0x3c02c75b	0.0079821
54	0x3a35dfd8	0.00069379574
55	0x3b34853d	0.0027545237
56	0xbb9b2194	-0.0047342274
57	0xbc947bed	-0.018125499
58	0x3b07eb75	0.0020739709
59	0x3c4908f0	0.012270197
60	0x3c672f69	0.014110425
61	0x38e3d9c0	0.000108647626
62	0x3c4e114e	0.012577368
63	0x3c1441d4	0.009048898
64	0x3c43a1a6	0.011940395
65	0x3c22490b	0.00990511
66	0x3bf3aa1f	0.0074360515
67	0x3c57fd65	0.013182973
68	0x3bf85535	0.007578517
69	0xbc034943	-0.008013072
70	0xbcb35234	-0.021889783
71	0xbbdb0a2a	-0.0066845613
72	0xbc241e9f	-0.010017066
73	0xbcb09367	-0.021554662
74	0xbc10912e	-0.008823676
75	0xbbe85fdb	-0.007091505
76	0xb9cde0e6	-0.0003926821
77	0x3c7b028d	0.015320432
78	0x3c86f1a5	0.016472647
79	0x3c872367	0.016496373
80	0x3b6c36c4	0.0036043385
81	0x3c8fd90b	0.017559549
82	0x3ca6e014	0.02037052
83	0x3b9c0c1e	0.0047621867
84	0x3bf4f107	0.0074750218
85	0xbbf28f8b	-0.0074023656
86	0x3ba46bcb	0.0050177327
87	0xbb416e57	-0.002951523
88	0x3bed7010	0.007246025
89	0xbb5050e0	-0.0031786487
90	0xbc02fe5e	-0.007995216
91	0xbb9db1c5	-0.0048124515
92	0xbc983258	-0.018578693
93	0x3b199ec9	0.002344059
94	0xbc13495b	-0.008989657
95	0xbbbe6dff	-0.0058114524
96	0xbc81e3cd	-0.015855694
97	0xbc00f98c	-0.007871997
98	0x3abe3f08	0.0014514634
99	0x38e73c5f	0.00011026183
100	0x3c3567b6	0.01107209
101	0x3c1fb97a	0.009748811
102	0x3a887e45	0.0010413608
103	0x3c1142b8	0.008866005
104	0x3bdcb686	0.0067356257
105	0xba4bf2e1	-0.0007780027
106	0xbb910002	-0.0044250498
107	0xbc20c2e5	-0.0098120915
108	0x3beeeb33	0.0072912215
109	0x3b34d191	0.0027590732
110	0xbc326bfa	-0.010890001
111	0xbbf741bd	-0.0075456784
112	0x3aedf30e	0.0018154101
113	0x3c1666bb	0.009179766
114	0x3c12fc1a	0.0089712385
115	0xbb1460ba	-0.0022640661
116	0xbc5aa871	-0.013345824
117	0x3ba6ef1a	0.005094421
118	0xb8c2efe1	-9.295322e-05
119	0xba779ab1	-0.0009445353
120	0x3b6a028a	0.003570708
121	0xb910eb0f	-0.00013820476
122	0xbbfaaf8a	-0.0076503204
123	0xbc177a51	-0.009245471
124	0xbc02364f	-0.0079475185
125	0xbbc7b5de	-0.0060946783
126	0xb91ce371	-0.00014962048
127	0xbbf33bba	-0.0074228914
128	0xbc96bb5c	-0.018399887
129	0xbba0982c	-0.004900953
130	0xba87d3a4	-0.0010362756
131	0x3bee6c6d	0.007276109
132	0x3c923696	0.017848294
133	0x3cdcd554	0.026957192
134	0x3c752545	0.014962499
135	0x3b4dab43	0.0031382598
136	0x3c234132	0.009964274
137	0x3beaac93	0.0071616857
138	0x3bd12c2a	0.0063834386
139	0xbb806e73	-0.0039194166
140	0x3b1ba8ec	0.0023751808
141	0xbb95552d	-0.004557273
142	0xba096417	-0.000524105
143	0x3c902339	0.01759492
144	0xba9a07c3	-0.0011751581
145	0xbb83476b	-0.0040063164
146	0xbc6aecf4	-0.014338721
147	0xbbd9cc97	-0.0066467035
148	0xbc3d6420	-0.011559516
149	0xbc45a9cd	-0.012064409
150	0xbc9a3319	-0.018823193
151	0xbc416c9d	-0.011805681
152	0xbc161fc8	-0.009162851
153	0xbb5515ba	-0.003251417
154	0xbc191220	-0.0093427
155	0xbbaf9a50	-0.0053589717
156	0xbb63074d	-0.0034641803
157	0x3b40ba2d	0.0029407844
158	0xbba7706a	-0.0051098363
159	0x3c363729	0.01112155
160	0x3c20d6b6	0.009816816
161	0xbb4c7ed1	-0.0031203518
162	0xbc85736a	-0.016290385
163	0xbc0c990e	-0.008581413
164	0xbbfd752e	-0.007734916
165	0xbc9d4249	-0.019196646
166	0xbb5f24bd	-0.0034048997
167	0x3b091fea	0.0020923563
168	0xbbacc26f	-0.0052722017
169	0xbbebebc4	-0.0071997363
170	0xbc147763	-0.009061667
171	0xba5d612a	-0.00084449595
172	0xbc4f7b60	-0.012663692
173	0xbb98454b	-0.0046469322
174	0xb98f1548	-0.0002729094
175	0x3bcfd6b2	0.0063427323
176	0x3b388318	0.002815431
177	0xbbb8db4a	-0.0056413757
178	0xbc82ec9d	-0.015981967
179	0xbaea2226	-0.001786296
180	0x3c9200b8	0.017822608
181	0x3c8b0ad4	0.016972937
182	0x3c4b2bab	0.012400548
183	0xbc8e0873	-0.017338013
184	0xb9999783	-0.0002929532
185	0x3c6187f2	0.013765322
186	0x3cc08d7f	0.02350497
187	0xbbc4068e	-0.0059822267
188	0x3b82ab7a	0.0039877268
189	0xb91b07ef	-0.00014784907
190	0x3c8ef7a0	0.017452061
191	0x3c5b4779	0.01338374
192	0x3bbbc524	0.005730288
193	0x3c285388	0.010273822
194	0x3cb418a2	0.021984402
195	0x3c6d7c40	0.014494956
196	0x3c83e9a3	0.016102618
197	0x3cb25fb6	0.021774154
198	0x3cc10c91	0.023565562
199	0x3be7034b	0.007049953
200	0x3bd65fd3	0.006542185
201	0x3c3cb121	0.01151684
202	0x3af63a48	0.001878568
203	0xbb624d56	-0.003453096
204	0xbc24d731	-0.010061071
205	0xbc4429c3	-0.011972847
206	0xbbd321c8	-0.006443236
207	0xbc7137f6	-0.014722815
208	0xbc595f68	-0.0132673755
209	0xbbb4f325	-0.005522149
210	0xbc4733ff	-0.012158393
211	0x3adc7d58	0.0016822023
212	0xbb4f7fc5	-0.003166185
213	0x3b7e5207	0.0038806216
214	0xb77cab50	-1.5060257e-05
215	0xbb1b6542	-0.0023711477
216	0xbc19f51b	-0.009396817
217	0xbcbc9ea3	-0.023024863
218	0xbca8c6d9	-0.02060263
219	0xbc8bcfff	-0.017066954
220	0xbc44eee5	-0.0120198475
221	0xb9977a5b	-0.00028892126
222	0xbb10277a	-0.0021996186
223	0xbc7e1bf4	-0.015509594
224	0xbae24426	-0.0017262741
225	0xbc546109	-0.012962588
226	0xbc1d2cd9	-0.009593212
227	0xbc32bc24	-0.010909114
228	0x3c239905	0.009985213
229	0x3c649022	0.01395038
230	0x3c513ce8	0.012770869
231	0xbadb7de5	-0.0016745894
232	0x3ac9285a	0.0015347109
233	0xbae76695	-0.0017654473
234	0x3c2f5b4b	0.010702918
235	0x3bc82a9f	0.0061085965
236	0x3bb81456	0.0056176586
237	0x3c80bee9	0.015716033
238	0x3c49b3d4	0.012310941
239	0x3a2cf313	0.00065975
240	0xbbfa15f2	-0.0076320106
241	0xbbfd33f0	-0.0077271387
242	0xbb89dfd3	-0.00420759
243	0x3aec0998	0.001800823
244	0x3c788876	0.015169254
245	0xbbec3abc	-0.00720915
246	0x3bacab07	0.0052694115
247	0x3c93bd8e	0.018034723
248	0x3c97ad16	0.018515151
249	0x3ce1be0f	0.027556447
250	0x3c432fa6	0.011913216
251	0x3c74059f	0.014893918
252	0x3c68c077	0.014206043
253	0xbb797b8a	-0.003806802
254	0x3c1323cb	0.008980702
255	0x3bf0b52e	0.007345817

LeNet.3.bias f4 [2]
0	0xbbfa721c	-0.0076429974
1	0x3b9d0c8e	0.0047927564
