models/hyperparameters/dropout/model_0.7do.PT (torch, 382909 bytes, 14 tensors)

LeNet.0.0.weight f4 [6, 3, 3, 3]
00000000: c1a5 063f 47e2 843e 3095 b53e e626 a83e
00000010: 6227 e83e 6d40 fe3e 360b 8a3e 0f7b c53e
00000020: 4721 9c3e 0895 963e e9ce 0c3f 3c83 063f
00000030: 5d92 943e 0a68 d93e a334 ab3e 1542 5f3e
00000040: c2eb 423e 0d8e 913e 9320 883e eeb5 f13e
00000050: 847e 843e 79ba e53e e3aa fd3e 03de 8a3e
00000060: baeb bf3e 30de fe3d 267d 5f3e 3e0f 02be
00000070: d9b0 b83d c7d9 7ebe 0519 5cbe d2ff 2b3e
00000080: 1c69 093e d11f 523e 38d5 ed3d fd14 413c
00000090: 7f77 3bbe 0917 55bd 19f4 9b3a cb1f 4abe
000000a0: ba08 cb3d d227 24be 3c32 2e3e 515b d03c
000000b0: c5de 4d3c 892f 76bd 019c d2bd 10bd 86be
000000c0: bf0b eebd 220c eb3c 87dc 42be 47dd 023e
000000d0: 73d2 523d df52 723d 40ca 823e 5285 943e
000000e0: bc3d 363e 86e0 16be 45be 1dbe 0307 933d
000000f0: d5f9 6a39 3813 4dbe 6767 7bbe 9c0c 99bc
00000100: aa6f 8a3e 7649 413e 56a2 45bd 68d1 ecbd
00000110: 7903 c5bd 95f0 7dbe ff17 f9bd 41c0 823d
00000120: 1f44 6a3e 4c29 363e 1009 aa3e d085 1c3d
00000130: 6b0c afbc aa8b 0cbd c0c3 41be ceb0 33be
00000140: 93ab 47be 07d8 5fbd 3554 08be 8a93 c1bd
00000150: 3174 41be 575f fc3d 8eb0 3dbe 42f2 373e
00000160: f1f6 27be e0df 193d c867 85bd c1c2 46be
00000170: 14fb f3bd 9efe 1ebe a3a3 293e 6f1a 87bd
00000180: 3821 2abe a6ae 1bbe 9cfa 043d 2f32 0f3e
00000190: 77d7 3fbd 0e22 11be 7614 093d 95c3 f8bd
000001a0: 5e51 abbb 10dd 87bd a462 c8bd 5347 153e
000001b0: 780d 1d3f 37e1 2d3f d17e 283f 388f ef3e
000001c0: f9fd 2f3f 430f 2c3f 0216 403f c1de 413f
000001d0: ebef 383f ed79 013f 8e2d 323f 62f8 2e3f
000001e0: 72aa 503f e232 263f 7904 f13e d213 053f
000001f0: 6ce0 ec3e 70ad 093f 893f 483f e5dd 403f
00000200: 8715 343f 6b4e f73e cadb 2f3f 2b2d 303f
00000210: 69bc 4d3f 1e52 063f 6f93 203f 5b65 8d3e
00000220: ac38 d13d 83ea 603d ee7d 843d 405d 063e
00000230: 6cd8 5b3e b500 083e 0d12 f93d 1085 9dbd
00000240: 8a9c 363e 2c5c e93d 3e6a 0e3e c5f5 8e3d
00000250: 66cb 1c3e 3a67 82bc c5ee 11bd 336c 1f3d
00000260: 1a7d 553d 1584 973e 122f 913e f45f 243c
00000270: 027f cc3d 9ae8 da3c 4b4e 4a3e 4b81 273e
00000280: 2315 913e 34df b53d
0.5259667 0.25953886 0.35465384 0.32842177 0.45342547 0.49658528 0.26961678 0.3857045
0.3049414 0.29410577 0.5500322 0.52544 0.29017916 0.42462188 0.33438596 0.21802552
0.19035247 0.2842869 0.26587352 0.47209114 0.25877774 0.4486883 0.4954444 0.27122506
0.37484533 0.12444723 0.21825084 -0.12701127 0.09018106 -0.24887763 -0.21493919 0.16796806
0.13419002 0.2051995 0.11612934 0.011784789 -0.18307303 -0.05202392 0.0011898308 -0.1973869
0.09913774 -0.16030815 0.1701135 0.025434168 0.012565319 -0.060103927 -0.10283662 -0.26316118
-0.11623334 0.028692309 -0.19029437 0.12779723 0.05147023 0.059161063 0.2554493 0.29007965
0.17796987 -0.14734086 -0.15404613 0.07179072 0.00022409049 -0.20026863 -0.24551164 -0.01868277
0.27038318 0.1887568 -0.04825052 -0.115633786 -0.09619803 -0.24798806 -0.1216278 0.06384326
0.22877549 0.17789191 0.3321004 0.03821355 -0.021368226 -0.03431288 -0.18922329 -0.17547914
-0.19499044 -0.05464938 -0.13313372 -0.09451969 -0.1889198 0.12322872 -0.18524382 0.17963508
-0.16402794 0.03756702 -0.06513935 -0.1941023 -0.11913124 -0.15526816 0.16566329 -0.06596839
-0.16614234 -0.15203342 0.032465562 0.13983987 -0.046836343 -0.14173147 0.03346678 -0.12146679
-0.0052282056 -0.06633961 -0.09784439 0.1457799 0.61348677 0.67921776 0.65818506 0.46788955
0.68746907 0.6721079 0.7503358 0.7573052 0.72241086 0.5057667 0.6960076 0.6834775
0.8151008 0.6492139 0.47073725 0.5198337 0.4626497 0.5378027 0.78221947 0.75338584
0.7034535 0.48302016 0.68694746 0.6881892 0.80365616 0.5246905 0.62724966 0.2761639
0.102158874 0.054911148 0.06469332 0.1312151 0.21469277 0.1328152 0.12161646 -0.07691395
0.17833152 0.113945335 0.13907716 0.069804706 0.15311965 -0.015918363 -0.0356281 0.038921546
0.05212126 0.29592958 0.28356224 0.010032643 0.09985162 0.026722241 0.19756429 0.16357915
0.2833644 0.08880463

LeNet.0.0.bias f4 [6]
00000000: 082b 16bd b57b a03c 9b21 093e f0b4 fd3d
00000010: b119 113e a62f 183e
-0.03666213 0.019590238 0.13391726 0.12388027 0.14169957 0.14861926

LeNet.0.1.weight f4 [6]
00000000: c178 863f 9389 793f a381 853f 5435 7c3f
00000010: b1c8 8a3f f343 573f
1.0505601 0.97475547 1.0430187 0.9851887 1.0842496 0.8408806

LeNet.0.1.bias f4 [6]
00000000: e4ae b7bd 4022 2abe 2a53 ecbd 3dc5 a1bd
00000010: 8434 5ebd 72c4 4abe
-0.089689046 -0.16614628 -0.115393 -0.07898948 -0.0542493 -0.198015

LeNet.0.1.running_mean f4 [6]
00000000: 01f6 8f40 ad50 8cbe feb9 2f3e 1ae0 07bf
00000010: 1c58 0841 3f02 d63f
4.49878 -0.274053 0.17160794 -0.53076327 8.521511 1.6719435

LeNet.0.1.running_var f4 [6]
00000000: 0e31 cd40 ed7e f13c 8a8f 1a3c a330 093e
00000010: 7bef ae41 7a5d 393f
6.412238 0.029479468 0.009433636 0.1339746 21.866934 0.7240826

LeNet.1.0.weight f4 [16, 6, 3, 3]
00000000: 337e 1b3d bbf5 a13a 22ee edbc 96c0 e1bd
00000010: 2915 5cbd 5c1e e0bd cec0 d03d 6c8c 42bb
00000020: 257a 8fbd 3c14 a9bd 1ec8 2f3d 7c32 40bd
00000030: f70c 5dba 4c6c dbbd a84f be3c 859a 4cbe
00000040: 7131 d6ba 47b6 6cbe 271a cb3c e90e 2ebe
00000050: 5d4b 4ebe be35 18be 553f fcbd 25c1 1cbe
00000060: 4e35 74bd b787 e2bd 7e9b bebd bb32 1b3c
00000070: 4e2a 63be 645e a2bd d3f9 53bd 4588 50be
00000080: 46a8 2cbe f122 a9bb 1240 5dbd 74cc 52be
00000090: a24f fd3d ac94 38bd e483 3d3d b6b5 de3d
000000a0: 8bdd 603d 00f7 97bb ca2d a23d 3269 e33c
000000b0: d9ea 143d cac2 30bd a792 033d d1d1 e0bc
000000c0: 7c76 b43d d32e f2bc bf74 983d 4c51 113e
000000d0: 5b3a 3a3d 6283 a23d 6578 3b3c 3789 933d
000000e0: 2868 e6bd 7cc8 d43c 4bb2 ecbc 5b93 09bb
000000f0: 3059 333d 487e 413d d956 71bd 1576 03be
00000100: 36a8 c43d 3ae4 c93d 7f96 b73c 3d1d d5bd
00000110: 52f6 dfbc 59d7 c9bd 6550 b53b 041a 27be
00000120: 3a13 513d e9cf a6bd 3bf9 5a3d c48b e5bd
00000130: 8fcd 0abd dace 533d 1167 533d cfa1 e63d
00000140: e211 7bbd 4916 00be 69c5 f8bc f5d7 09be
00000150: faf2 1dbe de74 81bd d292 5cbd aeb9 a0bc
00000160: 0ba4 0ebe 5a4e 10be f8fd eebd 506b 5abd
00000170: e82a 723d ae3a 3a3d 242b 743d 2ce9 d83d
00000180: 5c5e c33c 6f19 d43d 83a4 a33c 790a 0d3c
00000190: ba5f e03d 36bf fa3c 8590 e6bc 0242 bc3d
000001a0: b51f 973d c43f c23d 2f5b ea3c f0d0 80bd
000001b0: 3505 633c c3db 033e a6af 133e fd20 b2bc
000001c0: 6a5e 953d 869a 72bc 8696 97bd 8c54 b4bd
000001d0: 473c 423d c52a df3c b60c c43d f770 203e
000001e0: 9e8c 8f3c b69d 503c 5895 bbbd f347 4b3d
000001f0: 298a e3bd 703e d6bd f623 5fbd 9578 333e
00000200: dbc5 483e dbf8 e23d fea6 263e e63f 943d
00000210: e00e 17be 0b46 5dbe 2146 39be 4d2b ebbd
00000220: b30b 983c 8ff3 74bd e715 613d 9657 d2bc
00000230: c1c8 bc3d 1f15 dd3d 2b69 15bd 5cec c93d
00000240: c054 3abd 7c84 1f3d 49ff a53d b194 6c3d
00000250: 4dec 18bc 12eb d43d f653 3bbe e35b afbd
00000260: 0ae8 9ebd 4335 0c3e 72dc 4fba 8926 1bbb
00000270: c4c5 8cbd bd2c dbbd a00c 8f3d 263e 30be
00000280: 5b1b 11be 5a56 41bd 1d9e ec3d bbb1 c83d
00000290: 53ff ff3d eccf 893d f311 1b3e cfb3 7d3c
000002a0: f466 c53d b9ff 133e c8d8 cc3d 9aba b6bd
000002b0: 99e1 00bd 9520 77bd 6f3e 0abe d8f8 36bd
000002c0: cb50 813d 39c2 85bd 5e1a 2d3c c41d 343d
000002d0: 3d33 313c f983 a4bd 8883 ddbd b44b 293d
000002e0: d620 03be 93cb 683c e81c 1a3d 10ff d5bd
000002f0: 9bd9 813d 9689 513d fa7a f73c 60c7 ea3b
00000300: fa84 d2bd b727 a1bb 4e02 fa3c 982f bbbd
00000310: fce5 54bd c65d 933c 3ff5 553d 2a03 a93c
00000320: 9c02 b83d 04a2 2d3d a823 2fbd 54e0 073e
00000330: f804 a6bd 66f1 a43d 3b20 423e 6800 c83c
00000340: 13d1 e93d 8ce8 043e ed8d c3bc d581 de3d
00000350: 6fc8 fcbc 3d0b 57bd ddf9 673d a119 4a3e
00000360: ed21 62bc 08fb d0bd 3de4 ac3c b620 abbd
00000370: 8995 d7bd d80f 17be c08a 9c3a 7147 20be
00000380: fd99 f1bc 38a1 70bd e023 ccbd 5023 84bd
00000390: 0087 d7bd 12c7 b9bc c542 c73d bccd 92bd
000003a0: 6bc3 ab3d 6b03 c23d d5d8 4d3d 12c3 e63c
000003b0: f6b9 e33c a5b8 d3bb 6fd6 f6bd 7f0a a53b
000003c0: 68d7 fe3d 4e25 873d 497d acbd 645c cf3d
000003d0: a3a0 66bc d0a5 943b b815 80ba 6014 95bb
000003e0: f3bc 0a3d 37c5 a4bd 417d 57bd de8b dfbd
000003f0: efd1 30be 7af8 1fbe 2204 22be 2f9c 31be
0.03796215 0.0012356559 -0.029044215 -0.11023061 -0.053731117 -0.109432906 0.101930246 -0.0029685749
-0.07005719 -0.082558125 0.042915456 -0.046923146 -0.0008432413 -0.10714015 0.023231342 -0.1998082
-0.0016341639 -0.23116408 0.024792744 -0.16997875 -0.20145936 -0.14864251 -0.12316767 -0.15308054
-0.059621148 -0.11061042 -0.093070015 0.009472544 -0.22184107 -0.0792816 -0.051751923 -0.20364483
-0.16861066 -0.005161636 -0.05401618 -0.20585805 0.123687044 -0.04506366 0.04626836 0.10874502
0.05489878 -0.004637599 0.0791889 0.027760122 0.03635678 -0.043154515 0.03212228 -0.027443798
0.088116616 -0.029563343 0.074441426 0.14191169 0.04546581 0.079352155 0.0114422785 0.07203906
-0.11250335 0.025974505 -0.02889361 -0.0020992372 0.043786228 0.04723957 -0.058920715 -0.12838013
0.09602396 0.09857984 0.02241063 -0.104059674 -0.027339134 -0.098555274 0.0055332654 -0.16318518
0.051043727 -0.081451245 0.05346034 -0.11208299 -0.033887442 0.05171094 0.051611964 0.11261331
-0.06129635 -0.12508501 -0.03036757 -0.13461287 -0.1542472 -0.06321119 -0.053850956 -0.019619789
-0.13929765 -0.14092389 -0.116695344 -0.053324997 0.05912295 0.045466118 0.059611455 0.10591349
0.023848705 0.103564136 0.019975906 0.008608454 0.109557584 0.030608755 -0.028145084 0.091922775
0.073790945 0.094848186 0.028607933 -0.06289852 0.013856222 0.12876801 0.14422473 -0.021744246
0.07293399 -0.014807349 -0.07401757 -0.088051885 0.047420766 0.027242074 0.09572737 0.15668093
0.017523106 0.012732914 -0.091593444 0.049629163 -0.11110336 -0.10461128 -0.054477654 0.17526467
0.19606726 0.11082622 0.1627464 0.0723875 -0.14751768 -0.2160875 -0.18093158 -0.11482868
0.018560266 -0.059802588 0.05495253 -0.02567653 0.09217978 0.10795044 -0.03647725 0.09859535
-0.04549098 0.038944706 0.081053324 0.05775899 -0.009333682 0.103963986 -0.18293747 -0.08562448
-0.07759102 0.13692193 -0.0007929272 -0.0023674092 -0.06873658 -0.107018925 0.0698483 -0.17211208
-0.14170592 -0.047201492 0.11553595 0.097995244 0.12499871 0.06729111 0.15143566 0.015484764
0.096387774 0.14453019 0.10002285 -0.0892231 -0.031465147 -0.060333807 -0.13500379 -0.04467091
0.06314238 -0.06531186 0.010565368 0.0439737 0.010815439 -0.08032984 -0.10816103 0.04133196
-0.12805495 0.014208692 0.037625223 -0.1044904 0.06340333 0.051156603 0.030210007 0.0071648806
-0.102792695 -0.0049180645 0.030518677 -0.09139937 -0.051977143 0.01798905 0.052235838 0.020631392
0.08984873 0.04239084 -0.042758614 0.13269168 -0.081064165 0.080538556 0.18957607 0.024414256
0.11416831 0.12979335 -0.023871386 0.10864607 -0.030857293 -0.052500952 0.056634773 0.19736339
-0.013802034 -0.102041304 0.021104926 -0.083558485 -0.105265684 -0.14752138 0.0011943206 -0.15652253
-0.029492373 -0.0587475 -0.0996778 -0.06452048 -0.10523796 -0.022677932 0.09729532 -0.07168147
0.083868824 0.09473308 0.050255615 0.028169189 0.027798634 -0.0064612203 -0.12052619 0.0050366516
0.12443429 0.06598912 -0.08422334 0.10125044 -0.014076385 0.004536368 -0.0009772098 -0.004549548
0.033871602 -0.08045428 -0.052609686 -0.109153494 -0.17267583 -0.1562213 -0.15821889 -0.17344736

LeNet.1.0.bias f4 [16]
00000000: 44e0 633d 8acf e0bd faa0 07bd 9eab e63d
00000010: 6c58 09bd ba24 243c 9c84 053e 8473 fe3c
00000020: 424a 083e 0b9b 0f3d 49fd adbd 8b3b a9bb
00000030: bd82 4a3d 3d89 e5bb ecec a73d 9f6a 4dbd
0.0556338 -0.10977085 -0.033112504 0.11263202 -0.03353159 0.010018522 0.13038868 0.031060942
0.13309577 0.03505997 -0.08495576 -0.005164569 0.049441088 -0.0070048855 0.08199486 -0.05015051

LeNet.1.1.weight f4 [16]
00000000: 1303 273f 2b58 163f d5df 1e3f 29c9 fd3e
00000010: d8c9 453f 5e43 0a3f b68f 303f e978 343f
00000020: 4700 353f 9adb 193f fc96 103f 0b33 433f
00000030: e4db 313f 9c63 2e3f 4f22 363f ed62 2a3f
0.65239066 0.58728284 0.6206029 0.49567536 0.77261114 0.54009044 0.68969285 0.70496994
0.7070355 0.6010071 0.56480384 0.7624976 0.6947615 0.6812074 0.711461 0.665572

LeNet.1.1.bias f4 [16]
00000000: 35f6 99be 4885 a3be a4af a9be 2cac 9cbe
00000010: fcec 91be 013c c4be 2aba 9dbe cefc b6be
00000020: 7017 9fbe b508 babe d3a2 9abe 82c0 a3be
00000030: cf13 acbe a5d8 b6be 8eda b7be 2d83 acbe
-0.30070654 -0.31937623 -0.33141816 -0.30600107 -0.28501117 -0.3832703 -0.30806094 -0.3573975
-0.3107257 -0.36334768 -0.3020235 -0.3198281 -0.33608863 -0.35712162 -0.35908931 -0.3369383

LeNet.1.1.running_mean f4 [16]
00000000: 3ca6 d0bf 0dfa 21bf 05e3 783d ba31 b53f
00000010: 1549 f4bf 5d22 3ebf 350e c4bf a35c 57bf
00000020: b077 a8bf 22af afbf b13a ddbd 2527 edbf
00000030: 12fb 7bbf 48d4 d2bf 5699 29bf e7e5 2bc0
-1.6300731 -0.6327217 0.060763378 1.41558 -1.9084803 -0.74271184 -1.5316836 -0.8412573
-1.3161526 -1.3725321 -0.1080221 -1.8527571 -0.9842998 -1.6471033 -0.662496 -2.6859071

LeNet.1.1.running_var f4 [16]
00000000: 5f66 d840 ddf8 8840 4f17 fe3f 08c6 ef40
00000010: 4354 9040 e0e3 833f 3067 3041 c59a 5340
00000020: 3879 e240 9a39 1e41 8307 af40 74ee e33f
00000030: 7d6d 5a40 e131 2a40 56c3 aa3f a1db 5841
6.7624965 4.280379 1.9850863 7.4929237 4.510286 1.0303917 11.025192 3.3063214
7.077297 9.889063 5.469667 1.7807145 3.4129326 2.6592944 1.3340862 13.55362

LeNet.3.weight f4 [2, 46656]
00000000: 20e9 473c 4835 3fbc a0d4 9bbc acb7 e7bb
00000010: ae9b cebc 657e 4fbc afaa 523c 504d b73b
00000020: 338d 083c 0712 5c3c 48e8 b53b e3b3 5d3c
00000030: 6979 423c 96fe 1d3b cdde af3c 6c7c 6d3c
00000040: 95df ce3b 930d 203c c585 ca3c ffd7 863c
00000050: 5c03 ef3b 043c 063c 7ee4 793c f77d ba3a
00000060: d46d b93c 85ec df3b 9704 863b 5fc7 2c3c
00000070: dfcb 0fbb b481 633c bba5 dc3c 22a6 593c
00000080: 857a 0e3b 9c2d 5b3c 854e 1c3c a433 9a3b
00000090: 568d 263c 7b4d 343c e9dc 983b 5826 af3b
000000a0: 58ff d0bb 1455 f43b 71a8 053c 58c7 8bbb
000000b0: 95bb 0d3c 012b a73b 7c91 16bb 63d5 403c
000000c0: d8c2 363c 943e dd3b baf3 ec3b df7c b1bb
000000d0: 5c3d 6f3c 37f2 103c 604e 9cbb de25 b7bc
000000e0: da03 9bbc cf95 c7bc ee97 41bd 62db f3bb
000000f0: e651 073c 77bf aa3a 6e33 7e3b e979 9439
00000100: cf43 673c 6bbe eb3b e7fa ed3b 5d9d 1b3c
00000110: fb89 47bb 422e 3c3c 614d 4dbc 6e72 71bc
00000120: 9914 bbba 2c05 7d3c 610d e5bc 68b4 a1bc
00000130: 36e6 583b 72bd 9ebc 6d99 9b3c 70ea 6b3c
00000140: cd37 253c 860b 543c d78e cbba dd43 8d3b
00000150: 3d69 4b3c b96e 12bb f1b2 ddba 752a b43b
00000160: 8166 473b 8090 ebb9 60b2 273b b8c5 81bc
00000170: a8e4 b1ba 368a 7e3b 3d9a 5fbc ed74 c3bb
00000180: 7d5b 4dbb 2895 a4b9 e78c f5bb e1aa 0b3c
00000190: b05c be3b a8b7 453b 3a0f 1e3c 1ec4 983c
000001a0: b71a 393c 85d3 c63b 3e53 ea3b ae02 07bb
000001b0: 00a5 213c 79b5 cebb 8b97 4ebc 74ea 89bc
000001c0: 8dbd 51bc b75b 4fbb 3095 d53b 7d72 70bb
000001d0: 4eb4 81bb 6c46 53bb 2f6d 2abb 963c d23b
000001e0: f8d3 223b 3322 98ba db28 21bc 5857 613b
000001f0: 0a86 15b9 8066 0ebc a6b9 773b 566f a93a
00000200: f7ce 5f3b f048 28ba 02ac 1d3a bff7 8d3c
00000210: c189 2b3c bcf8 4eba f200 8cbc 43de 9f3b
00000220: 383c a43b fa1a c13c 2059 f23b a418 2dbb
00000230: e7cb a1ba 5c3c 36bc a503 69bc 0271 a5ba
00000240: 51d8 34ba 47d4 05bc a6d8 8c3b a667 25bc
00000250: 9bc4 05bb 8e49 96bb 8da9 13bb d2f0 41bc
00000260: afd1 efbb a6e2 7bbb 6c22 d0bb 2e2c 72ba
00000270: bcfc 9a3a c840 fa3b c90c 373a ed43 13bb
00000280: 08d9 5d3b ce15 1abc 6ac0 55bb b086 d4bb
00000290: e28b 303c 6b21 68bc 3347 a2b9 8b40 85bb
000002a0: 2e12 2aba c888 8638 cd32 783c 394b ecb7
000002b0: 20b8 20bc 5c70 a1bb 6ed5 2bbc b9a6 2fbc
000002c0: ec03 823c c0b7 d33b 00a3 37bc 0d6c 1bbc
000002d0: 2046 84ba c142 9b3b ac26 043c e84e b43b
000002e0: 27cf 373c c071 6c3c 9aa3 1d3c 7a43 b53c
000002f0: 241a 91bc 57ba 97bb bd5a 663b 3ca8 f8bb
00000300: ce25 9f3a 14c3 b4bb 2862 923c 4660 813c
00000310: 208c dd3b 43e9 9dbb bd4d 143c c534 df3b
00000320: ab72 003c a92b 943b f966 67bc 4bd9 46bc
00000330: 5b4a 8dbc 4672 1cbc 48b1 2dbb 265f 27ba
00000340: 4c31 4abc d3a0 1dbc 2ce5 ddbb 0024 37b9
00000350: 995c dc3a be0e fc39 bf7f 283b 7b68 42bc
00000360: 382b cdbb 4611 8cbc 8873 06bc ffab 2d3b
00000370: fee4 b4bb 5978 81bb 435c ba3b 0cbf 463b
00000380: 1cc5 0dbb 59d8 2e3b c75a 6cbc 410f d4bb
00000390: 8314 acbb 12b3 ad3a 4156 b2bb 8605 b1bc
000003a0: a06c 93ba 21b9 02bc 7b2d 07b9 5bbf d43a
000003b0: ce77 87bc 9a40 ab3c 6670 413c 9664 02bb
000003c0: 819a 6d3c 6367 253c 4894 62bb ed91 3bbc
000003d0: 8868 afbc 09ad 74bb 6bac 273c f800 0f3c
000003e0: 5452 2b3c 9f62 d53b 5e1d 913c 5b9a 3f3b
000003f0: 2ee2 90bb d4dc b23b 2037 b6bb 21ca 91bb
0.012201577 -0.011670418 -0.019022286 -0.007071456 -0.025220718 -0.012664412 0.012858077 0.005593933
0.008334446 0.013432032 0.0055513717 0.013531658 0.011869767 0.0024108044 0.021468544 0.0144949965
0.006313274 0.009768861 0.02472199 0.016460417 0.0072941016 0.00819302 0.015252231 0.0014228214
0.022635378 0.0068336152 0.0040899026 0.010545581 -0.0021941585 0.013885904 0.026934495 0.013284238
0.0021740508 0.013377573 0.009540205 0.004705863 0.010165533 0.011004801 0.0046650064 0.005345147
-0.0063780956 0.007456431 0.008157835 -0.004265707 0.00865068 0.005101562 -0.00229749 0.011769625
0.011154853 0.0067518447 0.007231203 -0.005416497 0.014602032 0.008846811 -0.004770085 -0.022356924
-0.018922735 -0.024363426 -0.047264032 -0.007441924 0.008259272 0.0013027032 0.0038787979 0.0002831959
0.014115288 0.0071943305 0.007262576 0.009497968 -0.0030447233 0.011485638 -0.012530656 -0.014736755
-0.0014273106 0.015443128 -0.027960481 -0.019739345 0.00330962 -0.019377444 0.018994058 0.014399156
0.010084105 0.0129422005 -0.001553024 0.0043110684 0.0124152275 -0.0022343828 -0.0016914291 0.0054982253
0.0030426087 -0.00044930354 0.0025588498 -0.01584135 -0.0013572173 0.0038839704 -0.013647613 -0.0059648664
-0.003133505 -0.00031391648 -0.0074936035 0.008524627 0.005809389 0.0030169282 0.009647185 0.018648203
0.011297873 0.0060676956 0.0071510365 -0.0020600962 0.009865999 -0.0063082543 -0.012609373 -0.016835429
-0.01280154 -0.003164036 0.0065180287 -0.0036689334 -0.0039582616 -0.003223802 -0.002600502 0.006415914
0.0024845582 -0.0011606872 -0.009836401 0.0034384336 -0.00014259681 -0.00869143 0.0037799864 0.0012926857
0.003415046 -0.000641956 0.0006014706 0.017330049 0.010469855 -0.00078953407 -0.017090295 0.0048787906
0.0050120614 0.023572434 0.0073958784 -0.0026412392 -0.0012344093 -0.011122789 -0.01422206 -0.001262218
-0.0006898689 -0.008168287 0.0042982874 -0.0100955125 -0.0020411375 -0.004586405 -0.002253148 -0.011837201
-0.0073186974 -0.0038434654 -0.0063517597 -0.00092381507 0.0011824588 0.007637117 0.0006982801 -0.0022470907
0.0033851285 -0.009404613 -0.0032615908 -0.0064857826 0.010775538 -0.014168124 -0.00030952095 -0.004066532
-0.00064876943 6.4150954e-05 0.015148831 -2.816842e-05 -0.009809524 -0.0049267244 -0.010487897 -0.010720902
0.01587101 0.0064611137 -0.011208296 -0.0094862105 -0.00100917 0.0047381823 0.008065861 0.0055025704
0.011218823 0.014431417 0.009621525 0.022126902 -0.01771266 -0.0046303677 0.00351493 -0.0075884145
0.0012142004 -0.005516419 0.01786907 0.015792977 0.006761089 -0.0048190667 0.009051737 0.0068117105
0.007839839 0.0045218063 -0.014123672 -0.012136768 -0.01724737 -0.009548729 -0.0026503373 -0.00063847227
-0.012340855 -0.009620863 -0.006771704 -0.00017465651 0.0016812264 0.0004807617 0.0025710908 -0.01186573
-0.0062612556 -0.01709808 -0.008206256 0.0026500223 -0.005520462 -0.003951114 0.005687268 0.0030326275
-0.002163238 0.0026679246 -0.01442594 -0.006471545 -0.0052514686 0.001325222 -0.005442411 -0.02160908
-0.0011247583 -0.0079787085 -0.00012891546 0.0016231345 -0.01653662 0.020904828 0.011806583 -0.001989638
0.014502169 0.01009545 -0.0034573246 -0.011448366 -0.02141215 -0.0037334582 0.010233979 0.008728258
0.01045664 0.0065120007 0.017714199 0.002923629 -0.004421494 0.0054584537 -0.0055607706 -0.0044491445

LeNet.3.bias f4 [2]
00000000: 1fdf d3ba 4bbd 0c3c
-0.0016164518 0.008590053
