models/hyperparameters/dropout/model_0.8do.PT (torch, 382909 bytes, 14 tensors)

LeNet.0.0.weight f4 [6, 3, 3, 3]
-0.08444041 0.20871413 0.17165363 0.012994139 0.050337892 -0.06472443 -0.04727756 -0.2773202
-0.07270602 0.20789097 0.13909307 0.06959523 0.16329129 0.03789967 0.112224504 -0.052205082
-0.22644652 -0.1449194 -0.13630827 -0.030158035 -0.048250247 0.13190262 0.06987628 0.11351186
-0.0753868 -0.17982082 -0.13274193 -0.073631726 0.01581953 -0.1677451 -0.03592738 -0.080714546
0.029516766 0.14618501 0.18014146 0.16316381 0.018890867 -0.19507432 -0.03704244 0.12785596
-0.04935042 0.15925093 0.061945073 0.05673307 0.12466543 -0.20020854 -0.14543274 0.017158514
-0.10815363 0.011020935 -0.004453542 0.047625177 0.22081725 0.1332866 -0.006034187 0.09871547
0.00917049 -0.1794093 0.09048773 0.15103668 0.121398434 0.17155433 -0.09607825 0.12851134
-0.1398079 -0.083497874 -0.11756118 0.116999745 -0.15637048 -0.15174219 -0.14220937 0.006622052
0.06497781 -0.19403924 -0.017801126 -0.10598789 0.021412423 -0.12535667 -0.15487227 -0.16955067
-0.07716727 0.08773196 0.18411604 0.21510282 0.01541366 -0.014857986 0.034732122 -0.1494251
0.11060639 0.14710541 -0.070830345 -0.008524125 -0.07600734 0.100772366 0.086461976 0.028041232
-0.012291142 0.0048865066 0.056606 0.15735976 0.11292989 0.055744905 -0.11331943 0.108699284
0.16108288 -0.20460795 -0.1045024 -0.21184297 -0.20414843 -0.17337584 -0.06033068 -0.06930342
0.124870524 -0.0043756976 0.043530904 -0.039742287 0.14147119 -0.1299609 -0.12085956 -0.009672315
-0.033836823 0.2320993 0.18079647 0.10117591 -0.2150426 0.09616095 0.033181623 0.093224175
-0.08227852 0.023668762 -0.07157487 0.2538085 0.05623517 -0.20856114 0.021195097 -0.04139767
0.0035135786 -0.091383986 -0.24424028 -0.18737821 -0.26028237 0.041317493 0.11014517 0.13085654
-0.13902123 -0.21297598 -0.24423227 -0.15749961 -0.21987672 -0.1304459 -0.14809546 -0.17268683
0.06814534 -0.032132547 -0.19315282 -0.26161325 -0.26678744 0.012691429 -0.097667284 -0.013035067
-0.092072755 0.13198388
00000000: 18ef acbd 28b9 553e f8c5 2f3e 5fe5 543c
00000010: 1b2f 4e3d 3e8e 84bd 1da6 41bd eafc 8dbe
00000020: e5e6 94bd 5fe1 543e 6a6e 0e3e f287 8e3d
00000030: d535 273e af3c 1b3d f6d5 e53d ffd4 55bd
00000040: 99e1 67be c065 14be 6594 0bbe fc0d f7bc
00000050: 0da2 45bd 7b11 073e 4c1b 8f3d e878 e83d
00000060: 6564 9abd f322 38be 80ed 07be 3bcc 96bd
00000070: f597 813c 5fc5 2bbe 9728 13bd ab4d a5bd
00000080: 25cd f13c 86b1 153e 0177 383e 6a14 273e
00000090: 05c1 9a3c 90c1 47be d0b9 17bd acec 023e
000000a0: aa23 4abd ad12 233e 1eba 7d3d f060 683d
000000b0: 9750 ff3d 7803 4dbe 52ec 14be 0390 8c3c
000000c0: a67f ddbd 2791 343c 05ef 91bb 9e12 433d
000000d0: eb1d 623e 487c 083e 6eba c5bb 562b ca3d
000000e0: d33f 163c 12b7 37be a251 b93d 5ca9 1a3e
000000f0: be9f f83d f0ab 2f3e acc4 c4bd 7a98 033e
00000100: cd29 0fbe ef00 abbd eac3 f0bd 909d ef3d
00000110: 951f 20be 4e62 1bbe 559f 11be ccfd d83b
00000120: 1613 853d 39b2 46be abd3 91bc 2e10 d9bd
00000130: 1b69 af3c 805d 00be d696 1ebe b19e 2dbe
00000140: e009 9ebd d0ac b33d ea88 3c3e ea43 5c3e
00000150: 9389 7c3c e96e 73bc 4543 0e3d e502 19be
00000160: 9a85 e23d cda2 163e 800f 91bd c6a8 0bbc
00000170: bca9 9bbd be61 ce3d fa12 b13d bab6 e53c
00000180: c960 49bc fd1e a03b b1db 673d eb22 213e
00000190: c947 e73d c554 643d 0414 e8bd bb9d de3d
000001a0: e9f2 243e bf84 51be 5b05 d6bd 5ded 58be
000001b0: 490c 51be 7089 31be 4e1d 77bd f4ee 8dbd
000001c0: 1ebc ff3d 0362 8fbb 764d 323d cfc8 22bd
000001d0: d3dd 103e 7814 05be 3885 f7bd a178 1ebc
000001e0: 7b98 0abd 70ab 6d3e b622 393e 5135 cf3d
000001f0: 2134 5cbe 08f0 c43d 74e9 073d 51ec be3d
00000200: a481 a8bd fee4 c13c d895 92bd 30f3 813e
00000210: da56 663d 0d91 55be 57a1 ad3c 9a90 29bd
00000220: 1144 663b 8727 bbbd 201a 7abe 13e0 3fbe
00000230: bb43 85be 883c 293d ca93 e13d 42ff 053e
00000240: 955b 0ebe 6016 5abe 0618 7abe 9447 21be
00000250: 5d27 61be 9c93 05be 56a6 17be d1d4 30be
00000260: c98f 8b3d 6b9d 03bd dac9 45be 2cf2 85be
00000270: 5d98 88be b6ef 4f3c c905 c8bd 0991 55bc
00000280: a490 bcbd c826 073e

LeNet.0.0.bias f4 [6]
0.032055505 -0.117021 0.16232537 -0.12614371 0.09743679 -0.11223044
00000000: a24c 033d b5a8 efbd 9f38 263e d12b 01be
00000010: f18c c73d 13d9 e5bd

LeNet.0.1.weight f4 [6]
0.97803575 1.1198208 1.0426476 0.92132175 0.9120763 0.9974774
00000000: 8d60 7a3f 4a56 8f3f 7a75 853f bedb 6b3f
00000010: d57d 693f ae5a 7f3f

LeNet.0.1.bias f4 [6]
-0.15591978 -0.08562433 -0.10829528 -0.16893475 -0.21289827 -0.1400855
00000000: 6fa9 1fbe cf5b afbd eac9 ddbd 3bfd 2cbe
00000010: 0102 5abe 9372 0fbe

LeNet.0.1.running_mean f4 [6]
-0.009403089 0.10229832 -0.29054648 0.21430649 0.048325844 -1.4200495
00000000: 6a0f 1abc c881 d13d 82c2 94be 2973 5b3e
00000010: 52f1 453d 2fc4 b5bf

LeNet.0.1.running_var f4 [6]
0.0035529644 0.018166464 0.063497335 0.03762853 0.0022637118 0.53318334
00000000: dad8 683b d6d1 943c e40a 823d 6020 1a3d
00000010: c85a 143b b47e 083f

LeNet.1.0.weight f4 [16, 6, 3, 3]
0.066819005 0.04616099 0.06942804 -0.13779764 -0.038371515 -0.09809145 -0.042152837 0.20888065
0.06044341 -0.15405181 -0.1509186 -0.022809012 0.016089994 -0.14451128 -0.070957504 -0.03741469
0.050762642 -0.14420614 -0.022264352 0.0670817 -0.07079223 -0.07653292 0.050550092 0.057317544
-0.062650435 0.015874827 -0.05467014 -0.14792539 -0.1268562 -0.14430588 0.06540604 0.07134187
-0.059847545 0.09614703 -0.13373312 0.021984456 -0.11746725 0.06891944 -0.11825132 -0.089842565
0.12574422 0.14077315 -0.06841496 -0.015943408 0.011662132 -0.05943173 -0.02140602 -0.00208058
-0.09454778 -0.05141605 0.06590846 0.019845778 -0.02346642 0.038200952 -0.049065743 -0.06600072
0.027518453 -0.018603437 -0.0770655 -0.06391445 0.09608562 0.058153436 -0.12345665 -0.2233897
-0.21309853 -0.1505119 -0.0669384 -0.094745636 -0.18805884 -0.110404715 -0.057320014 -0.15599194
-0.046666365 0.003043005 0.012186196 -0.04907963 0.06866145 0.020619586 0.033589378 0.02413099
0.04485053 -0.059836764 -0.07407787 -0.13265562 0.05624499 -0.13093664 0.0518111 -0.064047545
-0.099027336 -0.159517 -0.08829475 -0.079569295 0.07805631 -0.0765076 -0.08257598 -0.005513335
0.061759036 -0.07378205 0.107467525 0.044666093 -0.031243756 -0.04301497 -0.0016785637 0.076241195
-0.061846938 -0.009514479 -0.025368195 -0.06082154 -0.06906934 0.0799571 -0.09012594 -0.106834695
0.04521656 0.03997278 -0.12887408 0.07169278 0.06444934 0.093477726 0.118132964 0.15023029
0.028880086 -0.048306074 0.116058245 0.116478175 -0.11619111 0.0012714795 -0.080508985 0.045388084
-0.20464005 -0.16490154 -0.17484944 0.025015404 -0.05662574 -0.0071735824 0.049629997 -0.084697835
0.06454166 0.16379595 -0.00092407357 -0.020332571 0.038928766 -0.062956065 -0.088768646 -0.03634372
-0.005507172 0.17626941 0.012174793 0.029227322 0.0038843865 0.14825864 0.11890489 -0.06768937
0.09854149 -0.04373 -0.19390847 -0.04084207 -0.004187672 -0.14079233 -0.16676772 -0.08058184
-0.07564042 -0.16055775 0.068878844 0.17973235 0.109347954 0.11279411 -0.00037398635 0.15371484
0.04428287 0.1602413 -0.026321832 0.017130254 0.054656137 -0.09627978 0.092536174 0.13781017
-0.062475692 0.06721732 0.04740797 -0.13430056 -0.06654736 -0.1321503 -0.049301732 -0.14798994
-0.10638818 -0.10376732 -0.12304275 -0.07948709 -0.16372831 0.12282264 -0.0753308 0.11337012
0.06030962 -0.09679135 0.15319823 0.18924844 -0.0039674444 -0.0682669 0.23014057 -0.04115758
-0.018567175 0.11430009 -0.017863479 0.043433316 -0.0738683 -0.032229085 0.11633191 -0.09763007
0.0014508246 -0.034704525 0.030433357 -0.13781057 0.002801547 -0.05876337 -0.021774957 -0.13633856
0.016123498 -0.12863135 0.18468882 -0.060476843 0.049771246 0.15399468 -0.11898645 0.1605141
-0.037336446 -0.098108426 0.062765755 0.015018754 -0.01102224 -0.005823797 0.05862932 -0.08875947
0.09616343 -0.104456566 -0.16892985 -0.014656304 -0.0944432 -0.05720352 -0.03572296 -0.15765393
-0.05106866 0.035890773 -0.16504471 0.023846349 0.102042176 0.07520418 -0.089567654 -0.08573504
0.14172061 -0.01880063 0.11172105 -0.06932216 0.11653735 -0.09606227 0.087335736 0.019535013
00000000: 67d8 883d 4e13 3d3d 4a30 8e3d d31a 0dbe
00000010: 732b 1dbd 2ce4 c8bd 74a8 2cbd cfe4 553e
00000020: 8293 773d c2bf 1dbe 688a 1abe f7d9 babc
00000030: 2acf 833c c4fa 13be 2b52 91bd 2540 19bd
00000040: 7dec 4f3d c6aa 13be bb63 b6bc 2162 893d
00000050: 84fb 90bd 4bbd 9cbd 9d0d 4f3d cdc5 6a3d
00000060: df4e 80bd ed0b 823c cced 5fbd c179 17be
00000070: 97e6 01be ecc4 13be 9af3 853d b01b 923d
00000080: b322 75bd bce8 c43d 56f1 08be bf18 b43c
00000090: ab92 f0bd a325 8d3d c02d f2bd 61ff b7bd
000000a0: 18c3 003e d626 103e 241d 8cbd c09b 82bc
000000b0: 8712 3f3c b06e 73bd ad5b afbc 575a 08bb
000000c0: 44a2 c1bd a399 52bd 04fb 863d 9d93 a23c
000000d0: a63c c0bc 9a78 1c3d 29f9 48bd 632b 87bd
000000e0: 616e e13c 3c66 98bc 84d4 9dbd 94e5 82bd
000000f0: 8ac8 c43d 4c32 6e3d d7d6 fcbd 45c0 64be
00000100: 8036 5abe cb1f 1abe 0017 89bd 000a c2bd
00000110: 7f92 40be de1b e2bd 64c8 6abd 5abc 1fbe
00000120: 3b25 3fbd 276d 473b 9ca8 473c b907 49bd
00000130: 609e 8c3d 68ea a83c 0495 093d 5bae c53c
00000140: 30b5 373d 6517 75bd 23b6 97bd e0d6 07be
00000150: 2661 663d 4114 06be e037 543d 5c2b 83bd
00000160: d8ce cabd 6d58 23be e1d3 b4bd 3af5 a2bd
00000170: fddb 9f3d 04b0 9cbd 981d a9bd 35a9 b4bb
00000180: 0bf7 7c3d 0b1b 97bd ef17 dc3d cbf3 363d
00000190: e8f2 ffbc 7730 30bd 4003 dcba 5824 9c3d
000001a0: 3753 7dbd 9ee2 1bbc f6d0 cfbc 0220 79bd
000001b0: 3a74 8dbd 8cc0 a33d f393 b8bd 26cc dabd
000001c0: 0035 393d 7fba 233d 91f7 03be aad3 923d
000001d0: 04fe 833d 4071 bf3d b2ef f13d f8d5 193e
000001e0: ee95 ec3c 97dc 45bd f2af ed3d 1c8c ee3d
000001f0: 9bf5 edbd c6a7 a63a e5e1 a4bd dbe8 393d
00000200: 298d 51be f3db 28be bb0b 33be 1bed cc3c
00000210: 64f0 67bd 5f10 ebbb d348 4b3d 0f76 adbd
00000220: 6b2e 843d 20ba 273e 873d 72ba 7e90 a6bc
00000230: c573 1f3d 1cef 80bd 56cc b5bd 27dd 14bd
00000240: 8275 b4bb f87f 343e c878 473c 236e ef3c
00000250: 3191 7e3b 1dd1 173e 6884 f33d b9a0 8abd
00000260: 1fd0 c93d 3a1e 33bd f18f 46be 044a 27bd
00000270: bd38 89bb dd2b 10be 28c5 2abe 1708 a5bd
00000280: 5de9 9abd 4069 24be 5a10 8d3d c20b 383e
00000290: d2f1 df3d 9900 e73d 9913 c4b9 6c67 1d3e
000002a0: f461 353d 4c16 243e e2a0 d7bc bf54 8c3c
000002b0: 1ddf 5f3d 552e c5bd 9b83 bd3d 1c1e 0d3e
000002c0: 83e6 7fbd 3ca9 893d dc2e 423d 1686 09be
000002d0: fb49 88bd 6952 07be 9df0 49bd ad8a 17be
000002e0: 0ce2 d9bd f683 d4bd d6fd fbbd 21ca a2bd
000002f0: 65a8 27be 708a fb3d 0947 9abd 982e e83d
00000300: 3807 773d 8b3a c6bd ffdf 1c3e 58ca 413e
00000310: 5601 82bb 84cf 8bbd f8a9 6b3e da94 28bd
00000320: 301a 98bc 2a16 ea3d 6e56 92bc 22e7 313d
00000330: 4348 97bd a502 04bd 6d3f ee3d 46f2 c7bd
00000340: 9829 be3a 5526 0ebd 604f f93c 371e 0dbe
00000350: 299a 373b dcb1 70bd 6561 b2bc 569c 0bbe
00000360: 6d15 843c f0b7 03be 111f 3d3e 91b6 77bd
00000370: efdc 4b3d c8b0 1d3e 2baf f3bd cf5d 243e
00000380: 1aee 18bd 12ed c8bd 558b 803d 3811 763c
00000390: a096 34bc 8dd5 bebb 4c25 703d 86c7 b5bd
000003a0: 55f1 c43d 53ed d5bd f2fb 2cbe ff20 70bc
000003b0: 706b c1bd 3d4e 6abd 3d52 12bd 0870 21be
000003c0: 5f2d 51bd 3402 133d 7b01 29be 6b59 c33c
000003d0: 7dfb d03d a604 9a3d 3f6f b7bd da95 afbd
000003e0: 351f 113e c703 9abc 02ce e43d c7f8 8dbd
000003f0: 22ab ee3d 4cbc c4bd 14dd b23d e407 a03c

LeNet.1.0.bias f4 [16]
0.11797324 -0.06365639 -0.057879493 -0.11839576 -0.052433327 -0.13315317 -0.038174257 -0.045611724
0.059654653 -0.12621793 0.10530394 0.089600146 0.046636283 -0.012062543 -0.12268807 0.12486681
00000000: f49b f13d 485e 82bd 0c13 6dbd 7a79 f2bd
00000010: 54c4 56bd 4e59 08be 9c5c 1cbd 5cd3 3abd
00000020: 7058 743d 463f 01be 98a9 d73d 4880 b73d
00000030: b005 3f3d f9a1 45bc e243 fbbd 2cba ff3d

LeNet.1.1.weight f4 [16]
0.57762283 0.71812063 0.41790637 0.36995575 0.46195066 0.5844445 0.680576 0.5321392
0.63332784 0.69651675 0.4501591 0.51247233 0.6096379 0.4525449 0.28043094 0.48513484
00000000: 17df 133f c1d6 373f d3f7 d53e d76a bd3e
00000010: cc84 ec3e 289e 153f 3b3a 2e3f 463a 083f
00000020: c621 223f ec4e 323f 417b e63e 6331 033f
00000030: 3b11 1c3f f7b3 e73e a594 8f3e 9863 f83e

LeNet.1.1.bias f4 [16]
-0.5130335 -0.29755792 -0.42558244 -0.45722455 -0.4360896 -0.4740243 -0.35029894 -0.51160014
-0.3690874 -0.37566817 -0.4975208 -0.4428726 -0.49332502 -0.5477349 -0.5013433 -0.5614827
00000000: 2a56 03bf 8359 98be f1e5 d9be 5619 eabe
00000010: 2347 dfbe 50b3 f2be 625a b3be 3af8 02bf
00000020: 06f9 bcbe 9457 c0be 0cbb febe 33c0 e2be
00000030: 1995 fcbe 5b38 0cbf 0958 00bf 55bd 0fbf

LeNet.1.1.running_mean f4 [16]
-1.2417661 -2.5199566 -0.7456215 -0.30852658 -1.3078537 -2.4749708 -1.1432619 -2.543903
-2.0850184 -2.9024854 -1.447176 -1.0819272 -1.1732712 -1.3830626 -1.4635475 -1.0471014
00000000: 31f2 9ebf f846 21c0 0de1 3ebf 32f7 9dbe
00000010: c067 a7bf ec65 1ec0 6856 92bf 4fcf 22c0
00000020: f170 05c0 52c2 39c0 103d b9bf 977c 8abf
00000030: c02d 96bf 3208 b1bf 8655 bbbf 6b07 86bf

LeNet.1.1.running_var f4 [16]
3.136846 7.9422665 7.846381 6.936103 6.8565946 4.285198 10.292197 3.740701
7.517591 4.512309 3.9989855 4.541975 2.5679004 16.817196 8.565704 2.7355435
00000000: 16c2 4840 0c27 fe40 8e15 fb40 8ef4 dd40
00000010: 3969 db40 5820 8940 d7ac 2441 a567 6f40
00000020: 1b90 f040 d664 9040 61ef 7f40 dc57 9140
00000030: 7b58 2440 9e89 8641 200d 0941 2513 2f40

LeNet.3.weight f4 [2, 46656]
0.0019132855 -0.027748149 -0.027060993 -0.039886154 -0.01692591 -0.008506713 -0.019141952 -0.0033726704
-0.013345207 0.0052346587 -0.007946253 0.007204192 -0.0015564256 0.008265491 -0.004074282 0.0031517143
0.012499571 0.0024451627 -0.015885802 0.0028506482 -0.00011125122 -0.0011849231 -0.024281722 -0.004077847
-0.0117631 0.011840911 0.0010626497 -0.010549595 -0.0036735577 -0.0039261673 -0.0066410294 0.0028710172
-0.012609684 -0.0078087156 -0.008993136 -0.005218764 1.3662997e-05 -0.015004521 -0.0068979925 -0.016924392
0.0021300544 0.0015834677 -0.0011100156 0.0011628756 -0.008414934 0.0083508035 -0.0023875057 0.009617965
0.0028510748 0.0029780676 -0.0032920549 -0.01002892 -0.025810841 -0.020472143 -0.03061523 -0.042335827
-0.032031182 -0.008739696 0.004465227 0.007100434 -0.0025257368 0.0032197523 -0.006595644 -0.0056430614
0.006289718 0.0033368 -0.0011001584 0.0011655525 -0.010379038 0.005143144 -0.009448783 0.011997581
-0.013886269 -0.0005137209 0.0052116835 0.008723119 -0.01046921 -0.010953049 0.006608339 -0.0009852562
0.009595693 0.010275688 -0.011234237 -0.015568286 0.010325686 -0.0022916715 0.0026483743 -0.0018787424
0.006062122 0.005681033 -0.018074695 -0.0030991219 -0.015713198 0.006362791 -0.015358966 -0.0129590975
-0.013611281 -0.01775431 -0.010197849 -0.015538037 -0.001534488 0.0028714775 0.0053356327 -0.0027925305
-0.0077360068 -0.009633633 -0.027154487 -0.021179957 -0.032096013 -0.032898605 -0.0033443633 0.002456796
0.0092536975 -0.0030987181 0.016571734 0.005865284 -0.002108339 -0.0038434123 0.0018102503 0.0028876348
-9.319315e-05 -0.007933867 -0.0030078928 -0.0038777743 0.00075318443 -0.0027581272 0.002828816 -0.00074898166
0.00020170564 -0.0021810418 -0.0014345554 -0.009685788 -0.0018390357 0.0083938325 0.0057523483 -0.00032467785
-0.0004466429 0.0069392403 0.0038963456 -0.007410746 -0.01651988 -0.00036195113 -0.0059194844 -0.0049808854
-0.012839437 -0.008248421 0.0017953092 -0.00039428117 0.0046570445 -0.005016575 -0.0020896792 0.00045064004
-0.0048757424 -0.003663206 -0.009949954 0.001339779 -0.0020026804 -0.0036239538 -0.0046498147 -0.013197761
0.0055230116 -0.011513527 -0.024671538 -0.014488364 -0.019875033 -0.024149695 -0.004082675 0.007033741
0.0053012064 0.015306909 -0.016782984 0.003040216 -0.0026053968 0.01602942 -0.003724839 -0.008216083
-0.0008212969 -0.008370943 -0.004303579 -0.001172094 -0.001058996 0.0050540543 0.007863919 0.001300539
-0.014313624 -0.019049477 -0.0075757494 -0.003871369 0.002307435 0.013646462 0.00040897797 -0.0026184232
0.007814058 0.004141501 -0.009228199 -0.005765552 -0.0031369333 -0.0042181667 0.013703957 0.0040349416
-0.009866965 -0.0033893925 -0.0020738684 -0.0076406696 -0.016249834 -0.008823792 -0.0079580825 -0.027045557
-0.004704144 -0.0024208848 -0.005199065 -0.0033460006 -0.010650147 -0.010316849 -0.023611223 -0.009723508
-0.023302155 -0.011796707 -0.009789345 -0.00562079 -0.0037090846 0.019055659 0.0066957693 -0.010064553
-0.007514449 0.015581697 0.014216085 -0.0047564665 -1.8795443e-05 -0.0072835204 0.00024732098 -0.006075034
-0.0059162285 -0.010745991 -0.005617016 0.006420951 -0.00414843 0.0036697236 -0.004778983 -0.01111417
6.04019e-05 0.0018474188 -0.007943264 -0.0049269698 -0.008127655 -0.00011118375 -0.0011572248 -0.0015792754
-0.010292776 -0.0136352945 0.0017992924 0.01566942 0.00012904154 -0.005527775 -0.0075401505 0.002931285
00000000: 35c7 fa3a 1650 e3bc 04af ddbc aa5f 23bd
00000010: 35a8 8abc be5f 0bbc 95cf 9cbc 0508 5dbb
00000020: dba5 5abc 8087 ab3b 0031 02bc 2511 ec3b
00000030: fa00 ccba fb6b 073c 8e81 85bb fe8c 4e3b
00000040: 00cb 4c3c 063f 203b f122 82bc f1d1 3a3b
00000050: 8b4f e9b8 6c4f 9bba 76ea c6bc 769f 85bb
00000060: 04ba 40bc 6100 423c 9b48 8b3a 35d8 2cbc
00000070: 12c0 70bb 14a7 80bb fe9c d9bb ad27 3c3b
00000080: d998 4ebc 41e0 ffbb f257 13bc 2a02 abbb
00000090: 203a 6537 86d5 75bc 8e08 e2bb 06a5 8abc
000000a0: 6298 0b3b 5c8c cf3a f17d 91ba a16b 983a
000000b0: cbde 09bc cfd1 083c b377 1cbb ab94 1d3c
000000c0: 19d9 3a3b af2b 433b 84bf 57bb 5750 24bc
000000d0: 4271 d3bc 32b5 a7bc cacc fabc 5568 2dbd
000000e0: 2133 03bd f130 0fbc 0a51 923b c2aa e83b
000000f0: d586 25bb 7b02 533b 4620 d8bb 6ee9 b8bb
00000100: fb19 ce3b 37ae 5a3b 3133 90ba 74c5 983a
00000110: d70c 2abc d287 a83b 11cf 1abc 8191 443c
00000120: 3c83 63bc 3aab 06ba c5c6 aa3b 6aeb 0e3c
00000130: 0d87 2bbc 6b74 33bc c48a d83b b623 81ba
00000140: 4137 1d3c 5c5b 283c ce0f 38bc 2012 7fbc
00000150: 112d 293c de2f 16bb 5990 2d3b 2240 f6ba
00000160: c4a4 c63b f527 ba3b 6211 94bc a31a 4bbb
00000170: f7b8 80bc f67e d03b 2ca4 7bbc 6552 54bc
00000180: da01 5fbc 7d71 91bc e114 27bc 4093 7ebc
00000190: e020 c9ba 662f 3c3b 88d6 ae3b e302 37bb
000001a0: 547e fdbb 63d6 1dbc 1673 debc 9781 adbc
000001b0: 1c77 03bd b0c0 06bd 1b2d 5bbb 3202 213b
000001c0: d29c 173c dd13 4bbb 72c1 873c 9131 c03b
000001d0: 0f2c 0abb c2e1 7bbb ec45 ed3a 793e 3d3b
000001e0: b170 c3b8 0dfd 01bc 1120 45bb 4222 7ebb
000001f0: 5a71 453a b2c1 34bb a863 393b 4f57 44ba
00000200: f280 5339 cfef 0ebb b107 bcba 24b1 1ebc
00000210: cc0b f1ba 4986 093c 327e bc3b 8639 aab9
00000220: 652b eab9 9162 e33b d559 7f3b d8d5 f2bb
00000230: b354 87bc 42c4 bdb9 3cf8 c1bb b236 a3bb
00000240: 815c 52bc 6324 07bc 9550 eb3a 86b7 ceb9
00000250: 1f9a 983b 1562 a4bb 00f3 08bb e243 ec39
00000260: b1c4 9fbb 6612 70bb 2205 23bc 869b af3a
00000270: 673f 03bb db7f 6dbb 795d 98bb 6c3b 58bc
00000280: 61fa b43b 3ba3 3cbc f71b cabc 9a60 6dbc
00000290: f7d0 a2bc 95d5 c5bc f6c7 85bb 4c7b e63b
000002a0: beb5 ad3b d4c9 7a3c 787c 89bc 5c3e 473b
000002b0: 4ebf 2abb 2150 833c 6e1c 74bb c09c 06bc
000002c0: 4d4c 57ba 4826 09bc 0a05 8dbb f3a0 99ba
000002d0: 02ce 8aba 7b9c a53b abd7 003c d976 aa3a
000002e0: b183 6abc a60d 9cbc fe3d f8bb cbb6 7dbb
000002f0: 5638 173b 6995 5f3c 186c d639 da99 2bbb
00000300: 8906 003c 6eb5 873b df31 17bc f5ec bcbb
00000310: 0295 4dbb 8c38 8abb 9086 603c 8b37 843b
00000320: 0da9 21bc 9220 5ebb bde9 07bb 955e fabb
00000330: 5f1e 85bc ab91 10bc 9e62 02bc a58e ddbc
00000340: 3825 9abb b5a7 1ebb eb5c aabb 9348 5bbb
00000350: f47d 2ebc 0008 29bc 536c c1bc 594f 1fbc
00000360: 29e4 bebc fa46 41bc 7d63 20bc 9b2e b8bb
00000370: 1d14 73bb 9d1a 9c3c 2f68 db3b cbe5 24bc
00000380: c43b f6bb 604a 7f3c 95ea 683c 22dc 9bbb
00000390: e8aa 9db7 99aa eebb dcaa 8139 1411 c7bb
000003a0: ecdc c1bb f40f 30bc f20e b8bb d766 d23b
000003b0: 8eef 87bb bf7f 703b 0499 9cbb 3518 36bc
000003c0: 0c58 7d38 1725 f23a 7724 02bc 6b72 a1bb
000003d0: db29 05bc 522b e9b8 05ae 97ba b0ff ceba
000003e0: 08a3 28bc 9266 5fbc 3cd6 eb3a 285d 803c
000003f0: 534f 0739 5622 b5bb 5e13 f7bb cd1a 403b

LeNet.3.bias f4 [2]
-0.008377912 0.004232995
00000000: 8343 09bc f0b4 8a3b
