sigmoid.pth (torch, 382709 bytes, 14 tensors)

LeNet.0.0.weight f4 [6, 3, 3, 3]
00000000: 7a5e 6f3d b729 97bd 8669 b0bd 2a32 bcbc
00000010: e608 39bb 5c59 05be 6b9b bebd 18f2 6ebd
00000020: 8a20 7cbc acb5 81ba fdcb d93d 75d1 94bc
00000030: e9e9 9b3d 1a5b a33d a0b5 28be 1279 86bc
00000040: ccdd f9bd b50e 653d 3894 3bbe 3d84 79bd
00000050: b547 d73c d11a 47be 9659 b7bd ca63 febd
00000060: eafa 963d 121d 50bd 4f97 f9bd f403 333d
00000070: f7c9 283d d93e 6a3d eb6b f7bd 9e1c 2d3e
00000080: 3acc 38be 4f78 543d 7d8d 5a3d 0f8a a93d
00000090: 1fc2 f23d 82ee a43d 0bb2 523d 13ba d1bd
000000a0: 042a da3d a793 ca3c ca71 91bd 25c4 993b
000000b0: 727d 8a3b 93db 223e 6d0b 1abe e954 4cbe
000000c0: 5377 5cbb 58d1 433e 5a3c 02be 29fb d23b
000000d0: 672c 663e 3d98 043d 0b12 04bd 4438 383e
000000e0: ee42 f6bd 9056 273c cc8a c9bd 5c32 6ebd
000000f0: e84d debd 3a18 ce3d 1f86 7dbd 7267 ee3d
00000100: b2b9 35bd 6d79 31bd 4e42 eabd 2e6c 07be
00000110: 8845 243e 9a8f e6bd 04e8 ccbd c46a 1cbe
00000120: d528 883d 1425 623d 995b dd3b fe0c f13d
00000130: ef1b 24bc c03b a3bd 07d0 88bc c880 5ebe
00000140: 2006 033e a93d 103e 29d3 9c3c e129 c0ba
00000150: 8148 9ebd 2995 c53d e1bc 01be 60ad 0f3d
00000160: 57b6 963d 856d b3bd 901d cbbd 9d67 e0bd
00000170: 801c 5cbe b74f 9a3d 0dcd 42bc 9633 693c
00000180: ae8d 873d c314 c93c 52e8 ffbd e2f6 a53c
00000190: d229 f43d 685a 10be bb07 d43d 8e22 64bd
000001a0: 301a b1bc b447 eb3d 4e73 323d d364 60bd
000001b0: 7c30 29be 6eff fcbd 0a58 c4bd e5af 0e3e
000001c0: c1f8 2dbd 567b 89bc ce95 b23d fd13 1fbe
000001d0: e922 bf3d 8421 013c 9edc 703d eb01 213d
000001e0: 1af8 923d 8904 b63d 175a a9bd 87ad 813b
000001f0: cbd6 d3bd 2d05 1a3d 2a87 0b3e ef1d 213e
00000200: 11fa 883c 944a 38be 15db ae3d 3bc5 cd3d
00000210: 79b2 4bbe 6f12 e5bd b27c 63be 3b17 17be
00000220: 7df1 48be cb86 d23d eb82 1bbe 5b22 1a3e
00000230: 7aaf 8c3c 6ddd abbc 4cc5 0f3d 9aac 883d
00000240: bd3a 3fbe d4e0 2fbd 9d98 09be cde6 35be
00000250: 9d4e ca3d 8f4f c53b 87ce 7abe 0bc6 87bd
00000260: 1589 7d3c d21f 52be c5a5 55be eb87 a03d
00000270: 6ac9 383d e7ed 8d3d 36f6 1a3e de5f 2cbe
00000280: 6fe9 01be 8209 16be
0.05843971 -0.07381003 -0.08613877 -0.022973139 -0.0028234064 -0.13022369 -0.093069874 -0.058336347
-0.015388617 -0.0009896061 0.10634611 -0.018166283 0.07612974 0.079763606 -0.16475534 -0.016415153
-0.122005075 0.05592223 -0.1831826 -0.060917128 0.02627931 -0.19443823 -0.08952634 -0.12421377
0.07372077 -0.050808974 -0.12187063 0.043704942 0.041208234 0.057188842 -0.120811306 0.16905448
-0.18046656 0.051872548 0.05335759 0.08278286 0.11853432 0.08053304 0.051439326 -0.10240569
0.10652545 0.02472861 -0.07101782 0.0046925717 0.00422638 0.15904073 -0.15043421 -0.19954266
-0.0033640459 0.19122827 -0.12718335 0.006438632 0.22477876 0.03237175 -0.03224377 0.17990214
-0.120244846 0.010213509 -0.098409265 -0.058153495 -0.10854703 0.100632146 -0.061895486 0.116408244
-0.044366546 -0.04332869 -0.11438428 -0.13224861 0.16042149 -0.112578586 -0.10005191 -0.15275103
0.06648413 0.05521114 0.006755304 0.11770056 -0.0100164255 -0.07970381 -0.016700758 -0.21728814
0.12795305 0.14086021 0.019143658 -0.0014660918 -0.07728673 0.09647591 -0.12669708 0.035077453
0.07358997 -0.087611236 -0.09917748 -0.10957263 -0.21495247 0.07534736 -0.011889708 0.01423349
0.0661882 0.024546033 -0.124954835 0.020259324 0.11922039 -0.14096987 0.10353037 -0.055697016
-0.021618932 0.11488286 0.043566994 -0.054783653 -0.16522402 -0.12353407 -0.095871046 0.13934286
-0.04247356 -0.016782444 0.08719979 -0.15534969 0.093328305 0.007881526 0.058804147 0.03930847
0.07176228 0.08887584 -0.082691364 0.0039574536 -0.10343703 0.037602592 0.1362578 0.15734075
0.016720803 -0.179972 0.0853788 0.10047384 -0.198923 -0.111851566 -0.22215536 -0.14754955
-0.1962337 0.10279616 -0.1518666 0.15052168 0.017173517 -0.020979607 0.035100266 0.06673546
-0.1867475 -0.042939022 -0.13437124 -0.17763825 0.098782755 0.006021447 -0.24492846 -0.066295706
0.015474577 -0.20519951 -0.20864017 0.07838424 0.04511396 0.06930142 0.15132985 -0.16833445
-0.12686704 -0.14652064

LeNet.0.0.bias f4 [6]
00000000: f1d1 2abe e518 44bd ec8f 6cbc 484b 13be
00000010: 7ab5 d4bc 6f5b 143e
-0.16681649 -0.047875304 -0.0144386105 -0.14384186 -0.025965441 0.14488004

LeNet.0.1.weight f4 [6]
00000000: 0970 7e3f 95ce 7c3f c595 803f 4b13 7d3f
00000010: df7d 7c3f 5abe 7d3f
0.993897 0.9875272 1.0045706 0.98857564 0.98629564 0.9911858

LeNet.0.1.bias f4 [6]
00000000: 0348 a9bc 8743 dfbd 5699 afbc 29c4 0fbe
00000010: c989 1abd 8a1a 893c
-0.02066422 -0.10901552 -0.021435421 -0.14039673 -0.03772906 0.016736288

LeNet.0.1.running_mean f4 [6]
00000000: 6567 38bf d7f1 5d3e 7f61 92be ea22 73be
00000010: 28dc 54be bb4c 05bf
-0.7203277 0.21674286 -0.2859001 -0.23743787 -0.20787108 -0.52070206

LeNet.0.1.running_var f4 [6]
00000000: 1948 c63d e6af ba3c 4a1f c33c 24e7 8e3b
00000010: fe26 303c fc0e 113e
0.0968172 0.022788953 0.02381863 0.00436105 0.010751484 0.14165872

LeNet.1.0.weight f4 [16, 6, 3, 3]
00000000: 58f4 083d b7ef 22be 8036 21be f29a 16bd
00000010: 44dc 85bd b511 7cbd 71a9 9cbc b4dc 46bd
00000020: 5683 9fbd 7785 0f3e 4868 91bd 7917 673d
00000030: 7e89 adbc 4dee 40bd 0ea2 0abd 762b 7ebc
00000040: 5fd6 fe3d fe46 0dbd 65a4 8b3c c024 9ebb
00000050: 7ee3 9a3d 46fa 18be 177c 23be 70b1 ccbd
00000060: 2cc6 efbd 8c0e 29bd ea5f 11be c2ba 0d3e
00000070: e5e7 053e f5f7 45bd 4b61 ffbc eb37 d4ba
00000080: 27ed df3d b2d5 753d 81a5 78bd 1a1a 2b3d
00000090: 0b4a 18be aab9 66bd 128b 6a3b 4362 a8bc
000000a0: 4f35 ce3a 298e 793d a8b4 773c 6021 303d
000000b0: dfde 59bd 9165 6a3d b217 e5bd c230 8a3c
000000c0: cdad 19be a301 1cbc 99b8 d23b 562e 6cbd
000000d0: 63dd 1dbe 7ca3 c4bd 0452 143d 9072 c3bc
000000e0: b8a5 f0bd ff54 083d d036 e8bd 11ac 0cbe
000000f0: da57 803c 3c65 d93c a99b b43d 13d7 ea3d
00000100: 860e 623c 4d55 4e3d 295e 353d b404 1a3d
00000110: 94fc 8a3c 5550 853d 8ab9 133e 401a e03d
00000120: b5a7 f5bd cbfd ae3d 7daa 953d 790c 913d
00000130: 3694 a9bd 5e3b edbd 3fe9 b03d 6089 17be
00000140: f5c4 83bd 5b48 a33d 0042 ef3d 4ddd 9b3d
00000150: 3fa3 d43d d64a c73d aa99 a93d 6376 57bd
00000160: 019d 94bd 9503 fb3d 148e e83c 562d c5bb
00000170: 823d dabd 79de 01bc 2be7 1dbd 2dfc d23d
00000180: 0a2d 2fbc 4fe6 d1bd cddd 293d f137 72bd
00000190: a1f9 48bc 8bb6 d5bd 76ee 6c3b 6e9c 3dbd
000001a0: 788c ddbd 53cf 04be 37e0 0cbe e17b d0bc
000001b0: 0cb4 163e 757e 8fbd 9318 973d 73bc 013e
000001c0: 1d92 0e3e 6086 3abd 76a2 3f3d d748 a63d
000001d0: 9c37 d3bd 5b2e 00be 8ab1 aebd a312 e1bd
000001e0: c26c c6bd 3cf8 943d 10b0 af3c 648a 7fbd
000001f0: f8f9 8fbc 7bd7 c83d e9a4 30bc 5091 0c3e
00000200: 994e 87bc cfac 65bb 3560 ae3d ba6c 0ebc
00000210: 5302 543d 06aa cebd 6666 4ebb 1c2a 213d
00000220: 17dd 44bd d48c 50bd 4fee 533d 003b 6cbc
00000230: e2d5 9fbd 6693 03bd 0845 cfbd 4f2d c939
00000240: 1c43 853d a372 21bd 7dc3 993d 2ff6 b13c
00000250: bf11 9e3c 19a6 d6bd 650e 8ebd 9770 e13b
00000260: 7036 cabd 366f d33d ba8c ab3d a4d7 4b3d
00000270: 1c61 f73d 8584 de3d 246d a43d 45bc f33d
00000280: d51d 8bbc 76e2 29bc 6513 ab3d 5ae4 a2bd
00000290: d3b4 3e3d 6666 d0bd f2aa d1bc 585d 87bd
000002a0: 9e64 13be 0419 e8bd e46e 973c dba4 5b3d
000002b0: b107 c63d 44b0 8d3d 60fd 123e ee02 043e
000002c0: a748 81bd fba6 8b3d d137 6a3d ea8d 303b
000002d0: e8b6 dbbb e4e9 45bd 2b25 2b3d b425 a8bd
000002e0: 48f2 6d3b 96da 0bbe fef2 fbbd 0ea1 833d
000002f0: d283 d33c b76b ac3c 4248 283c cd0d 553d
00000300: 3de4 a73d 4253 5c3c 0725 d53d 1e29 0a3e
00000310: 6800 77bd 0900 913d 3e79 dabd f36a 49bc
00000320: 1e12 ff3c 979d fbbd e49c 743d 06a7 9bbd
00000330: c197 a6bd 6761 51bc 3c5c f6bd 4b33 ad3c
00000340: 8969 d23d 1d02 91bb aa4c 34bd aec5 133d
00000350: cd9b f5bb 3ce4 d8bc eec8 42bc 7ef4 81bd
00000360: 97e1 0a3e 8348 133e ec33 2d3b 6606 b43d
00000370: 9884 d13d ddaf 8bbc 43f0 ff3d b42c 193e
00000380: 2606 fe3d 0187 ecbc 8d4a f4bd dc80 bcbd
00000390: fe62 c1bd ded7 aebd b176 ad3d a66e 0d3d
000003a0: 2379 c6bb c900 153d f876 13bd abae 273d
000003b0: ed82 ff3d 80ec e53c 8b91 983d 11ea 37bd
000003c0: d9aa 043e 5cf1 c7bc a8b6 9c3d 25ae 6dbd
000003d0: 26b4 9fbd 72bc bebc e1bb 8c3d e7c2 91bc
000003e0: 58e7 c5bb 1451 a03d 3f76 87bc ab5c 9ebc
000003f0: 5560 9fbc 68d1 2cbd a867 0e3d 07b8 6c3c
0.03343615 -0.15911756 -0.15743446 -0.03676886 -0.06536153 -0.061540324 -0.019123765 -0.048550323
-0.07788722 0.14015757 -0.07099968 0.05641887 -0.021183725 -0.04710226 -0.033845954 -0.015513292
0.12443232 -0.03449153 0.017046163 -0.0048261583 0.07562922 -0.14939222 -0.15965305 -0.09994781
-0.1170772 -0.04127364 -0.14196745 0.13840774 0.13076742 -0.048332173 -0.031174323 -0.0016190981
0.10933905 0.06001825 -0.06070471 0.04177294 -0.14871995 -0.056329407 0.0035788459 -0.020554667
0.001573244 0.06092659 0.015118755 0.04300058 -0.053191062 0.057225768 -0.1118616 0.016868953
-0.15007706 -0.009521875 0.006430697 -0.057661377 -0.15416484 -0.09601495 0.03621103 -0.023858339
-0.11750358 0.033284184 -0.1133858 -0.13737513 0.01566689 0.02653753 0.08818752 0.114668034
0.013797408 0.050374318 0.04427925 0.03760214 0.016966142 0.06509463 0.14426246 0.10942507
-0.11994878 0.08544501 0.07307909 0.07082457 -0.08280222 -0.11583589 0.08638238 -0.14798498
-0.06434051 0.07972785 0.116825104 0.07610569 0.10382699 0.09731071 0.08281262 -0.052603137
-0.072565086 0.122565426 0.02838806 -0.0060173674 -0.10656263 -0.007926577 -0.038550537 0.10302005
-0.0106918905 -0.10249006 0.04147129 -0.05913538 -0.012266547 -0.10435208 0.0036152876 -0.04629176
-0.10817808 -0.12969713 -0.13757406 -0.025449695 0.1471712 -0.07006542 0.07377734 0.12669544
0.13922925 -0.045538306 0.046785794 0.08119362 -0.10313341 -0.12517683 -0.08529957 -0.10989883
-0.09688713 0.072739094 0.021446258 -0.06238784 -0.01757525 0.09806725 -0.010781505 0.13727307
-0.01651697 -0.003504563 0.08514444 -0.008692915 0.05176003 -0.10091023 -0.003149414 0.0393468
-0.04806241 -0.050915554 0.05174094 -0.014418364 -0.07804467 -0.032122992 -0.101205885 0.00038371465
0.06506941 -0.039415967 0.075079896 0.021723835 0.019295571 -0.10480899 -0.06936339 0.006879877
-0.098736644 0.10323946 0.08376451 0.049766198 0.12079069 0.1086512 0.080286294 0.11901144
-0.016981998 -0.010368934 0.083533086 -0.07953711 0.046559166 -0.10175781 -0.025594208 -0.06609601
-0.14393851 -0.11332896 0.018485494 0.053624015 0.09669436 0.069183856 0.14354467 0.12891743
-0.063126855 0.06818958 0.057182137 0.0026940056 -0.0067051537 -0.04831876 0.041783493 -0.08210316
0.003630774 -0.13657603 -0.123022065 0.06427203 0.025819693 0.021047456 0.010271134 0.052015115
0.0819783 0.013447585 0.10407453 0.13492247 -0.06030312 0.07080085 -0.10667656 -0.012293565
0.031136569 -0.12285917 0.059719935 -0.076002166 -0.081344135 -0.01277957 -0.12029311 0.021142622
0.102740355 -0.0044253008 -0.044018425 0.036077194 -0.0074953795 -0.026476018 -0.011888726 -0.06345461
0.13562618 0.1438313 0.0026428653 0.08790283 0.102303684 -0.017051632 0.12496998 0.14958459
0.124035165 -0.028872969 -0.11928282 -0.092042655 -0.094427094 -0.08537267 0.08469904 0.03452935
-0.006056921 0.036377702 -0.03600213 0.04093806 0.12476144 0.028066874 0.07449635 -0.044900957
0.12955798 -0.024407081 0.076520264 -0.058027405 -0.077980325 -0.023283217 0.068717726 -0.017793132
-0.006039541 0.078279644 -0.016535876 -0.019331297 -0.019455114 -0.042191893 0.034766823 0.014448172

LeNet.1.0.bias f4 [16]
00000000: a24c a93d 9c3b 913d aee4 f2bd 3205 49bd
00000010: 7ca9 0f3d 305c 11bd 29a4 f6bd 9e9b de3d
00000020: 561a 04bc 9238 243b 1879 043e f45c fdbd
00000030: c6ea 9fbc 1313 87bd 821d a03d d3fc e4bd
0.0826657 0.07091448 -0.118600234 -0.04907722 0.035073742 -0.035488307 -0.1204303 0.108695254
-0.00806292 0.0025058133 0.12936819 -0.12371245 -0.019521128 -0.06595435 0.07818128 -0.11181035

LeNet.1.1.weight f4 [16]
00000000: 62f1 613f 2b49 683f 7526 6f3f 7cef 693f
00000010: a4be 703f 6bed 723f 723d 6f3f b2f8 6f3f
00000020: a3a3 793f b60f 703f 57dc 683f 845f 703f
00000030: 022b 703f 78a1 603f 3863 743f 7d85 763f
0.88258946 0.90736645 0.93418056 0.9138105 0.94040895 0.9489352 0.93453133 0.93738854
0.97515315 0.93773973 0.9096121 0.93895745 0.93815625 0.8774638 0.95463896 0.96297437

LeNet.1.1.bias f4 [16]
00000000: eec6 dbbe 911e dfbe edac bfbe f79d dbbe
00000010: dbbc b9be 1332 c2be 6b5f bcbe 20bc bcbe
00000020: 6f80 c3be 685f c2be 9584 dcbe 44ef bfbe
00000030: 35b4 bbbe 35c2 debe 254d c5be c93b c0be
-0.4292521 -0.43578008 -0.3743662 -0.42893955 -0.36276898 -0.3792883 -0.36791548 -0.36862278
-0.38183925 -0.37963414 -0.43069902 -0.37487233 -0.36660925 -0.43507543 -0.3853542 -0.37545612

LeNet.1.1.running_mean f4 [16]
00000000: 122e a1bf 9ed1 943d 0412 ba3e 02dd 14be
00000010: 1de5 ad3f 765f 073d 1474 3a3e f90f f63e
00000020: 574a ca3e 6e99 7c3f fa2e dd3c cbc8 a73f
00000030: a9ea 083f e5c3 a0bf e3eb be3b 8be7 a93e
-1.2592185 0.07266544 0.3634187 -0.14537433 1.3585545 0.033050023 0.18208343 0.4805906
0.39509842 0.98671615 0.02699994 1.3108152 0.53483063 -1.2559782 0.0058264597 0.33184466

LeNet.1.1.running_var f4 [16]
00000000: 29ca ec3e 3aa3 913e 0b77 7e3e 1b07 913e
00000010: 795d 1d3f 4bca 5e3e c342 b33e 8254 063f
00000020: 4950 123e d69c 393f 1fd2 1a3e fcfa d73e
00000030: 4bc2 a63e ca46 013f 8027 a23d f548 513e
0.46247986 0.28444844 0.24850099 0.28325734 0.6147075 0.21756856 0.35011873 0.524727
0.14288439 0.7250494 0.15119217 0.42183673 0.3257011 0.5049864 0.0791769 0.20437987

LeNet.3.weight f4 [2, 46656]
00000000: 592b dabc 0882 f8bb 0833 42bc e8a7 cebb
00000010: fc5b 05bc dd04 d8bb 480f 48bc 163b e1bb
00000020: bd74 883b 41d7 e13b ba66 093c febd e63b
00000030: fdf2 8e3b 66dc 4abc 2cf5 0739 0bd4 d7bb
00000040: 9290 88ba 5ab6 aa3a 9930 773c 9fb0 7d3b
00000050: 8f8a 053c a1a5 793c f519 683c 0279 fc3c
00000060: 084e 1f3d 94ef dc3c 4818 813c be1f ea3c
00000070: 84d8 ff3c 0985 d63c 71c2 c83c 9bff 393c
00000080: 36d5 bc3b fc46 31bb cb5f d73a 0985 19bc
00000090: f10a 00bc 98bb cdbb b577 12bc be71 c6bb
000000a0: cfee 96bc 1951 d0bb 8e7d f5bb 612e 76bc
000000b0: 1f2b 18bc 45d9 51bc abb5 ffbb 109d 31bc
000000c0: 7a19 82bc ebce 28bc 25e3 05bc e19a 4abc
000000d0: 9774 81bc c814 fdbc 33ce 43bc c982 c7bb
000000e0: 9d9a 87bb f3c3 2fbc 8d1b 41bc 08d0 653a
000000f0: 86a7 353a dc7e e338 596e a03b 82ea f73b
00000100: 9635 e43b 623c be3a 5754 c73a c522 c2bb
00000110: 492d e3ba c1d0 88bb d321 cfbb 8911 ecba
00000120: f4d2 2a3b 61cb 543b 0c00 ba3b 091f 65b9
00000130: 0f15 d73b 9ff2 973c 5616 ba3c 76d9 7c3c
00000140: ba61 0a3c f623 dc3c 9068 353c 6c43 973c
00000150: 0baf 8e3c 1eb1 f03b cbf2 9fbb 6adc 04bc
00000160: 2f4e adbb 9071 ebbb 6650 0abc e0c3 c9bb
00000170: 2c58 8abb 7cfb 233b ffa0 59bb 1be2 b13b
00000180: f6c8 efbb 49a7 58bc 28d7 093b 90ed b23b
00000190: 22b1 893b 7c12 183c b5cb f8b9 31ee c9bb
000001a0: 95f4 a63a d41b 49bb 4d96 ceba 324b b8bc
000001b0: 9279 00bc 0f45 25bb 17e3 313c f6c7 e53b
000001c0: 2bd9 023c 8fcd f73b d0f8 233c 81a5 b93b
000001d0: 7937 f43b cd69 f53b 817d 093c 487d 6a3b
000001e0: 8388 8bbb 5b55 4dbc 7bbb 5cbc fbb6 54bb
000001f0: f990 48bc 9997 c6bc efca 8bbb 4e77 82bc
00000200: 3813 ccba f5bc 673a 4be2 943b b73d 853c
00000210: dc03 2f3c 0383 15bb 44da 193b 71aa f93b
00000220: 2f3d bd3b 0d18 593c d5ec 653c 5498 613c
00000230: 4a97 063c 853a e93b cfe8 30bc 0128 a7ba
00000240: 5bc4 86bc 158d 9eba c511 5cbc 6d8f 55bc
00000250: 88c3 d7ba 250d 0abc d644 80bb a646 20bb
00000260: 0eab 893b f3eb 46bb 7b35 fc3a 1fc4 993b
00000270: f33f f13b 52d3 b03b 2663 8b3b 2721 b23b
00000280: 3a31 89bb e25f 57bc 671e babc 8851 34bb
00000290: c514 5cba 0a22 d1ba 32c4 fb3b 388e 103c
000002a0: d47c 743c 49d0 1d3c 0cbf adb8 cb8e 493b
000002b0: ca90 1abc 9580 14bc c6e4 05bc a9d9 cdbb
000002c0: b3a3 d73a a535 893b 20b6 b3bb 62a0 f1bb
000002d0: 7606 38bb 6fcb 053c ef58 003c 0723 d639
000002e0: 7dcf 303c c983 8d3c b24c 853c 7846 1dbb
000002f0: f9b6 aabb be8b fa3b 6b32 163c 0c44 1e3c
00000300: 133f f03b c83a dd3b 20b2 7c3c 7bd2 a63b
00000310: 5af7 203c 5022 253b ca3a 9bba 8c5b 1f3c
00000320: 4c38 0bbc b6b6 02bc ce84 59bc 2089 2ebc
00000330: 8030 5abc 4f36 cfbb 69cc a0bb d69a 20bc
00000340: 7ff4 d83a 40fa 58ba 22dc c03a 60a0 6ab5
00000350: 8004 923b c0f9 a33a 5ecd d03b 52c8 b4bb
00000360: fcc2 bebc 21fd 44bc bced 5fbc 5998 85bc
00000370: 52ae d1ba 1af9 c7b8 1d1a 803b c32d 0c3b
00000380: 112d 9e3b 238f 5bbb 1989 4dbc e92c 47bc
00000390: 549d d1bb 7924 d8ba 0edc 813b 5a9a 813b
000003a0: f89d 3e3c 3857 6f3c dee9 123b 21b5 523c
000003b0: deec 3c3c c435 85bb ff18 5a3c ebcd 6b3c
000003c0: 0ae7 b43b 606d 15bc 0d72 c1bb 3f84 f3bb
000003d0: cbd0 9bbb 8d51 643b 175b 173c abb4 a63c
000003e0: 37ab 643c 1627 3b3c 47ea 8e3c a2e1 183c
000003f0: 1942 403c 56d6 443b 121d dcbb 6db6 be3b
-0.026631998 -0.0075838603 -0.011852987 -0.006306637 -0.008139607 -0.0065923766 -0.012210675 -0.0068734987
0.004164307 0.0068921153 0.008386308 0.007041692 0.0043624626 -0.012381649 0.00012965937 -0.006586557
-0.0010419062 0.0013024316 0.01508727 0.003871001 0.008150711 0.015237243 0.014166345 0.03081942
0.038892776 0.026969709 0.015758649 0.028579589 0.031231172 0.026186483 0.02450678 0.011352445
0.0057627214 -0.0027050367 0.0016431747 -0.009370097 -0.007815109 -0.0062784664 -0.008939673 -0.0060560396
-0.01842442 -0.006357324 -0.007491774 -0.015025706 -0.009287625 -0.012808149 -0.007803639 -0.010840669
-0.015881289 -0.010303239 -0.008171831 -0.012366028 -0.015802665 -0.030893698 -0.011951017 -0.006088589
-0.0041383044 -0.01072787 -0.011786354 0.0008766656 0.0006929565 0.00010847833 0.004895967 0.0075657973
0.0069643958 0.0014513845 0.001520763 -0.005924555 -0.0017332222 -0.004175276 -0.006321171 -0.0018010597
0.002606568 0.0032469856 0.005676275 -0.00021850703 0.0065637897 0.018548308 0.022715729 0.015432706
0.008446151 0.026872616 0.011072293 0.018464766 0.017417451 0.0073453328 -0.004881238 -0.008109191
-0.005288861 -0.0071851686 -0.00844202 -0.0061573833 -0.0042219367 0.0025021723 -0.0033207533 0.005428565
-0.0073176576 -0.013223478 0.0021032784 0.0054604486 0.004202024 0.009281751 -0.0004745402 -0.006162428
0.0012737686 -0.0030686753 -0.0015761346 -0.022496793 -0.007841485 -0.0025218164 0.010857365 0.0070123626
0.007986347 0.0075623463 0.010008052 0.0056654816 0.007452902 0.007489419 0.008391739 0.003578024
-0.004258217 -0.012532557 -0.013472433 -0.0032457698 -0.012241595 -0.02424221 -0.004266135 -0.01592603
-0.0015569692 0.00088401075 0.004543578 0.01626478 0.0106820725 -0.0022813685 0.0023476044 0.007619195
0.005775116 0.013250363 0.014033516 0.013769228 0.008214781 0.007117572 -0.010797693 -0.0012753011
-0.016451051 -0.0012096489 -0.013431971 -0.013034684 -0.0016461471 -0.008425985 -0.003914456 -0.0024456172
0.0042012995 -0.003035304 0.0019242013 0.004692569 0.0073623597 0.005396285 0.004253763 0.005436081
-0.0041867765 -0.013145419 -0.022719575 -0.0027514417 -0.0008395429 -0.0015955579 0.0076833004 0.00882297
0.0149223395 0.009632179 -8.284868e-05 0.0030755277 -0.009433934 -0.0090638595 -0.00817222 -0.0062820506
0.0016451984 0.004187303 -0.0054843575 -0.0073738554 -0.0028080023 0.008166178 0.007833703 0.00040843358
0.010791657 0.017274754 0.016271923 -0.0023998301 -0.0052098003 0.007646053 0.009167294 0.009659778
0.007331738 0.006751392 0.015423328 0.005091009 0.009824598 0.0025197454 -0.0011843082 0.009726416
-0.008497309 -0.007978132 -0.013276292 -0.01065281 -0.013317227 -0.0063236128 -0.00490718 -0.009802541
0.0016552358 -0.0008277036 0.0014714042 -8.740517e-07 0.004456103 0.0012510344 0.006372138 -0.005517044
-0.023286335 -0.012023241 -0.01366752 -0.016307997 -0.0015997386 -9.535458e-05 0.003909363 0.002138958
0.0048271497 -0.0033502064 -0.012544894 -0.0121567035 -0.006396929 -0.0016490362 0.003963 0.0039551677
0.011634342 0.014608197 0.0022417228 0.012860567 0.011531083 -0.0040652473 0.013311624 0.014392356
0.005520706 -0.009120315 -0.0059034885 -0.0074315364 -0.0047551147 0.0034838647 0.009238026 0.020349821
0.013956836 0.011422893 0.017445697 0.009331139 0.011734509 0.003003498 -0.0067173326 0.0058200867

LeNet.3.bias f4 [2]
00000000: c1fc 183b 048d a43b
0.0023344012 0.005021693
