models/hyperparameters/epochs/model_fifteen_epoch.PT (torch, 383053 bytes, 14 tensors)

LeNet.0.0.weight f4 [6, 3, 3, 3]
000000 7d 68 cb bd 14 cb a5 be 6a c3 21 bd e4 65 37 bd
       -0.09932039 -0.323815 -0.039493002 -0.044774905
000010 93 fb 0d 3d 26 bf 30 3d 58 0c d7 bd 31 40 fb bb
       0.034663748 0.043151043 -0.10500401 -0.0076675643
000020 d6 0a ae be 8f d1 f7 bd 81 3d 57 bd 63 89 98 be
       -0.33992642 -0.12100517 -0.05254889 -0.29792318
000030 d8 9d 5c bd 36 7a 1a be 36 34 34 3d b1 f6 61 bd
       -0.05386147 -0.15085682 0.043995105 -0.055166904
000040 bf 14 6c be 69 e9 19 be 5d 48 e8 bc f6 9f a8 be
       -0.23054789 -0.15030445 -0.028354818 -0.3293454
000050 25 b2 86 be 8f 32 58 3b 8c d0 96 3d 72 f4 7b be
       -0.26307788 0.003298912 0.07363996 -0.24604967
000060 12 e6 4d be 43 7e 87 bd 4e b7 d9 bd 6c 9c c4 3d
       -0.20107296 -0.066158794 -0.10630666 0.096001476
000070 f0 9d 0b bd 14 c0 76 3d 0e 4c a0 3c 87 ac d6 3c
       -0.034086168 0.060241774 0.019567516 0.026205314
000080 cc 1e 6f be 9a 8e 33 be 7d 71 96 be 38 7d 83 3d
       -0.23351592 -0.17534867 -0.2938346 0.06420368
000090 3f 29 a2 bd 33 cf 07 be 61 ef 65 be 06 ea 72 be
       -0.07918023 -0.13262634 -0.22454597 -0.23722085
0000a0 9b 4d ce bd ee b5 02 be 00 73 8f bd 63 19 9c be
       -0.10073396 -0.12764713 -0.070043564 -0.3048812
0000b0 53 38 87 bd 8b 50 8f ba 51 5d 87 bd 2b f7 c3 bd
       -0.0660254 -0.0010934038 -0.066095956 -0.09568628
0000c0 fb 3c e2 bd bd 7c ea 3c ea fc 43 be 93 14 9a bd
       -0.11046787 0.028623933 -0.19139448 -0.075234555
0000d0 74 88 28 be 84 cf ab bd 48 36 a8 3d 0d ff 84 3e
       -0.16458303 -0.0838919 0.08213478 0.25975838
0000e0 56 69 4a 3d a0 6a 8d bd e9 f8 01 3c 5f db 80 bc
       0.049416862 -0.06905103 0.00793288 -0.015729604
0000f0 1c ed b1 bc 5c 6b 15 3e f2 87 fe 3d 34 40 3d 3e
       -0.021719508 0.14591736 0.12428273 0.18481523
000100 65 98 88 bd 2f c5 4f 3e 45 5a 75 3e 29 42 f3 3c
       -0.06669692 0.20290063 0.23960216 0.029694634
000110 d3 82 ff 3d 75 ad c3 3d 63 39 14 bd c1 cf 0f be
       0.124761246 0.09554569 -0.03618754 -0.14044096
000120 97 18 86 3e ab f6 18 3e 40 83 01 3e bf 90 5b 3e
       0.26190636 0.14937846 0.12647724 0.21441935
000130 f5 88 5d 3e 08 14 d9 bc 32 b5 01 be fe 60 c8 bd
       0.21634276 -0.02649881 -0.12666777 -0.09784125
000140 d6 7a 08 3d e1 e1 e2 3d 44 02 80 3d 8a a1 df 3d
       0.03332027 0.11078239 0.06250432 0.10919483
000150 8b 82 8f bd b3 4b ee 3d 15 34 3e be 08 d3 26 3e
       -0.07007321 0.11635532 -0.18574555 0.1629144
000160 19 ed 1c 3e 81 d7 a8 bd 99 ab 16 be b3 15 42 be
       0.1532482 -0.08244229 -0.14713897 -0.1895359
000170 aa 8a cb 3d 90 8a 3a 3e 15 dc 2c be 39 4b f3 bb
       0.099385574 0.1821692 -0.1688083 -0.0074247387
000180 e2 f0 25 3e ae bd 70 bd f1 a5 49 be e2 21 d4 bc
       0.16205171 -0.058774643 -0.19692208 -0.025895063
000190 4b a0 09 3e 85 1d 79 bd 8a 57 2a 3d 93 6f 2e 3d
       0.13440053 -0.060819168 0.04158739 0.042586874
0001a0 05 e3 11 3e 95 19 76 bd bb 5b 0a 3e 2b e1 01 be
       0.14246757 -0.06008299 0.13511555 -0.12683551
0001b0 78 85 8b bc 1a 94 00 bd 7b 0c 2c bc b1 50 4e be
       -0.017031416 -0.03139124 -0.010501022 -0.20147969
0001c0 dc 5b 50 bd 5f 3c 05 3e 9f ee 3f bd 27 2d 7d 3d
       -0.050868854 0.13011311 -0.046858426 0.06181064
0001d0 80 82 6c 3e 34 f7 93 be 71 2f 5c be dd 74 bd 3d
       0.23096657 -0.2889954 -0.21502472 0.092508055
0001e0 a9 5c f6 3c ae 2c e1 bd 37 e4 4f 3e 34 80 2c be
       0.03007348 -0.1099485 0.20301901 -0.1684578
0001f0 a9 2a a7 bd a7 29 90 3d e3 d1 71 be 6b 5e 5c be
       -0.08162434 0.070391946 -0.23615222 -0.21520393
000200 9b c8 c0 bd d5 dc d7 3d 6a 44 01 3d e5 8e 88 3e
       -0.094132625 0.10540167 0.031559385 0.2667152
000210 3c e7 f8 3d 9f 5b 36 3e 3c 67 12 3e d4 db 79 bd
       0.121534795 0.17808388 0.14297193 -0.06100066
000220 85 fe 5e bd 31 59 32 be ff 11 8a 3c 00 c7 23 be
       -0.054441947 -0.17416836 0.016854284 -0.15993881
000230 4f aa 09 be 08 ab ef 3c 7f eb cb 3b 8c 38 eb 3d
       -0.13443874 0.029256359 0.0062231417 0.11485395
000240 89 f9 a9 bd bc fd 16 be 4e 8c 06 be 28 1e 2d 3e
       -0.08299548 -0.1474523 -0.1313946 0.16906035
000250 b4 a6 39 bd c0 a6 fb 3c 5e df 83 bd 2e f5 32 be
       -0.045324996 0.030719161 -0.06439088 -0.17476341
000260 02 99 11 be 27 d3 18 3e 36 af 95 3c 19 fe 48 bd
       -0.14218524 0.14924298 0.018272024 -0.04907045
000270 d4 4a 64 bc 3c ff 3e bd 96 59 13 be 6b 3a 6f 3d
       -0.013933856 -0.04663013 -0.14389643 0.05840532
000280 7b 60 f9 bc dc be ac 3d
       -0.030441513 0.08434841

LeNet.0.0.bias f4 [6]
000000 f6 58 31 3e 82 8e 76 bd 16 ae 23 be e4 a1 37 3e
       0.17319092 -0.0601945 -0.15984377 0.1793285
000010 8d 1e fd 3d a5 6c 42 bc
       0.12359343 -0.011866723

LeNet.0.1.weight f4 [6]
000000 9f ef 74 3f ac bf 70 3f b2 93 80 3f b0 d6 82 3f
       0.9567813 0.9404247 1.0045073 1.0221767
000010 bf b6 85 3f 59 81 82 3f
       1.0446395 1.0195724

LeNet.0.1.bias f4 [6]
000000 5d 91 04 be 24 75 00 be ba f6 29 bd e8 fe d4 bc
       -0.12946077 -0.12544686 -0.041495062 -0.026000455
000010 89 87 bc bd 87 24 9f bd
       -0.09205539 -0.07770639

LeNet.0.1.running_mean f4 [6]
000000 f4 9a aa bf c4 1f a7 bf 6b 35 48 3f a2 00 9e 3e
       -1.3328538 -1.3056569 0.7820651 0.30859858
000010 83 bd 89 3d ed df f8 be
       0.067255996 -0.48608342

LeNet.0.1.running_var f4 [6]
000000 69 10 32 3f 58 36 f4 3e b4 52 8c 3e ec ac c0 3b
       0.6955629 0.4769771 0.27406847 0.005879989
000010 52 d7 d6 3b ff ce 8f 3d
       0.00655643 0.07021903

LeNet.1.0.weight f4 [16, 6, 3, 3]
000000 48 74 54 3d eb 68 73 bc 4e 56 3c 3c 8a ef a9 3d
       0.051868707 -0.014856557 0.011495186 0.082976416
000010 ff 9d 93 bd 78 e7 0c bc c8 f4 e4 3d 61 16 af 3d
       -0.0720787 -0.008600108 0.11179501 0.0854919
000020 09 52 d4 bd 02 16 44 3d 65 63 b8 3d 84 53 f2 bd
       -0.103672095 0.04787255 0.09003333 -0.118323356
000030 24 09 91 3d 9a 9a 82 3d 2b 6d c8 3d a9 c9 b1 bd
       0.070818216 0.06377144 0.09786447 -0.08681042
000040 8e 9b 57 bd fb b9 b6 bc cf 60 7d 3d f8 77 d1 bd
       -0.052638583 -0.02230548 0.061859902 -0.1022796
000050 29 04 c6 bd 6b e6 2c be 5b 8e 0c be dc d9 13 be
       -0.09668762 -0.16884772 -0.1372618 -0.14438576
000060 8b a5 3e 3d 55 e0 33 3d 68 82 12 be 49 d2 9c 3a
       0.046544593 0.04391511 -0.14307559 0.0011964525
000070 3e 66 0a be d9 62 e6 3d 30 30 23 be be 13 bf 3d
       -0.13515565 0.112493224 -0.15936351 0.093299374
000080 6a b4 a9 bd 98 2e 1d be 6a 2b 24 3c be f1 f0 bd
       -0.082863644 -0.15349805 0.010020116 -0.11764859
000090 3a 65 94 3c f9 d0 06 be b2 e1 69 3d 0b 12 0a 3e
       0.018114675 -0.13165654 0.057100005 0.13483445
0000a0 81 87 a6 3d 47 a9 5d 3d a5 ea 76 bd e7 7b e0 3d
       0.08131314 0.054116514 -0.06028237 0.109611325
0000b0 75 8f b5 bd aa 54 8e bd 5b 31 2f be bb d8 68 bd
       -0.08865253 -0.06949742 -0.17108671 -0.056847315
0000c0 ec 76 0a 3d a0 ee 99 3d 80 2c cc bd 98 6e 7b 3d
       0.03380482 0.07516217 -0.09969425 0.061384767
0000d0 36 da c8 3d 94 3a 31 3d 0a 33 39 3d c3 67 fb bc
       0.098072454 0.043268755 0.04521469 -0.030689126
0000e0 06 ec 96 bc 76 f1 d8 3a 96 6f 3a 3d b6 0b 1b 3c
       -0.018423092 0.0016551453 0.045516573 0.009463241
0000f0 65 0a 94 3d 27 de a9 3c 86 52 d2 bc 4e 6a 5a bd
       0.07228545 0.020735813 -0.025674116 -0.053324036
000100 f5 3d ac bd f6 22 ae bc 98 dd 9c bd 70 e3 aa bc
       -0.08410255 -0.021256905 -0.07659453 -0.020860404
000110 dd f4 59 be 4e 5c 8c 3c 10 11 4d be 1f 45 32 bd
       -0.21284814 0.017133858 -0.2002604 -0.04352295
000120 78 9c 44 bd ba ea 9f 3d 62 47 0c 3e 03 a7 3e 3e
       -0.048000783 0.078084424 0.13699105 0.18618397
000130 cd 9d df 3d 22 e9 81 3c cb cc 23 bd f5 ca 31 3d
       0.1091877 0.015858237 -0.039990228 0.043406446
000140 e3 c6 98 3d 6b a0 35 3e 09 d8 90 3d 39 68 08 3e
       0.0745981 0.17736976 0.070724554 0.13321008
000150 c8 c4 89 bc e7 fb 43 3e ed 53 a0 3c 4e 6f a9 3d
       -0.016817465 0.19139062 0.019571269 0.08273183
000160 84 d2 3a 3d 00 8d ae bc e3 5a d6 3d 36 5b 0d 3e
       0.04561092 -0.021307468 0.10466554 0.13804325
000170 ed f6 1f 3e 06 57 a6 3d 87 16 a8 3d 03 bf ab bd
       0.15621538 0.08122067 0.08207422 -0.08386042
000180 4d a9 c8 bd b9 fd f8 3d ab 42 bc 3d 0e 0b 20 bd
       -0.097979166 0.12157769 0.091924034 -0.039073043
000190 32 2b 40 be 1b 30 59 be 04 24 af bd 8a 91 05 be
       -0.18766478 -0.21209757 -0.08551791 -0.130438
0001a0 00 c9 cb bd df 8f 98 bd b6 5a 3f be ee d2 ff 3c
       -0.09950447 -0.07449316 -0.18686947 0.031228509
0001b0 ff 53 a0 bd 60 5d ca 3d 6f 41 b9 bc a1 8e 84 3d
       -0.07828521 0.09881091 -0.022614209 0.06472517
0001c0 fe 38 f8 3d 6b 88 05 3c 0f 06 2e be 8d 61 90 bd
       0.121202454 0.0081502 -0.16994499 -0.07049856
0001d0 0c 9f bd bd 5f 9c af 3d e8 a2 97 bd 26 68 99 3d
       -0.092588514 0.08574747 -0.07404119 0.07490568
0001e0 87 d5 80 bd e3 dd 17 bd 57 d1 9f 3d 6b cc 1c bc
       -0.06290727 -0.037076842 0.078036 -0.009570221
0001f0 55 c1 ce bd 57 d0 9e bc 5f 47 69 bd 32 52 42 3b
       -0.10095469 -0.019386454 -0.05695283 0.0029651043
000200 b7 52 96 3d 0d f4 22 be af 69 82 3d 27 b1 ae 3b
       0.07339995 -0.1591341 0.06367814 0.005331177
000210 82 c7 2c 3d 6f de a9 ba 01 e3 b1 bd ff 74 f7 bd
       0.042182453 -0.0012959967 -0.08685876 -0.12082862
000220 89 74 8f bd 10 04 17 be dd b7 fa bd 7d 81 43 bc
       -0.07004649 -0.14747643 -0.122421004 -0.011932728
000230 d3 76 9c 3c e4 02 a1 3a b7 6c 9b 3d d9 5c 02 bd
       0.019099629 0.0012284187 0.07589095 -0.031826828
000240 66 19 9a 3d 5f 58 e2 bc 41 16 89 3d d9 08 91 bd
       0.075243756 -0.02763003 0.06693698 -0.07081766
000250 ba 52 c2 bc 5b 28 9d 3d c2 47 1f be f0 cb 29 bc
       -0.023721088 0.07673713 -0.15554717 -0.010363564
000260 d6 84 86 3d a2 48 d8 3d ae a2 c0 bc c1 29 35 3e
       0.06568305 0.105607286 -0.023515072 0.17691709
000270 a7 08 5f 3d 34 e4 02 bd ed d3 35 3d 43 b5 d4 bd
       0.05445161 -0.031955913 0.04439156 -0.103861354
000280 9d 56 fe bd 5c 25 15 bd c6 b1 91 bd 0a 3b cb bb
       -0.12418864 -0.03641258 -0.07113986 -0.0062021064
000290 ea 37 ca bd 0b 0d 26 be b6 36 48 bd ca 12 47 3d
       -0.09873946 -0.16215913 -0.0488803 0.048601903
0002a0 06 03 f6 bd ef 76 c9 3d 70 fe 8f bc f9 27 45 bd
       -0.120122954 0.09837138 -0.01757738 -0.048133824
0002b0 0c 45 4e bd 1b db a7 bd 9d 55 ec bd 23 03 eb 3c
       -0.050358817 -0.08196088 -0.11539767 0.02868802
0002c0 11 2d cb bd ea 0f d3 3d dd 78 13 3e 2b ab ea bd
       -0.09920705 0.1030577 0.14401574 -0.11458429
0002d0 05 bb c1 bd 16 a9 c9 3d b1 96 68 bd a0 74 eb bd
       -0.09459499 0.09846704 -0.056784336 -0.11496854
0002e0 e9 c7 a2 3d 20 63 ca bc 58 d1 16 bc e7 be 2e bc
       0.07948286 -0.02470547 -0.009205185 -0.010665632
0002f0 7a 6a f4 3d 87 89 86 bd f8 d8 44 bd a5 28 5e bd
       0.11934371 -0.065692 -0.04805848 -0.05423798
000300 a5 b4 9a bd f2 12 8b 3d b3 7e 94 3d 6e 4f f2 bd
       -0.075539865 0.06790723 0.072507285 -0.11831556
000310 ab 07 13 bd 76 94 40 bc 95 61 04 be 34 3f 15 3d
       -0.035895985 -0.011754146 -0.1292785 0.03643723
000320 5d 34 98 bd 0d 02 21 3d 66 51 ef 3d 14 1d bb bc
       -0.074318625 0.039308596 0.116854474 -0.022841014
000330 8a 79 fe 3d a7 1a 49 bd b4 a3 38 3d e6 b2 c2 3c
       0.124255255 -0.049097683 0.045077994 0.023766946
000340 b2 c8 ef bd 7e b7 7b bc a0 c4 83 bc c7 56 45 3d
       -0.117082015 -0.015363572 -0.016084969 0.04817846
000350 1b 1c df bd 8b 08 9b 3d d5 e0 98 bd 4b e3 da 3d
       -0.108940326 0.07569989 -0.07464758 0.10687884
000360 41 6b 5d bd 36 1b 00 3e f5 6f ea 3d d3 6b 04 3e
       -0.054057363 0.1251038 0.11447135 0.12931757
000370 1c 9e c2 3d 50 77 88 bd 3b c0 15 be 1e cf 54 3d
       0.09502813 -0.06663382 -0.14624111 0.051955335
000380 dc 9b b2 bc b1 a7 9b 3c 87 a8 bd bd 6a ab 0f be
       -0.021802835 0.01900086 -0.0926066 -0.14030233
000390 76 3d 4b bd 9a 34 c7 bd 37 8f ac 3c d4 03 1e be
       -0.04961916 -0.0972683 0.021064384 -0.15431148
0003a0 a7 eb aa 3b b1 44 b7 bd 80 3a 00 bd 8b 56 11 3b
       0.00521608 -0.08948649 -0.03130579 0.0022176828
0003b0 18 c6 08 3e 74 a3 1a 3e 7e 5e d5 bc 57 ec 12 3e
       0.13356817 0.15101415 -0.026046034 0.14347969
0003c0 38 cf e0 bc f8 ce 85 bd 7e 5a 37 bd af 68 ff bb
       -0.02744256 -0.06533617 -0.044764034 -0.0077944617
0003d0 d4 7a bc 3d e4 6e 26 3d 94 ee 08 3e 1f 6a 43 3b
       0.09203115 0.040633097 0.1337226 0.0029817892
0003e0 b1 af de 3d 37 e1 fa 3d bf fe f0 3d 88 b6 1a bd
       0.10873354 0.122499876 0.11767339 -0.03777173
0003f0 aa 54 cc bd e6 d6 2e 3e 9c 9f 05 3d 62 7c 5e 3d
       -0.09977086 0.17074165 0.03262292 0.05431784

LeNet.1.0.bias f4 [16]
000000 97 96 1c bb f1 54 a7 bd 8a b0 ac bc 56 fe be 3d
       -0.002389347 -0.08170498 -0.021080274 0.093258545
000010 88 d2 ed 3d f5 9d de bd 29 8f e4 bd 09 27 d9 bd
       0.11612421 -0.10869972 -0.11160118 -0.106031485
000020 bd 1f e3 3c be 0b 5f bd 88 3d 6f bb 3a d1 cd bd
       0.027725095 -0.054454558 -0.0036505181 -0.100496724
000030 e8 0a d1 bd a5 88 f0 3a 99 41 3d 3d ba 80 8b 3d
       -0.10207158 0.001835127 0.046205137 0.06811662

LeNet.1.1.weight f4 [16]
000000 66 98 31 3f 03 f9 37 3f cc 73 3a 3f e0 33 49 3f
       0.69373167 0.71864337 0.7283294 0.7859478
000010 cd b6 2e 3f 35 0e 33 3f e7 73 44 3f 79 20 49 3f
       0.6824768 0.69943553 0.7673935 0.78565174
000020 5b 6a 3d 3f b9 31 3b 3f 02 f2 4b 3f 4b b1 1b 3f
       0.7399041 0.73122746 0.7966615 0.608174
000030 39 6d 4c 3f 68 36 32 3f fb 5c 24 3f 97 63 53 3f
       0.7985416 0.6961427 0.64204377 0.8257384

LeNet.1.1.bias f4 [16]
000000 11 c7 8d be de 2d 7a be a5 58 9c be d7 10 88 be
       -0.27690938 -0.2443156 -0.3053638 -0.26575348
000010 73 26 7e be 49 70 87 be 14 25 85 be 12 23 8e be
       -0.24819355 -0.26452854 -0.2600485 -0.27761132
000020 64 47 8b be a4 33 99 be 32 7e 6c be d6 5d 8b be
       -0.27202904 -0.2992221 -0.23095015 -0.2722003
000030 df 0e 90 be d9 88 9d be bb bf 8b be b7 b1 7b be
       -0.28136346 -0.3076847 -0.27294716 -0.24579512

LeNet.1.1.running_mean f4 [16]
000000 0f 3c 49 bf 8f ce a6 3e 62 d1 1c bf 3c ee 22 bf
       -0.7860727 0.32579467 -0.6125699 -0.63644767
000010 0c 00 05 3e 9b 8d 77 3e 44 eb 47 bf 92 2e 71 bf
       0.12988299 0.24175112 -0.7809336 -0.94211686
000020 68 4e 87 bc cc fc e7 be 7c f5 c6 bf 1c 6c d4 bd
       -0.01651688 -0.45310056 -1.5543666 -0.10372183
000030 87 c9 a1 bf 29 b4 e3 be 89 fa 12 3f 37 0e b0 bf
       -1.2639626 -0.4447339 0.57413536 -1.3754338

LeNet.1.1.running_var f4 [16]
000000 ce d9 05 40 f5 c2 e4 40 43 c0 09 3f 35 ea 1c 3f
       2.0914187 7.1487985 0.53808993 0.6129487
000010 df 6f 50 40 72 67 c2 40 05 df 55 3f b5 00 27 3f
       3.256828 6.0751276 0.83543426 0.65235454
000020 af d2 d2 3f e5 8d 3b 3f 7b dc c8 3f bb be 25 40
       1.6470546 0.7326339 1.5692285 2.5897663
000030 f1 65 37 40 ce f7 97 3f ee 0f 08 40 7e 2a 12 40
       2.865597 1.1872499 2.1259723 2.2838435

LeNet.3.weight f4 [2, 46656]
000000 b2 55 1f 3b d6 de 5b 38 79 88 4b bc 53 39 7b bc
       0.0024312553 5.24212e-05 -0.012422674 -0.015333491
000010 95 a8 eb bb 3e c7 9d bb cb 64 b6 3b e3 27 ec 3b
       -0.0071917274 -0.0048150113 0.0055662147 0.0072069033
000020 f4 bd ba ba c0 3d 30 3b 04 8c 9a 3b 04 75 56 3c
       -0.0014247284 0.0026892275 0.004716398 0.013089422
000030 1d e8 3f 3b a1 07 d1 3a fb cd a9 3b a3 e5 b4 3c
       0.0029282637 0.0015947708 0.0051820255 0.022082156
000040 7c dc 99 3c 7b 74 99 39 c6 f4 09 3c 15 22 87 bb
       0.018781893 0.0002926922 0.008420175 -0.004123936
000050 63 88 20 3b c6 ea 06 3c ca 03 9f bb e3 5f 29 bc
       0.0024495355 0.008234685 -0.0048527466 -0.010337803
000060 fd 1c 1b bc 2a 83 d7 ba 2c 39 2b bc 59 86 06 bc
       -0.009467361 -0.0016442288 -0.010450643 -0.008210742
000070 10 cf 8a bc f2 04 c2 bb cd 85 82 bb ef 33 94 bb
       -0.016944438 -0.0059209997 -0.0039832355 -0.0045227925
000080 93 de c4 bb f9 df d3 b9 31 1d ac 3b 0a 59 94 3c
       -0.006007978 -0.0004041193 0.0052525033 0.018108863
000090 80 57 a5 3c d3 0b 8f 3c 1c 45 26 3d 8f 4b d8 3c
       0.020183325 0.017461693 0.04059325 0.026403217
0000a0 3a 00 bf 3c e3 a3 57 3c 10 17 b4 3c 11 67 9d 3c
       0.023315538 0.013161632 0.021983653 0.019214185
0000b0 43 d5 ee 3b 28 58 61 3c 8b 31 ba 3b 0a e7 dc bb
       0.0072886064 0.013753928 0.0056821755 -0.006741409
0000c0 f8 43 dc 3b 71 c7 7f 3b f5 a1 f5 3b 71 e6 4a bb
       0.0067219697 0.0039028788 0.0074961134 -0.0030960108
0000d0 15 eb 16 bc d0 2d 20 bb f0 f9 12 ba ed 57 c8 bc
       -0.009211321 -0.002444137 -0.00056067016 -0.024455989
0000e0 91 b3 8b bc f9 5a 86 bb 1e 1b f6 bc 86 b5 69 bc
       -0.017053397 -0.0041002003 -0.030042227 -0.01426447
0000f0 b2 72 d9 38 a2 bc e3 3b 17 97 c7 3b b5 15 88 b9
       0.0001036873 0.006949977 0.0060910094 -0.00025956114
000100 0c dc c8 3b 06 60 5a ba 98 0c a4 3b 1c d7 1c 3c
       0.0061297473 -0.00083303486 0.005006384 0.00957277
000110 1e 6d f7 3c bd ff 90 3c 71 e3 19 bb e8 65 4b bb
       0.030203398 0.01770007 -0.0023481513 -0.0031036083
000120 08 cf 03 3c 69 48 f6 ba 40 47 f4 bb 7c 97 0a 39
       0.008044966 -0.001878989 -0.0074547827 0.00013217138
000130 1b dd 42 3b cf 47 4f bb 90 97 41 3a 4a bd 16 bb
       0.002973384 -0.0031628495 0.00073849503 -0.0023001009
000140 6b e5 ea 3b cd 3d 64 3a a4 74 d5 bb be 73 22 bb
       0.007168462 0.0008706719 -0.006514149 -0.0024788226
000150 d2 f6 eb 3b c7 75 a9 3a 5b 98 d2 39 34 4e a0 3b
       0.007201054 0.0012928777 0.00040167835 0.004892135
000160 80 b5 90 b9 6c 90 0d bc f1 e7 26 bc f2 0f c3 ba
       -0.00027601048 -0.00864039 -0.010187135 -0.0014882071
000170 ec f3 4f 3a bd 1e d5 3a 9a c6 0b bb cf 15 f0 3b
       0.00079327705 0.0016259771 -0.0021328093 0.0073268185
000180 b2 66 51 3b b7 67 ca bb 7a 31 32 bb 5f 06 24 bc
       0.003195208 -0.0061769146 -0.0027190135 -0.010011285
000190 4d 84 35 bb 84 5f 63 bc e5 66 45 bc b0 a3 14 b9
       -0.0027697266 -0.013877753 -0.012048458 -0.00014175358
0001a0 2b 32 0b bb be 8c b0 bb 0c bc cd 3b 31 59 3e 3c
       -0.002123962 -0.0053878715 0.0062785204 0.011617945
0001b0 e3 e3 d8 3c c8 13 a1 3b 12 6c 82 bc 31 fc e8 bb
       0.026475852 0.004915688 -0.015920673 -0.0071101417
0001c0 4d 08 c2 bc 31 70 9d bc e6 fb de bb 3e de c5 bb
       -0.023685599 -0.019218536 -0.006804931 -0.006038456
0001d0 3e 9e 49 bb 56 88 0a bc f7 3c 99 3b 19 1a a3 bb
       -0.0030764486 -0.008455357 0.004676457 -0.0049774763
0001e0 65 46 94 ba 6e 1b 82 3c f3 f7 5b 3c 37 97 67 3a
       -0.0011312483 0.01588222 0.013425815 0.00088344835
0001f0 4d 93 29 3b 04 84 ac bb 88 56 b0 bb 6a 9c 30 3b
       0.0025875152 -0.005264761 -0.005381409 0.0026948699
000200 53 d8 50 bb 2f a6 a7 3b be c0 68 ba 96 54 e9 bb
       -0.003186722 0.005116246 -0.00088788185 -0.007120679
000210 7d c7 2f bb 9c e2 b6 3a 66 37 d7 3a 32 e0 64 bb
       -0.0026821785 0.0013953033 0.0016419708 -0.003492367
000220 b6 69 e3 bb 9c 74 83 bb 0c ad 4a ba d9 a7 b9 ba
       -0.006940092 -0.0040117037 -0.00077314745 -0.0014164402
000230 0b 42 4c ba fd de 53 bb a2 17 cf ba 6b ee b4 3b
       -0.00077918236 -0.0032328956 -0.001579989 0.0055215857
000240 5a 58 00 bb 6d 7c 15 bc 28 2e 62 3b 1f 8c 70 b9
       -0.0019583912 -0.009123904 0.0034512375 -0.00022940383
000250 3e 76 1a 3c e4 03 25 3b ea 3c a9 3b 81 55 ef 3b
       0.009427605 0.002517932 0.005164732 0.007303894
000260 dd 30 9b 3b 32 c0 9b b8 ff 8b 20 bc ca c2 02 bc
       0.0047360496 -7.426775e-05 -0.009799003 -0.007981012
000270 03 55 73 bc 39 72 91 3a 1e 25 9d 3b d2 fd ce bb
       -0.014851811 0.0011096663 0.0047956845 -0.006316879
000280 38 7c 7e 3b 7d e3 44 bb 84 a9 51 3c e0 02 9b 3b
       0.0038831364 -0.003004282 0.012796763 0.0047305673
000290 ab aa ca bb 78 47 6f 3b 2e 91 96 ba 47 31 b5 bb
       -0.006184896 0.0036511105 -0.0011487359 -0.005529556
0002a0 57 b2 46 3b 8b 70 f0 bb 63 6b 6b bb 1c 2a 62 3c
       0.0030318701 -0.007337635 -0.0035922162 0.013803985
0002b0 be 79 db 3b 36 48 70 3b 3b 18 32 3c 35 7e 3c 3b
       0.0066978624 0.0036664135 0.010870035 0.0028761749
0002c0 a9 d5 a6 bb 8b 9d 10 3c 55 5a dd 3a 37 80 c3 bb
       -0.0050913882 0.008826624 0.0016887883 -0.005966212
0002d0 b8 af 84 3b 7b f1 fe 3b 9d 01 fb 3a 0d 9e a5 3a
       0.0040492676 0.0077802516 0.0019150261 0.0012635604
0002e0 33 ae 93 bb 6a a6 bf bb 72 7d 6a bb 49 10 4e bb
       -0.00450685 -0.0058486955 -0.0035780338 -0.0031442812
0002f0 2c ce 16 3c 0a 22 b3 bb ae 4d af bb 73 30 de bb
       0.009204429 -0.0054667043 -0.0053498363 -0.006780678
000300 74 9d e4 bb 8a 34 c0 b9 6d bb c7 ba 38 75 f2 ba
       -0.0069767777 -0.00036660238 -0.0015238352 -0.0018498069
000310 92 8c 5b bb ea 2d ff bb 3a aa 41 bb d0 61 0e bc
       -0.0033500534 -0.007787456 -0.0029550926 -0.0086903125
000320 7d 95 1f 3b cc d3 dc 3b d0 c7 e2 3b cf d4 c1 3b
       0.0024350577 0.0067391153 0.006920792 0.0059152613
000330 df 6a 1f 38 65 0e b6 3a 96 73 7a bc 57 21 79 3b
       3.8008086e-05 0.0013889788 -0.015286347 0.0038014257
000340 32 f6 cb 3a 78 cd f2 ba 51 95 32 bb a2 95 c8 3a
       0.0015561043 -0.0018524369 -0.0027249644 0.0015303383
000350 cb 32 cd bb 32 73 ab 3b 53 4e cf 3b de fa ad bb
       -0.0062621585 0.005232238 0.0063264756 -0.0053094467
000360 34 c4 66 3c bb 6e a0 bb 6e 6e 73 bb b0 05 27 3c
       0.014084864 -0.0048960126 -0.0037144679 0.010194227
000370 46 5a 32 bc e7 f6 4b 3b 46 b8 9b bb 08 48 84 bb
       -0.010885781 0.0031122507 -0.0047521917 -0.004036907
000380 87 f3 ee 3a 6f 3b 19 3b 7e 80 ae 3b 27 84 f5 3a
       0.0018230536 0.0023381372 0.005325376 0.0018731401
000390 b8 ee 71 3c c4 cc e5 3b 90 86 2f bb 03 66 b3 bb
       0.014766388 0.0070129354 -0.0026783086 -0.005474807
0003a0 5e f1 57 bb 2c 5e 26 bc 71 09 94 bb 8a eb 9f bb
       -0.0032950263 -0.010154288 -0.004517727 -0.0048803734
0003b0 6a 4b 9d bb c6 67 54 3b d9 a9 1f ba b6 db 64 bc
       -0.00480025 0.0032410487 -0.0006090678 -0.013968399
0003c0 90 3f 44 bb ff 75 4b bb 94 2a f8 39 49 a8 de 3b
       -0.0029945113 -0.0031045673 0.0004733397 0.0067949635
0003d0 22 ed b4 3a 37 95 91 ba 10 d8 02 3b 6f ae c2 bb
       0.0013803581 -0.0011107092 0.001996521 -0.0059412043
0003e0 d2 f5 e7 bb 0a b4 56 ba 3e 30 9b bb 2e 12 02 bc
       -0.0070788646 -0.000819028 -0.0047359755 -0.007938905
0003f0 3a af 9d ba 66 c7 9b b9 c9 ca 65 bb 19 9c 96 bb
       -0.0012030371 -0.00029712467 -0.0035063496 -0.004596245

LeNet.3.bias f4 [2]
000000 e1 75 0d bb 74 92 f1 3b
       -0.0021585154 0.007372195
