models/hyperparameters/epochs/model_five_epoch.PT (torch, 382999 bytes, 14 tensors)

LeNet.0.0.weight f4 [6, 3, 3, 3]
0	0xbe2a8f91	-0.16656329
1	0x3c7c1d44	0.015387837
2	0x3db4efb7	0.088347845
3	0xbd972341	-0.07379771
4	0x3d3ca8b8	0.04605934
5	0xbd30c774	-0.043158963
6	0xbc726543	-0.0147946505
7	0x3e349d03	0.1763802
8	0x3df5b4ba	0.119973615
9	0xbe44a6ef	-0.19204305
10	0x3de4df0f	0.111753576
11	0x3e28f1e5	0.16498525
12	0x3e0f1a9f	0.13974999
13	0x3e403e34	0.18773729
14	0xbdbd5d9f	-0.092463724
15	0x3de5c225	0.11218671
16	0x3e3a6af5	0.18204863
17	0x3e233afb	0.15940468
18	0xbe2d26b2	-0.16909292
19	0xbce4ecb1	-0.027944895
20	0x3e246cc9	0.16057123
21	0x3dda9400	0.1067276
22	0x3e236bb8	0.1595906
23	0x3c0d87c4	0.008638326
24	0xbde8854f	-0.113535516
25	0xbca3b754	-0.019984879
26	0x3e39699d	0.18106695
27	0xbe3403fc	-0.17579645
28	0x3a93048d	0.0011216566
29	0x3de3b1f4	0.11117926
30	0x3dbfc9d9	0.09364671
31	0xbd1f0697	-0.038824644
32	0x3e0fc613	0.14040403
33	0x3d6fc7bb	0.058540087
34	0xbc1a0e78	-0.009402864
35	0xbe0742c3	-0.13209061
36	0xbd8e2f2e	-0.069425926
37	0x3e493cbb	0.19652073
38	0x3e35ae30	0.17742229
39	0x3d6d284e	0.057899766
40	0x3e04ede4	0.12981373
41	0xbc467970	-0.012113914
42	0xbc22fbc6	-0.009947723
43	0x3e1bf85c	0.1523146
44	0xbd9e5a86	-0.0773211
45	0x3c8da067	0.0172884
46	0xbd1848c9	-0.03717879
47	0xbe22ff71	-0.15917756
48	0xbe2e913c	-0.1704759
49	0x3d2227f7	0.039588895
50	0xbd9e207a	-0.07721038
51	0xbd9be45a	-0.07611914
52	0xbd476ca1	-0.04868758
53	0x3e0094cf	0.12556766
54	0x3d4b4723	0.049628388
55	0x3e7c0a40	0.24613285
56	0x3d3d2f1c	0.046187505
57	0x3e4bfcbc	0.1992063
58	0x3e053f66	0.13012466
59	0x3e86d3ce	0.2633347
60	0x3cd32ed0	0.025779158
61	0xbdb00965	-0.08595542
62	0xbc2f8bc6	-0.010714477
63	0x3dc34f18	0.0953657
64	0xbd30c44e	-0.04315596
65	0xbd89cc42	-0.06728412
66	0x3e875d67	0.26438448
67	0x3e1d8f9b	0.15386812
68	0x3de25ead	0.11053214
69	0x3dca428a	0.098759726
70	0x3de5f413	0.11228194
71	0xbc4c51ec	-0.012470704
72	0x3e10ab52	0.14127854
73	0xbdd5238a	-0.10407169
74	0xbc1ba082	-0.009498717
75	0x3e55d73f	0.20882891
76	0x3e92e7ed	0.2869257
77	0x3d7884b8	0.060673445
78	0xbdc7852c	-0.097421974
79	0x3e55ea03	0.2089005
80	0x3cace4a1	0.021105113
81	0xbe97e5a2	-0.29667383
82	0xbeeb6d35	-0.45981756
83	0xbeac612e	-0.33667892
84	0xbe69b5d8	-0.22823274
85	0xbf09207a	-0.5356518
86	0xbe95ff8c	-0.2929653
87	0xbea2956c	-0.31754625
88	0xbe80a21d	-0.25123683
89	0xbf0484f4	-0.5176537
90	0xbee1c021	-0.44091895
91	0xbe680f50	-0.22662091
92	0xbf0a7f1c	-0.54100204
93	0xbef32576	-0.47489518
94	0xbf05e581	-0.5230332
95	0xbe448ee1	-0.19195129
96	0xbe9e43de	-0.30911154
97	0xbf0dd69c	-0.5540559
98	0xbe4ffc2a	-0.20311037
99	0xbee74de1	-0.45176604
100	0xbec89004	-0.39172375
101	0xbecd29fd	-0.40071097
102	0xbf09a35e	-0.53764904
103	0xbe806750	-0.2507882
104	0xbf0e6fb6	-0.5563921
105	0xbf1233c6	-0.5711025
106	0xbe983879	-0.29730585
107	0xbee4379d	-0.4457368
108	0xbd419012	-0.047256537
109	0xbe7ff0df	-0.24994229
110	0xbe3453e8	-0.17610133
111	0xbe23f72d	-0.16012259
112	0x3e07dd48	0.13268006
113	0xbcd4973c	-0.02595102
114	0x3e01e49a	0.12684861
115	0xbda9c229	-0.08288986
116	0x3e0cece1	0.13762237
117	0xbe93c4c8	-0.2886107
118	0xbe7b4a3d	-0.24540038
119	0xbe53d87c	-0.20688051
120	0x3ce04abe	0.02737939
121	0x3e47b056	0.1950086
122	0xbd16ed0c	-0.03684716
123	0x3e3a9be6	0.18223533
124	0x3e1f1b21	0.15537693
125	0xbe0f7d63	-0.14012675
126	0xbdc5d4d9	-0.09659738
127	0xbe83946f	-0.25699183
128	0xbe222db5	-0.15837748
129	0x3d957030	0.07296789
130	0xbabf95fd	-0.0014616844
131	0x3dbcc9ef	0.09218203
132	0xbd5b094d	-0.053475667
133	0x3dfc236e	0.12311445
134	0x3e39cd11	0.18144633
135	0x3e01bc7e	0.1266956
136	0xbe39cf5c	-0.18145508
137	0xbe5b8e89	-0.21441092
138	0x3e496a2f	0.19669412
139	0xbdc08b9f	-0.094016306
140	0x3e0f823e	0.14014527
141	0x3d0403c5	0.032230157
142	0x3db7862a	0.08961137
143	0x3e6cf6cc	0.2314102
144	0xbe1d2b87	-0.15348636
145	0x3d9fef1d	0.07809279
146	0xbc12b8e2	-0.008955212
147	0xbe120a0b	-0.14261644
148	0xbd983011	-0.07431043
149	0x3db7fe09	0.08984
150	0x3e713b7c	0.23557848
151	0x3e1b0c67	0.1514145
152	0xbe0ea5b6	-0.13930401
153	0xbe4d0687	-0.20022021
154	0xbe35df48	-0.17760956
155	0xbe1483c8	-0.14503396
156	0x3e4c6d77	0.19963633
157	0x3e57239a	0.21009675
158	0x3e2bae3f	0.16765688
159	0xbdc0c273	-0.09412088
160	0xbcf0310d	-0.029320264
161	0x3e257f9a	0.16161957

LeNet.0.0.bias f4 [6]
0	0x39ad0454	0.00033000356
1	0x3e1a8161	0.15088417
2	0xbe2c1deb	-0.16808288
3	0x3bd330ae	0.006445012
4	0xbe144131	-0.14477994
5	0xbe21e872	-0.15811327

LeNet.0.1.weight f4 [6]
0	0x3f89cc38	1.0765448
1	0x3f805d8e	1.0028551
2	0x3f84f48e	1.0387132
3	0x3f7187f2	0.9434806
4	0x3f852ff0	1.0405254
5	0x3f63bd6e	0.8896092

LeNet.0.1.bias f4 [6]
0	0xbccdd60e	-0.025126483
1	0xbdc05ade	-0.093923315
2	0xbc1cdebf	-0.009574591
3	0xbb4b9eae	-0.0031069922
4	0xbdcb7c98	-0.09935874
5	0xbdf6a087	-0.12042337

LeNet.0.1.running_mean f4 [6]
0	0x3f14db15	0.5814679
1	0x3e6ed44b	0.23323171
2	0x3f6f4d36	0.9347719
3	0xc0a3038c	-5.094183
4	0xbf079e4c	-0.52975917
5	0x3d994dfa	0.07485576

LeNet.0.1.running_var f4 [6]
0	0x3ddde840	0.10835314
1	0x3b27dc0d	0.0025613338
2	0x3ec4637a	0.38357145
3	0x41026019	8.148461
4	0x3d528d34	0.051404193
5	0x3c9d23c6	0.019182097

LeNet.1.0.weight f4 [16, 6, 3, 3]
0	0x3b9929c2	0.0046741674
1	0xbdc080b2	-0.09399547
2	0x3dcdcaff	0.10048484
3	0xbdc5a168	-0.096499264
4	0xbe30f484	-0.17280775
5	0x3d925c87	0.071465544
6	0xbdfa3dba	-0.12218805
7	0xbc0fb974	-0.008772243
8	0x3da46f87	0.08029085
9	0x3b64951b	0.0034878913
10	0x3d26b309	0.040698085
11	0xbdd9eafb	-0.10640522
12	0xbe1a5165	-0.15070112
13	0x3cebbd79	0.028776871
14	0x3d43383d	0.047661055
15	0xbd89075c	-0.06690857
16	0xbdb07102	-0.086153045
17	0xbe2c25ea	-0.16811338
18	0xbdfbb4f3	-0.12290373
19	0x3d65fd03	0.056149494
20	0xbdd1ddab	-0.10247358
21	0xbdd739b0	-0.1050905
22	0xbdc3391f	-0.09532379
23	0xbd878012	-0.06616224
24	0xbe038f27	-0.12847577
25	0xbacc4b7f	-0.0015586464
26	0xbdb88e4e	-0.090115175
27	0x3d329bb7	0.043605532
28	0x3d8a871a	0.0676405
29	0xbcc7710f	-0.024345903
30	0xbd8e543b	-0.069496594
31	0xbd1dfb18	-0.03856954
32	0x3d3eddd3	0.046598267
33	0xbd85ad2c	-0.065271705
34	0xbd3e5cc9	-0.046475206
35	0x3d409d8e	0.047025256
36	0x3db01cb0	0.08599222
37	0xbd3148eb	-0.04328243
38	0x3d534514	0.05157955
39	0xbd4f8728	-0.050666004
40	0x3d09275b	0.033484798
41	0x3c8bd2fa	0.017068375
42	0xbd9f9b90	-0.07793343
43	0x3afcb07a	0.0019278668
44	0xbe219c45	-0.15782268
45	0xbd295dce	-0.041349225
46	0xbdd96622	-0.106151834
47	0x3dd4081a	0.10353108
48	0xbda87828	-0.08226043
49	0x3d0fb0cc	0.035080716
50	0xbdfb6e6b	-0.1227692
51	0xbe171c48	-0.14756882
52	0xbcc87c64	-0.024473377
53	0xbdcfb8b6	-0.10142653
54	0xbe207ab5	-0.15671809
55	0x3cdad856	0.026714485
56	0xbe10d5e1	-0.14144088
57	0xbe2189dd	-0.15775247
58	0x3d0dbf17	0.034606066
59	0xbe1b9fa0	-0.15197611
60	0xbe355e4c	-0.17711753
61	0xbd1b1964	-0.03786601
62	0xbda5f662	-0.081036344
63	0x3d974ec0	0.07388067
64	0x3a0c03e9	0.0005341159
65	0x3d62f2ba	0.055407263
66	0xbc5fdd54	-0.013663609
67	0x3b0b7fbc	0.0021285852
68	0xbe345a54	-0.17612582
69	0x3c3ca652	0.011514263
70	0xbe047585	-0.12935455
71	0x3dbe17f5	0.09281913
72	0xbe1139e1	-0.14182235
73	0xbe33ac0f	-0.17546104
74	0xbe380538	-0.17970741
75	0x3c215afd	0.009848353
76	0x3d95a717	0.073072605
77	0xbde41bee	-0.1113814
78	0xbd68b2f5	-0.05681129
79	0x3d871b5d	0.06597016
80	0xbe100674	-0.14064962
81	0x3d9f978d	0.07792578
82	0x3e1af78e	0.15133497
83	0xbc985add	-0.018598014
84	0x3d91ecc9	0.07125241
85	0x3e0b499b	0.13602297
86	0xbd10309d	-0.03520261
87	0xbd4d0c6f	-0.050060686
88	0xbdad3dd9	-0.08459062
89	0xbde51a44	-0.111866504
90	0x3dec6797	0.11543196
91	0x3da0995e	0.078417525
92	0x3d752ea9	0.05985895
93	0xbdaf545b	-0.085610114
94	0x3dac7bf9	0.084220834
95	0xbdf1c0cb	-0.118043505
96	0xbc9313ec	-0.017953835
97	0x3d8e5ecf	0.06951677
98	0xbd2a61e5	-0.041597266
99	0xbd79b91e	-0.060967557
100	0xbcce1e7d	-0.025161022
101	0x3cee5417	0.029092832
102	0xbd1d168c	-0.03835158
103	0x3d994867	0.07484513
104	0xbca22ee4	-0.01979775
105	0x3de0646d	0.10956655
106	0xbc0ebf40	-0.00871259
107	0x3cb5945f	0.022165475
108	0x3d17913a	0.037003733
109	0xbe1c79b4	-0.15280801
110	0xbc6d6253	-0.014488774
111	0xbd656e45	-0.056013364
112	0xbd09a543	-0.03360487
113	0x3d6db3bf	0.058032747
114	0xbd807c60	-0.06273723
115	0xbe1885ae	-0.14894745
116	0x3da4184a	0.08012445
117	0xbc0a91f9	-0.008457654
118	0xbe06013d	-0.1308641
119	0x3ce48d48	0.0278994
120	0xbe2573bb	-0.16157429
121	0xbdcdd2a2	-0.10049941
122	0xbd17c7fc	-0.037055954
123	0x3d3f9b6b	0.046779078
124	0xbe0616de	-0.1309466
125	0xbe22f76b	-0.15914695
126	0xbc8408da	-0.016117502
127	0x3dabb400	0.08383942
128	0xbd039df4	-0.032133058
129	0xbdcc8ee1	-0.099881895
130	0xbd298964	-0.04139079
131	0xbdfcd17d	-0.12344644
132	0xbd0075d8	-0.031362385
133	0xbb1c9002	-0.0023889546
134	0xbe1b6041	-0.15173437
135	0x3daba967	0.0838192
136	0x3dc2727d	0.09494493
137	0xbc722bf6	-0.014780989
138	0xbd4127ac	-0.047156975
139	0xbdfebc54	-0.124382645
140	0xbd7bb482	-0.061451443
141	0xba14d2d9	-0.00056771707
142	0xbd187915	-0.037224848
143	0xbc4346e0	-0.011918753
144	0x3e59e718	0.21279562
145	0x3d6abddd	0.057309974
146	0x3e4aaaa5	0.19791658
147	0x3e2e398e	0.17014143
148	0x3cd9bf06	0.026580345
149	0x3d7065f7	0.05869099
150	0xbd8a08b1	-0.06739939
151	0x3cb2496c	0.021763526
152	0x3e11af6b	0.14227073
153	0x3d190e11	0.03736693
154	0x3d89f6f2	0.06736554
155	0x3d0761ff	0.03305244
156	0xbcfc6568	-0.030810073
157	0x3d41988a	0.047264613
158	0x3adc47d2	0.0016806072
159	0x3d0f4b91	0.034984175
160	0x3da5943c	0.08084914
161	0x3d2de44e	0.042454056
162	0xbe3d7e4e	-0.18505213
163	0xbe34bcb5	-0.17650111
164	0xbddfb55e	-0.10923265
165	0x3ca891f8	0.020577416
166	0xbe22078c	-0.15823191
167	0xbe2204a1	-0.15822078
168	0xbc4ce6a2	-0.012506159
169	0xbce929be	-0.028462287
170	0xbdc9c4a8	-0.09851962
171	0x3cacf5ad	0.021113241
172	0x3cefdcd2	0.0292801
173	0xbe219224	-0.15778404
174	0x3d5410a6	0.05177369
175	0xbd099e8b	-0.033598464
176	0xba26a346	-0.0006356727
177	0xbbdc7700	-0.006728053
178	0x3aa53a02	0.0012605789
179	0xbbeaf9ad	-0.007170877
180	0xbe1b558b	-0.15169351
181	0xbd6570e6	-0.05601587
182	0x3d3aa1b8	0.045564383
183	0xbe0b1594	-0.1358245
184	0xbd3b36ce	-0.045706563
185	0xbe2f844e	-0.17140314
186	0xbe37c023	-0.17944388
187	0xbc96eb70	-0.018422812
188	0xbe3d361b	-0.18477671
189	0x3b03761b	0.002005941
190	0x3c390d9a	0.011294747
191	0x3d4e850e	0.05041986
192	0x3e13f647	0.14449416
193	0x3da44ddd	0.08022664
194	0x3db4007b	0.08789154
195	0x3d99a65c	0.07502434
196	0xbcf997b1	-0.03046784
197	0x3d653b8d	0.055964995
198	0x3e108da3	0.1411653
199	0xbd5b6a65	-0.053568263
200	0x3d72f40f	0.059314784
201	0x3d11be33	0.03558178
202	0x3dd8bfd0	0.1058346
203	0x3e202f13	0.15642957
204	0xb9ec346a	-0.0004505248
205	0xbd5d6928	-0.054055363
206	0xbd9e0bd6	-0.07717101
207	0x3d259cba	0.04043267
208	0x3dee9e79	0.1165132
209	0xbd5287f0	-0.05139917
210	0x3df8a37d	0.12140558
211	0xbcfed917	-0.031109376
212	0x3dfefaea	0.12450202
213	0xbd8c87a0	-0.06861806
214	0x3dc21752	0.09477104
215	0xbda797e9	-0.081832714
216	0xbde0f243	-0.10983708
217	0xbd947bcd	-0.072501756
218	0x3dfbbf36	0.1229233
219	0xbdab53f5	-0.08365623
220	0x3da8915f	0.08230852
221	0xbcd7109a	-0.026253033
222	0xbe0e3eec	-0.1389119
223	0x3e0031ef	0.12519048
224	0x3d7c8a6b	0.061655443
225	0x3da313d7	0.079627685
226	0xbd9da258	-0.0769698
227	0x3dfdcc3d	0.12392471
228	0xbdc6efcc	-0.097137064
229	0x3d7c698e	0.061624102
230	0xbcc96249	-0.024582999
231	0xbd9fcf55	-0.07803217
232	0xbdc8d4a5	-0.09806184
233	0x3d4b1629	0.04958168
234	0x3c104a71	0.008806811
235	0xbd76dd3c	-0.06026958
236	0x3dceac5b	0.10091468
237	0xbd17683e	-0.036964647
238	0x3dbee190	0.093203664
239	0x3da8c32d	0.08240352
240	0xbde20ab5	-0.110371985
241	0x3dea0259	0.11426229
242	0xbdbb144a	-0.09134729
243	0xbc9a3c7e	-0.018827673
244	0xbdf5f0ee	-0.12008844
245	0xbc7606a9	-0.015016236
246	0xbd921e06	-0.07134633
247	0xbd309c69	-0.043117914
248	0xbd13977b	-0.036033135
249	0x3dbb7e84	0.0915499
250	0x3db36391	0.08759225
251	0xbd870aa7	-0.06593829
252	0xbe2bb88b	-0.16769616
253	0xbe55210d	-0.20813389
254	0x3d63f598	0.05565414
255	0xbe21abc8	-0.15788186

LeNet.1.0.bias f4 [16]
0	0x3d590da4	0.052991524
1	0xbd1f735e	-0.038928382
2	0xbe0a3cda	-0.13499776
3	0x3daf2d00	0.08553505
4	0xbd5f7ba0	-0.054561257
5	0x3e07e8ea	0.13272443
6	0x3d87e9f0	0.06636417
7	0x3d57e1f8	0.052705735
8	0x3d742cbf	0.059612986
9	0x3d734d9a	0.05940018
10	0x3db68ef2	0.089139834
11	0xbdc61162	-0.09671284
12	0x3d847ee0	0.06469512
13	0x3cac8e28	0.02106388
14	0xbde6345e	-0.11240457
15	0xbdd9d746	-0.10636763

LeNet.1.1.weight f4 [16]
0	0x3f44a483	0.76813525
1	0x3f325857	0.69666046
2	0x3f227a90	0.63468266
3	0x3f2b823c	0.66995597
4	0x3f467fa4	0.77538514
5	0x3f4bebc1	0.79656607
6	0x3f484191	0.78225046
7	0x3f210718	0.6290145
8	0x3f3aacfd	0.7292021
9	0x3f3e4bb7	0.7433428
10	0x3f457ee2	0.7714673
11	0x3f41a791	0.7564631
12	0x3f27a760	0.6548977
13	0x3f2b3bdf	0.6688823
14	0x3f372993	0.7154781
15	0x3f521596	0.8206419

LeNet.1.1.bias f4 [16]
0	0xbe8a7ea6	-0.2704975
1	0xbe92a701	-0.2864304
2	0xbe9b7c97	-0.30368492
3	0xbe871432	-0.26382595
4	0xbe7b313b	-0.24530499
5	0xbe693fcb	-0.22778241
6	0xbe889b97	-0.26681206
7	0xbe940f04	-0.28917706
8	0xbe7c8a7c	-0.24662203
9	0xbe8a70e1	-0.27039245
10	0xbe790a6a	-0.24320379
11	0xbe793524	-0.24336678
12	0xbe8d8d09	-0.27646664
13	0xbe71c760	-0.23611212
14	0xbe88ed17	-0.26743385
15	0xbe83554b	-0.2565101

LeNet.1.1.running_mean f4 [16]
0	0xbfe07ed3	-1.7538704
1	0xbfa8923c	-1.3169627
2	0xbf19286f	-0.5982732
3	0xbf6c3da4	-0.92281556
4	0xbf761f78	-0.9614177
5	0xbf192370	-0.598197
6	0xbfb2ded1	-1.3974248
7	0xbf0b7c55	-0.5448659
8	0xbf0d77fd	-0.5526121
9	0xbe0cce6b	-0.13750617
10	0xbfe0c03c	-1.7558665
11	0xbf75f604	-0.96078515
12	0xbf4999d7	-0.78750366
13	0x3ffef4b8	1.9918432
14	0xbfc6850a	-1.550935
15	0xc005150d	-2.0794098

LeNet.1.1.running_var f4 [16]
0	0x4061b8f1	3.526913
1	0x40877198	4.2326164
2	0x4068176c	3.6264296
3	0x40e7dd22	7.2457438
4	0x3f3e83b8	0.74419737
5	0x3ff481c9	1.9102107
6	0x4031c8b3	2.7778747
7	0x40051509	2.079409
8	0x3f800895	1.0002619
9	0x3f0c7784	0.54869866
10	0x402f52ec	2.7394361
11	0x402f4602	2.738648
12	0x3ff8248f	1.9386157
13	0x404704da	3.109671
14	0x40283e43	2.6288002
15	0x3fe3c1d1	1.7793523

LeNet.3.weight f4 [2, 46656]
0	0x3c461baa	0.012091557
1	0x3b38dbe2	0.0028207232
2	0xba8ac13e	-0.0010586155
3	0x3b6fec8a	0.0036609494
4	0x3bb597ca	0.0055417763
5	0x3c75fd83	0.015014055
6	0x3ca805f7	0.020510657
7	0x3c3e0007	0.011596686
8	0x3bea032c	0.0071414914
9	0x3bcf00ee	0.0063172495
10	0x3c115444	0.008870188
11	0x3c009810	0.0078487545
12	0x3ca5735b	0.020196607
13	0x3c3cfbda	0.0115346555
14	0x3cdb3bb0	0.02676186
15	0x3c5fb72d	0.013654512
16	0x3d10174a	0.03517846
17	0x3d08b45c	0.03337513
18	0x3d279a4c	0.040918633
19	0x3d04a780	0.032386303
20	0x3cebff89	0.028808372
21	0x3cdb500f	0.026771573
22	0x3bfe5041	0.007761032
23	0x3ca38ca1	0.019964518
24	0x3a5cf2f3	0.0008428536
25	0xbc8094e2	-0.015695993
26	0xbc2539f9	-0.010084623
27	0xbbfa4a70	-0.007638268
28	0xbc05fcb3	-0.008177924
29	0x3b15ff6c	0.002288784
30	0x3c222868	0.009897329
31	0x3cf0997f	0.029370068
32	0x3d09c11f	0.03363144
33	0x3cf959ba	0.030438293
34	0x3cf0877e	0.029361483
35	0x3d4a6b5f	0.049418803
36	0x3d3ffdfd	0.04687308
37	0x3d082261	0.03323591
38	0x3c120030	0.0089111775
39	0x3cc6a31b	0.024247697
40	0x3c5e2f14	0.013561029
41	0x3c68276a	0.014169553
42	0x3c5e2367	0.013558245
43	0x3bbc74f8	0.0057512484
44	0x3c98ec9b	0.01866751
45	0x3c98e5b1	0.018664213
46	0x3c2b9c6c	0.010474306
47	0x3c0212f3	0.007939088
48	0xbc1ad36b	-0.00944982
49	0x3c3017cb	0.01074786
50	0x3a7b1656	0.00095782185
51	0x3b9b193c	0.004733233
52	0x3c86801a	0.016418505
53	0x3a8e0946	0.0010836504
54	0x3caeca8c	0.021336816
55	0x3ba7cb15	0.005120645
56	0xb997b254	-0.0002893383
57	0xbb5da89e	-0.0033822428
58	0x3baae1d3	0.0052149086
59	0x3c4c8b7c	0.012484428
60	0x3b004bac	0.0019576354
61	0xbb943437	-0.004522826
62	0xbb5e1f37	-0.0033893117
63	0xbb3c98f8	-0.00287777
64	0x3ba348da	0.00498305
65	0x3ca65dca	0.020308394
66	0x3bb2c79e	0.005455925
67	0x3cb69377	0.022287114
68	0x3c6fc634	0.014634658
69	0x3c430be0	0.011904687
70	0x3c984d48	0.018591538
71	0x39bccd30	0.0003601103
72	0xbaf74485	-0.0018865025
73	0x3bfe9cac	0.0077701416
74	0xbb41e9d8	-0.0029588845
75	0xbc57a3ef	-0.013161643
76	0xbc05dabd	-0.008169827
77	0xbc08ea93	-0.008356708
78	0xbbc9f746	-0.0061635105
79	0xb9a3b9e7	-0.0003122829
80	0xbb01b625	-0.0019792404
81	0xbc237301	-0.00997615
82	0xbc2bd851	-0.010488586
83	0xbb52997c	-0.003213494
84	0xbb762eec	-0.0037564589
85	0xbbbdfd3d	-0.0057980106
86	0xbbf75b41	-0.00754872
87	0xbc080b52	-0.00830348
88	0xbbcdcbab	-0.0062803826
89	0x3bb570a7	0.005537111
90	0x3bab06f2	0.005219334
91	0x3aecc88b	0.0018065138
92	0x3b8f752f	0.004377983
93	0x3c3e5b92	0.011618512
94	0x3c1eab8a	0.009684453
95	0x3bf37a3f	0.0074303444
96	0x3bb2350e	0.0054384535
97	0x3b9b9408	0.0047478713
98	0xbb26cbe4	-0.0025451118
99	0xbc8c6233	-0.017136669
100	0x3931d2d7	0.0001695858
101	0x3c0830f5	0.0083124535
102	0x3a0cfa29	0.0005377853
103	0xbb5dc046	-0.0033836528
104	0xba3ee31a	-0.00072817656
105	0x3b6eae7f	0.0036419926
106	0x3b4eb5a1	0.0031541365
107	0x3c148bdd	0.009066549
108	0x3cb7fbe0	0.02245897
109	0x3c625606	0.013814455
110	0x3cbafa8d	0.02282455
111	0x3c78718f	0.015163793
112	0x3ae7ef4c	0.0017695217
113	0x3ba623a3	0.005070166
114	0x3b30b84e	0.0026965323
115	0xbb87be07	-0.004142526
116	0xbbd9683d	-0.0066347406
117	0x3aa2e89d	0.0012428943
118	0xbbb87a63	-0.005629824
119	0xbc6a0cca	-0.014285276
120	0xbc14f269	-0.009090998
121	0xb8d177ac	-9.988187e-05
122	0x3b91dd0b	0.004451399
123	0x3baa23c4	0.005192252
124	0x3baa4fbb	0.005197493
125	0xb9c2a1da	-0.00037123152
126	0x3bbcb32d	0.005758664
127	0x3ba8a618	0.005146753
128	0xbb909763	-0.004412578
129	0xbc1d86e5	-0.009614681
130	0xbc4fa0da	-0.012672627
131	0xbb6b5be0	-0.0035912916
132	0xbc333ff5	-0.0109405415
133	0xbc0b690e	-0.008508934
134	0xbbc02c34	-0.0058646444
135	0xbb11226e	-0.0022145766
136	0xbc50d52b	-0.012746136
137	0xbc2ae3cf	-0.01043029
138	0xbc0883e7	-0.008332229
139	0xbc210d27	-0.009829796
140	0xbc34cd0d	-0.011035216
141	0xbb136089	-0.002248796
142	0xbb4e1d8b	-0.0031450714
143	0xb9d85a24	-0.0004126589
144	0xbc2fa263	-0.010719868
145	0x3b0bc511	0.0021327178
146	0x3b62fc09	0.0034635088
147	0x3b74a518	0.003732985
148	0xbc738375	-0.014862885
149	0x390c2834	0.00013366417
150	0x3adf1953	0.0017021097
151	0xbbbbe2e8	-0.0057338364
152	0xbc4ec681	-0.012620569
153	0xbbe517e8	-0.0069913752
154	0xbaddfe46	-0.0016936741
155	0xbb72f510	-0.0037072338
156	0xbbe47b15	-0.0069726803
157	0xbc4ca894	-0.012491364
158	0x3ad3a8f1	0.0016148371
159	0x3ba06bfc	0.0048956852
160	0x3ad4ec7c	0.0016244794
161	0x3c0488aa	0.008089224
162	0x3c8212ac	0.015878044
163	0x3a4aeaa7	0.00077406544
164	0xbb05c586	-0.0020411923
165	0x3b7161e9	0.003683204
166	0x3bd64b06	0.006539705
167	0xbbc17604	-0.005903961
168	0xbb30a572	-0.0026954082
169	0xbbe1f3bf	-0.006895512
170	0xbbe74bfd	-0.007058619
171	0xbb1e3fda	-0.0024146945
172	0xbac395b2	-0.0014921932
173	0xbba89841	-0.005145103
174	0xbc2baf06	-0.010478741
175	0x3a070a86	0.00051514094
176	0x3bee55dc	0.007273419
177	0x3c3183a3	0.010834607
178	0x3a7bf4c9	0.0009611366
179	0x3bd2c2ab	0.0064318976
180	0xbc432ae7	-0.011912084
181	0x3c30cc02	0.010790827
182	0x3bb5fd6f	0.0055538933
183	0x3a55751e	0.0008142757
184	0xbb9c664e	-0.004772938
185	0xbbd7ec7e	-0.0065894714
186	0xbc3daa35	-0.011576225
187	0xbb6bb0f1	-0.003596362
188	0xbaeb5969	-0.0017955723
189	0xbbeea304	-0.0072826166
190	0xbb860079	-0.004089412
191	0xbbb61837	-0.005557086
192	0xbba6e5d2	-0.0050933147
193	0xbc75e88f	-0.01500906
194	0xbc84765d	-0.016169721
195	0xbb95f8b0	-0.004576765
196	0xbb9e7f01	-0.0048369174
197	0x3b5725bd	0.003282889
198	0x3c6af153	0.014339763
199	0x3bc19fce	0.005908943
200	0x3bc7e983	0.006100835
201	0xbb655996	-0.0034996024
202	0xbb9e51a8	-0.0048315115
203	0x3aa376b8	0.0012471294
204	0xbac4cbd9	-0.0015014365
205	0xbae266cf	-0.0017273071
206	0xbc030f3a	-0.007999236
207	0xbb5567b2	-0.0032563028
208	0xbb03fc9f	-0.0020139588
209	0xbbd235c3	-0.0064151003
210	0xbc5e9021	-0.013584168
211	0xbc0cf51e	-0.008603362
212	0xbc8b600c	-0.017013572
213	0xbb9387e0	-0.0045022815
214	0xbc21d31e	-0.009876994
215	0x3c1ac69d	0.009446767
216	0xba933348	-0.0011230493
217	0xbb08a828	-0.0020852182
218	0xbb4b2a69	-0.003100062
219	0x3bc8d58c	0.0061289724
220	0x3bb68f3d	0.0055712746
221	0xbb851aba	-0.004062024
222	0xba0e6ed3	-0.0005433384
223	0xbb7b7575	-0.003836957
224	0xbbc9ec30	-0.006162189
225	0x3bc86bfa	0.0061163874
226	0x3c0497a3	0.008092794
227	0x3b5aaf07	0.0033368485
228	0x3bff058b	0.007782643
229	0x3c978b6b	0.018499097
230	0x3c655f65	0.013999795
231	0x3c36f06c	0.0111657195
232	0x3a024d73	0.0004970647
233	0x3c46bcfa	0.012130016
234	0x3c4027d8	0.0117282495
235	0xbaed6b4a	-0.001811364
236	0x3b846ce9	0.0040413034
237	0x3adcf5c3	0.0016857911
238	0xbc420f95	-0.011844535
239	0xbbaac147	-0.0052110287
240	0xbc5ac4b1	-0.013352559
241	0xbb835327	-0.0040077153
242	0x3aa8fa00	0.0012891889
243	0x3ae49cba	0.0017441728
244	0xb9d7c0dd	-0.0004115169
245	0xbc152d62	-0.009105058
246	0xbb493de2	-0.003070705
247	0xbc0d4332	-0.008621978
248	0xbb5c3163	-0.0033598773
249	0xbc0c868b	-0.008576999
250	0xbbe21dfe	-0.006900548
251	0xbb4a5f4b	-0.0030879553
252	0xbc4a47c9	-0.0123462165
253	0x3c16fe8f	0.009215965
254	0x3a5a0fa6	0.0008318372
255	0x3c410edb	0.011783327

LeNet.3.bias f4 [2]
0	0x39a2f28e	0.00031079765
1	0x3b96ae4d	0.004598415
