models/hyperparameters/epochs/model_ten_epoch.PT (torch, 382981 bytes, 14 tensors)

LeNet.0.0.weight f4 [6, 3, 3, 3]
000000 16 47 40 3e 04 a9 6c 3d 73 0b d3 bd 68 83 d1 3c
       0.18777117 0.057778373 -0.10304918 0.025575355
000010 ca db 9e ba 4e 89 8b 3d 72 d4 ca bc c3 47 cf bd
       -0.0012119946 0.06813298 -0.024759505 -0.10121109
000020 66 6b 7c 3d 3f 71 1f 3e 59 cf 46 3e 14 c8 ad bc
       0.06162586 0.15570544 0.19415034 -0.021213569
000030 b9 06 23 be 15 87 37 bc 6a fa e6 bd 61 7c 85 be
       -0.15920533 -0.01120164 -0.112782314 -0.26071456
000040 43 de 2b bd e0 12 30 3d f1 c5 cf 3c 24 39 f9 bd
       -0.041960012 0.04298675 0.02536294 -0.12169102
000050 a3 e2 a4 3d 25 fe 99 3d 9a 33 ac bd f8 22 0e be
       0.0805104 0.07519177 -0.0840828 -0.13880527
000060 2d 58 3c be 51 68 60 be 1c a6 91 be 30 8d cd bc
       -0.18393011 -0.21914794 -0.28447044 -0.025091738
000070 fa 1d 5c bd 99 7b 23 3e b9 80 80 3d 38 25 68 bd
       -0.053739525 0.15965118 0.06274552 -0.05667612
000080 b6 fc 68 3e 23 f1 fb 3d f6 b5 af 3d f2 4a 54 3d
       0.22752652 0.123018526 0.08579628 0.051829286
000090 7b 36 14 bc 24 1f 67 3c 6e 1e 9f bc 97 87 07 3d
       -0.009046192 0.014106546 -0.01942369 0.033088293
0000a0 18 78 6b 3d a5 1e 83 bd 08 0c 6c 3e 5b 04 a1 bd
       0.057487577 -0.06402329 0.23051465 -0.07862159
0000b0 36 5e 5a 3d d6 12 5d bb bc 81 f3 bd 19 38 15 be
       0.053312503 -0.003373315 -0.11889979 -0.14572181
0000c0 e6 b0 55 3e 42 b0 36 bd aa 13 14 bd 73 ed 83 3e
       0.20868263 -0.044601686 -0.036151566 0.25767097
0000d0 5a 40 11 3e c3 47 85 3e 13 c0 28 3d 33 1a 13 be
       0.14184704 0.26031312 0.0411988 -0.14365463
0000e0 5e 97 4b bb 37 7e b1 3c ca 27 11 3e 7e f4 bb 3d
       -0.0031065564 0.02166663 0.14175335 0.091774926
0000f0 04 e0 45 bd 00 84 3b 3e b2 4c 8b 3e 41 91 b2 bd
       -0.04830934 0.18312073 0.2720695 -0.08719111
000100 b3 71 2e be 2b 3e 19 3e ee 4b 9b 3e e7 a5 17 3e
       -0.1703556 0.14965121 0.30331367 0.1480938
000110 c2 c7 3a 3e a9 99 95 3e 73 1f 94 3d ab 04 d3 bc
       0.18240264 0.29218796 0.07232561 -0.025759062
000120 d7 a7 be bd 7b c9 02 3e c0 be 6a bd 37 ec 25 3d
       -0.09309357 0.12772171 -0.05731082 0.040508475
000130 96 f9 5b 3e 38 5a 8b bd 91 4d 47 3d 59 af 6d 3e
       0.21481928 -0.06804317 0.048657957 0.23211421
000140 e7 42 21 3d 64 7f 4d 3d 84 8b 97 3d 9e 0c 04 be
       0.039370444 0.050170317 0.07399657 -0.12895438
000150 41 16 08 be 31 77 29 3e e1 9d b7 3d 33 8f f6 3d
       -0.13289739 0.16549374 0.0896566 0.12039032
000160 31 15 ee bd a6 f4 43 be bf 46 55 3e 20 53 00 be
       -0.11625136 -0.19136295 0.20827769 -0.1253171
000170 35 b0 de 3d 25 09 04 be be 97 61 bc 09 a0 1f be
       0.108734526 -0.12894113 -0.013769088 -0.15588392
000180 7b 83 18 be a3 3c e2 bc b0 cc de 3d f3 70 01 be
       -0.14893906 -0.027616804 0.10878885 -0.12640743
000190 dc 2e c5 bd cd 5a 20 3e 4a 54 b6 3d c5 a1 bb 3d
       -0.09628078 0.15659638 0.089027956 0.091617145
0001a0 63 57 33 3d b0 26 06 be 80 28 40 be ce 28 cd bd
       0.04378451 -0.13100696 -0.1876545 -0.100175485
0001b0 ce d3 ba bd 12 12 4b be 5b 46 81 bd ae d5 ac bd
       -0.0912243 -0.19831112 -0.06312247 -0.08439194
0001c0 4a 48 32 bc f0 b3 d1 3d 45 88 18 3e 72 86 93 3d
       -0.010881493 0.102393985 0.14895733 0.07203378
0001d0 ac f4 9a be 85 32 0c 3e 6e c3 19 3d 0c 5b 2c 3e
       -0.30264795 0.13691147 0.037539892 0.16831607
0001e0 a0 3a 5c 3e eb 62 cc 3b 8a 2f e9 3d e7 7f 2f 3e
       0.21506739 0.006237378 0.113860205 0.17138635
0001f0 2a 73 d2 3d ee 71 48 be 28 29 c4 3d 01 d5 a5 bd
       0.10275872 -0.1957471 0.095781624 -0.08097268
000200 80 ad 55 3e 59 ea 46 bd 0e 65 c8 bd 22 11 27 be
       0.20866966 -0.048563335 -0.097849 -0.1631513
000210 a9 7b 08 be ef d1 13 3e e4 cb c0 bc f0 16 9b bd
       -0.13328423 0.14435552 -0.023534723 -0.07572734
000220 fe 3e 20 be dd 8e dc 3d 32 c9 25 be 83 6c bf 3c
       -0.1564903 0.107694365 -0.16190031 0.023367172
000230 ca 0e 1c 3c 36 f5 47 bd ee ab ba 3c 45 1e 75 be
       0.00952501 -0.048817836 0.02278706 -0.23937328
000240 d6 15 2a be 48 da f2 3d 4f 89 ee 3d f3 d7 b8 bd
       -0.16609892 0.1185804 0.11647283 -0.09025564
000250 ad d7 8c be b8 07 9c 3d 76 73 e8 bd 2e b5 ae bd
       -0.27508298 0.0761866 -0.113501474 -0.08530651
000260 09 83 1a 3d f2 06 06 be 94 e1 4f be c2 e1 1b 3e
       0.03772262 -0.13088587 -0.20300895 0.15222839
000270 f6 9a 28 3d 9e 6a 42 be dd 76 92 bd d3 70 71 3c
       0.041163407 -0.18985984 -0.071515776 0.014736372
000280 0b f2 0e be d6 68 bf 3d
       -0.1395952 0.09346168

LeNet.0.0.bias f4 [6]
000000 f7 15 58 3d ee f2 0c 3e 83 a2 05 3e 97 7e d5 3d
       0.052755322 0.13764545 0.13050275 0.10424536
000010 d2 72 33 3d a9 f9 94 3d
       0.043810673 0.072741814

LeNet.0.1.weight f4 [6]
000000 2a 9b 83 3f 0f 60 75 3f ba 1a 82 3f 8a 24 7f 3f
       1.0281727 0.958497 1.0164406 0.9966513
000010 af 74 84 3f fe 01 72 3f
       1.0348109 0.9453429

LeNet.0.1.bias f4 [6]
000000 c8 79 71 bd 7f 52 f9 bd 8b 9b aa bd fb 31 5a bd
       -0.05895403 -0.12173938 -0.08330449 -0.05327032
000010 cc 7c b0 bd 07 99 18 be
       -0.08617553 -0.14902125

LeNet.0.1.running_mean f4 [6]
000000 73 7f c4 be 50 b3 45 3f 92 a1 86 3f e6 65 0f be
       -0.38378486 0.77226734 1.0518057 -0.14003715
000010 66 5e 26 3e 00 d6 11 bf
       0.16246948 -0.56967163

LeNet.0.1.running_var f4 [6]
000000 d3 49 77 3d d8 2d ff 3d 4e 8d 86 3e 62 43 9a 3c
       0.06037314 0.12459916 0.26279682 0.018830959
000010 95 d6 a3 3b ce 08 04 3e
       0.0049999454 0.12893984

LeNet.1.0.weight f4 [16, 6, 3, 3]
000000 d7 ea b9 bd b1 04 3c 3d b8 c0 96 3d 20 fc 54 bb
       -0.09077995 0.04590291 0.07360977 -0.003249891
000010 bb 5c d8 3b 77 75 33 3d 86 10 09 3d 48 2b 76 3d
       0.006602851 0.043813195 0.033463024 0.06009987
000020 43 68 59 3d a3 37 83 3d c7 d3 60 3d 55 ba 5f 3d
       0.053077947 0.06407096 0.054889467 0.05462106
000030 e2 98 4c bd 07 bf 2c be 4e 2b f7 bd 42 db 8c bd
       -0.049950488 -0.16869746 -0.120688066 -0.068777576
000040 d4 a6 2c be 3d 77 91 3d dd 00 69 3d 79 82 b8 3d
       -0.16860515 0.07102821 0.05688559 0.09009261
000050 57 de 45 3d 59 46 1d be fb 9a 0d be 04 67 d6 3c
       0.048307743 -0.15358867 -0.13828652 0.026172169
000060 be 84 d1 bd 80 de a6 bd 27 37 99 bd cb b9 8c bd
       -0.10230397 -0.08147907 -0.074812226 -0.06871375
000070 cd c1 cf 3d e8 52 c5 bd 23 5a 9e bd be 0e 38 3d
       0.101443864 -0.09634954 -0.07732036 0.044935934
000080 22 e9 18 3d 18 a5 cf 3d bd 88 03 3e a5 ec d9 3d
       0.037331708 0.10138911 0.1284513 0.106408395
000090 54 3c f1 bd ce a4 8d bd 9d 6a 41 be 9c ce 0d bc
       -0.11779085 -0.069161996 -0.18888326 -0.008655217
0000a0 a8 61 38 3d 4d 79 8b bd 6f ea 04 3d 02 09 54 bd
       0.045015007 -0.06810246 0.032450136 -0.051766403
0000b0 23 06 34 be 7a c2 6a bd 87 8f b8 bd 9e 5d ff 3d
       -0.17580466 -0.057314374 -0.09011751 0.12469028
0000c0 ba 6d 26 3d 45 c1 5e bd 27 29 be bd ac 51 07 bd
       0.040631987 -0.054383535 -0.09285193 -0.033036873
0000d0 c8 60 b3 bd 09 4f c7 3d 17 0b 07 3d fe 1c c3 bd
       -0.08758694 0.09731872 0.03296956 -0.09527014
0000e0 9d 86 5e be c5 91 3f bd 0b ce ef 3c 06 8b 5f bd
       -0.21731038 -0.046769876 0.029273054 -0.054575942
0000f0 74 58 a5 bd 60 fa b7 bd 8a 1a ce bd 9a e7 1d 3e
       -0.08073512 -0.08983302 -0.10063656 0.1542038
000100 32 b0 0f 3e 82 7f 51 bd 77 f0 8f bd ad cc 7c 3d
       0.14032057 -0.05114699 -0.07028287 0.06171863
000110 34 c7 7d bd dd 60 f3 3d 15 b3 e3 3d d5 53 e5 bd
       -0.061957553 0.118837096 0.111181416 -0.1119763
000120 5a 72 31 3e bd 83 78 3e d1 1c 4d 3e cb f2 82 3d
       0.17328778 0.24269004 0.20030524 0.06393965
000130 86 72 ae bc 24 b7 11 3d 4a fa 72 bd 8c fe ec 3c
       -0.021294843 0.035575047 -0.059320726 0.028929971
000140 27 75 d3 3c 27 19 40 be 2f 69 9d bc 1f 78 8d 3c
       0.025812699 -0.18759595 -0.019215195 0.017269192
000150 18 a4 a1 bd a5 bd 8a bc dd 71 6b bd ec 11 15 be
       -0.078926265 -0.016936133 -0.057481635 -0.14557618
000160 ec 7c ef bc 11 c7 09 3d b6 9a 81 3d 73 81 86 3d
       -0.029234372 0.03363711 0.06328337 0.06567659
000170 40 13 3b bd 63 d8 35 3e 75 00 76 3d 47 e7 f7 3b
       -0.045672655 0.17758326 0.06005903 0.007565412
000180 ec a1 0d 3d 9e fe 7e 3d f3 eb c6 3d cb 31 67 bd
       0.03457825 0.06225454 0.097129725 -0.05644397
000190 0a 38 1b 3d 07 b9 9a 3d df e3 4d 3d 15 a9 a1 bd
       0.03789524 0.075548224 0.050266143 -0.07893578
0001a0 df 22 33 3d db 3a 31 3d 54 96 69 bd ac 40 3c 3d
       0.043734428 0.04326902 -0.05702813 0.045960113
0001b0 19 c0 c3 bd 1d ee d6 bd ff 82 23 3d 7a 8c 85 3c
       -0.09558124 -0.10494635 0.03991985 0.016302336
0001c0 d8 6e a8 3c 5d 18 88 3d ab b4 db 3d 78 ad 43 3d
       0.020560667 0.06645272 0.10727819 0.047772855
0001d0 0d e4 98 3d 99 fb ca 3c 31 ea 8f bd 79 9d 80 3b
       0.07465372 0.024778174 -0.0702709 0.003925022
0001e0 fe 06 18 be 67 39 b5 3d 8d 51 e1 bd d6 e5 ae 3d
       -0.14846417 0.08848839 -0.11001883 0.085399315
0001f0 94 bc 1d bd 1d 3d 66 bd bd be be bd 19 7e 64 3c
       -0.03850992 -0.056210626 -0.09313724 0.01394608
000200 b8 8b 9b 3d cc f7 d4 bd 56 71 8d 3c d8 22 8a bd
       0.075950086 -0.10398826 0.017265957 -0.06744927
000210 6a a1 2c 3d 9d 78 bd bc 0d 13 3a bc c0 19 1d be
       0.042146124 -0.023128802 -0.011357081 -0.15341854
000220 70 3c 90 bd 50 89 b4 bd 29 b7 36 bc aa 6e a7 3d
       -0.070427775 -0.08815253 -0.011152067 0.08175404
000230 bd 62 a0 3d 23 da 9b 3c c9 ef 16 3e e0 42 06 3c
       0.07831333 0.019024914 0.14739908 0.008194655
000240 ca 4c da 3d f8 64 08 3e 07 ec c2 bc fa 0c e5 3d
       0.106591776 0.13319767 -0.023794187 0.11184116
000250 2e 3a 86 bc fa 15 fb bc ba ce 54 bd 39 cf 7d 3d
       -0.016385164 -0.030650128 -0.051954962 0.0619652
000260 51 96 8b bd 8a f5 ea bd 67 e4 0f be e7 02 fd bd
       -0.0681578 -0.11472614 -0.14051972 -0.12354069
000270 de 09 fb 3c b2 a6 8b 3d 9a 62 43 bb 9b d0 9e 3d
       0.030644353 0.06818904 -0.002981341 0.07754632
000280 39 51 59 bd 74 76 a2 bd ee 86 78 3d 2e e7 08 be
       -0.053055976 -0.079327494 0.060675554 -0.13369438
000290 97 9d b7 bc 9a 0d 8d bd 3d 64 b2 bd 2d 5c 0f 3d
       -0.022414012 -0.0688736 -0.08710525 0.035000015
0002a0 5d a8 e6 bd b4 2a 1a be 74 e9 8b 3d 2a 13 9d 3c
       -0.112625815 -0.15055352 0.06831637 0.019174177
0002b0 7a 74 33 3d 9d bc ba 3d 2e 3a b2 bd 2a cb ea bd
       0.043812253 0.091180064 -0.08702503 -0.11464532
0002c0 77 1d 05 bc 5c 5a a0 bd c7 d8 47 bd fe 48 88 3d
       -0.008124701 -0.07829735 -0.04879072 0.06654547
0002d0 f3 ca 9a 3d 81 af a1 bd cb 8b c4 3d bf d8 08 be
       0.07558241 -0.07894803 0.09596976 -0.13363932
0002e0 c5 8b 0f be fd be 09 be 39 b3 04 3d b4 68 2d 3c
       -0.14018162 -0.13451762 0.032397483 0.010584045
0002f0 81 91 84 bc 3d 3c 0c be 00 50 a8 bc 5c ee 89 bd
       -0.016182663 -0.13694854 -0.02054596 -0.067349166
000300 65 55 ec bd 5a 83 16 be d5 15 e2 bc 77 91 0e be
       -0.11539725 -0.14698544 -0.027598301 -0.13922678
000310 51 52 04 3c db 77 bc 3d b5 ed c1 bd 6a 99 0c 3c
       0.008076266 0.09202548 -0.09469167 0.008581499
000320 1b bf 19 bd 86 62 44 bd 13 ef e0 bb e2 ae f3 3d
       -0.037535768 -0.04794552 -0.0068644374 0.118985906
000330 7a ed 93 3d e6 33 dc 3d 93 1f 17 3d b7 89 b1 3c
       0.072230294 0.10752086 0.036895346 0.021672113
000340 d7 93 b9 bd 0c 54 01 be a2 86 e6 3c 10 6f 2e 3d
       -0.09061401 -0.12629718 0.02814037 0.042586386
000350 6b b7 73 bd e8 2a c3 bb c8 97 cc 3c 15 00 cf bd
       -0.059501093 -0.0059560426 0.024974719 -0.101074375
000360 21 68 c0 3d 4b f9 42 bc fc 17 17 3d f8 aa ed 3d
       0.09394861 -0.011900256 0.036888108 0.11604875
000370 32 9b 39 bd 0d d4 25 be 1a a0 50 bd c3 2a b1 3d
       -0.04531402 -0.16194172 -0.050933935 0.08650734
000380 46 13 0c be 51 5d 46 be fd 08 f0 bd ce f5 ae bd
       -0.13679227 -0.19371535 -0.117204644 -0.08542977
000390 7d 1a 23 3d 4b 9a 88 3d 79 78 d2 3d 0b db e7 3d
       0.039820183 0.06670054 0.102768846 0.11321076
0003a0 8e c4 ac bd aa 88 bd 3d b6 7a 12 be 77 5b 07 bd
       -0.08435927 0.09254582 -0.14304623 -0.033046212
0003b0 e9 8b dc bd 5e d2 b3 bc 0d 75 fc 3d e6 2f e8 bd
       -0.10768873 -0.021950897 0.12327013 -0.11337261
0003c0 6d f1 16 3e 02 da c4 3d 66 c7 8d 3d 9b c5 d3 3d
       0.14740534 0.09611894 0.06922798 0.103404246
0003d0 11 56 d0 3d ac 54 2d bd 60 44 b5 bd f1 d3 d9 bd
       0.10172666 -0.042317078 -0.08850932 -0.10636128
0003e0 a3 3d a0 bd f0 20 42 bc d9 2e ae bd cd b7 5e 3d
       -0.07824256 -0.011848673 -0.08505029 0.054374505
0003f0 26 e1 e3 bd a6 03 53 3c 7e 19 42 3d ce 60 99 bd
       -0.11126928 0.012879288 0.047387592 -0.07489167

LeNet.1.0.bias f4 [16]
000000 30 b6 92 3c 2c c7 41 3d b0 8b f3 3d 06 56 e4 bd
       0.01790914 0.047309086 0.11891878 -0.1114922
000010 64 98 c4 3d 73 91 bf bd ea a5 fe bd c3 f6 07 ba
       0.09599379 -0.09353914 -0.12433989 -0.00051866117
000020 e2 c2 07 3e 4c 23 71 3d 30 d4 66 bd c7 56 c9 bd
       0.13257936 0.058871552 -0.0563547 -0.098310046
000030 9a f8 41 bd ce 96 02 be ae d0 a0 3d 78 26 04 3e
       -0.047356226 -0.1275284 0.078523025 0.129053

LeNet.1.1.weight f4 [16]
000000 e3 0b 31 3f 81 91 29 3f 46 c3 41 3f 5a b5 4c 3f
       0.6915876 0.66237646 0.7568859 0.7996422
000010 fc 08 3c 3f e9 0d 3a 3f e2 0f 4c 3f 73 8c 48 3f
       0.7345121 0.72677475 0.79711735 0.7833931
000020 74 76 3e 3f f3 9c 45 3f 87 e6 47 3f 56 a2 3c 3f
       0.74399495 0.7719261 0.7808613 0.73685205
000030 91 f8 30 3f 84 2f 42 3f 60 56 46 3f c4 7d 25 3f
       0.6912928 0.75853753 0.7747555 0.6464503

LeNet.1.1.bias f4 [16]
000000 fd a5 85 be ca 92 74 be 09 50 98 be 0e 5d 8a be
       -0.26103202 -0.2388412 -0.29748562 -0.2702412
000010 a4 81 9a be a1 cf 91 be f2 06 90 be 1f db 89 be
       -0.30177033 -0.2847872 -0.281303 -0.2692499
000020 c9 46 93 be ce 5a 79 be 71 e5 82 be 27 20 8d be
       -0.28764942 -0.24351045 -0.25565675 -0.27563593
000030 8f 47 89 be b9 1a 97 be ad 43 99 be 9b ac 89 be
       -0.26812407 -0.29512575 -0.29934445 -0.268895

LeNet.1.1.running_mean f4 [16]
000000 86 b8 49 bf 84 90 f8 3e 84 0e 80 bd fc 13 a7 bf
       -0.78797185 0.48547757 -0.06252769 -1.3052974
000010 de e5 2b be 68 2a 12 bf 03 83 74 bc 32 fb b9 bf
       -0.16786906 -0.57095957 -0.014923814 -1.4529784
000020 78 dd 3b bf 18 61 a9 bf a8 b6 d5 bf ce 7b 0e bf
       -0.7338481 -1.3232756 -1.6696367 -0.5565766
000030 0a 65 02 bf 7e 1a 8c be 03 07 01 bf 49 86 ed 3e
       -0.50935423 -0.27363962 -0.50401324 0.46391514

LeNet.1.1.running_var f4 [16]
000000 10 04 37 40 8f 6d cd 40 ca 4c 80 3e 8c ab f8 3f
       2.859623 6.419624 0.25058585 1.9427352
000010 81 cc ad 3e d6 c1 2c 40 62 a9 c5 3e f3 31 9f 3f
       0.33945087 2.6993308 0.3860579 1.2437118
000020 78 75 1f 3f 62 0d 2e 40 10 a6 0f 40 1b 09 82 40
       0.6228862 2.7195668 2.2445107 4.0636115
000030 94 2c 05 40 12 92 01 3f 1c 44 db 3e 7d 72 8a 40
       2.0808458 0.5061351 0.428254 4.3264756

LeNet.3.weight f4 [2, 46656]
000000 64 fa 93 3c 57 98 d5 3c 58 e7 6a 3b 55 9d 30 3c
       0.018063731 0.026073618 0.0035843458 0.010779698
000010 12 73 65 3b 00 ff 73 3c 40 03 4d 3b 72 b0 8e 3b
       0.0035011214 0.01489234 0.0031282455 0.00435453
000020 a8 fc fb 3b 3c 58 a2 3b af fe 8d 3c 10 f7 8b 3c
       0.007690031 0.004954366 0.017333357 0.017085582
000030 10 8a 5d 3c d5 d4 e6 3c a4 a2 9e 3c a9 63 80 3c
       0.013521686 0.028177658 0.019364662 0.015672522
000040 be 76 04 3d 60 a0 d7 3c 3b 2b b4 3c 9b d7 aa 3c
       0.032339804 0.02632159 0.02199327 0.020854762
000050 09 e2 79 3c 13 7e a3 3c 91 42 13 3c 17 dd d1 3b
       0.015251645 0.019957578 0.008988039 0.00640453
000060 6e a1 42 bb 5d 0e b8 ba 47 28 a9 ba 4b d3 03 bc
       -0.002969827 -0.0014042367 -0.001290568 -0.008045982
000070 24 80 c2 bb bb 9b 26 3b 02 93 42 bb 06 c8 65 3c
       -0.0059356857 0.0025422412 -0.0029689674 0.01402474
000080 46 a7 df 3c cd 5e 00 3d 71 84 2e 3d f7 98 05 3d
       0.027301442 0.03134041 0.042606775 0.03261658
000090 97 45 3c 3d 84 f6 1a 3d 32 8d 07 3d 88 bf 05 3d
       0.045964804 0.037832752 0.03309364 0.03265336
0000a0 24 95 c4 3c 50 69 50 3c 74 f8 8c 3c 55 91 4e 3c
       0.023996897 0.012720421 0.017208315 0.012607892
0000b0 de f4 95 3c 83 67 92 3b d7 26 02 bb 6f 16 5b bb
       0.018305238 0.004467906 -0.0019859576 -0.003343012
0000c0 5a db 62 3c bb ff 8c 3c 77 fb e7 3a e5 c5 8e 3c
       0.013846243 0.017211786 0.0017698844 0.017428348
0000d0 8b 26 1e 3c d3 a3 a9 3c 42 20 7d bb 3f 68 2a bc
       0.009652744 0.020708 -0.0038623963 -0.010400831
0000e0 cc 42 eb 3c 82 83 ea 3b ca ec be 39 e0 3d 6a bb
       0.028718375 0.0071567902 0.00036416046 -0.0035742447
0000f0 77 45 8a bb 42 b9 d4 bb d8 d4 89 bb b2 d6 33 ba
       -0.0042197066 -0.006491811 -0.004206281 -0.00068603
000100 da 74 0f b9 2d f3 1c 3c e0 e4 dd 3c 28 5e b6 3b
       -0.00013681073 0.009579462 0.027086675 0.0055654235
000110 2e 91 92 3b 51 8c b6 3b fb 44 a3 3b c9 b5 43 bb
       0.004472873 0.0055709262 0.0049825883 -0.002986299
000120 33 11 00 3c 34 96 db 3b e6 c4 fc 3a 9a 21 d0 bb
       0.007816601 0.006701255 0.0019284755 -0.006351662
000130 38 df 16 bc 09 b2 51 bc 4b 43 4b bc d3 a7 3c bc
       -0.009208493 -0.012798795 -0.012406181 -0.011514622
000140 17 40 46 bc 61 bf 4b bc f8 77 63 bc 41 1a b2 bb
       -0.012100241 -0.012435765 -0.013883583 -0.0054352586
000150 d0 49 16 ba bd 6a c6 bb f6 f9 d4 bb 7e ca db 3a
       -0.0005733045 -0.0060552047 -0.006499524 0.0016768721
000160 fe ae 21 3c 8b 56 0e 3c a7 b7 c0 3b 5f b5 60 3c
       0.009868382 0.008687626 0.005881268 0.013715117
000170 87 81 4f 3c 9b c7 55 3c b0 2a c3 3c 79 23 09 3c
       0.012665159 0.013048078 0.023824066 0.008370274
000180 2c 78 79 3c 6d 2d ab 3b b6 d0 d0 bb f4 82 07 bb
       0.015226405 0.005223921 -0.0063725365 -0.002067742
000190 44 80 d1 bb 8c 90 39 bb f4 6f 9c bb 09 e8 ad bb
       -0.0063934643 -0.0028314916 -0.004774088 -0.0053072018
0001a0 6d 84 8b 3c b8 a3 33 3c fe 7d e8 ba 27 86 45 3c
       0.017030919 0.010964327 -0.0017737744 0.01205591
0001b0 48 4e c9 ba 4d cf 32 3b 45 6e cd 3b e4 7a 88 b9
       -0.0015358413 0.0027284205 0.0062692487 -0.00026031502
0001c0 30 da 1a 3c e6 0f 49 bc 47 3e fa bb 14 af 13 bb
       0.009451434 -0.012271857 -0.0076368186 -0.0022534775
0001d0 50 cc 74 3a 0c 9b 23 3c 05 87 de 3b 90 86 77 3b
       0.0009338306 0.0099856965 0.006790998 0.0037769414
0001e0 3f 02 55 3c 68 21 e1 3b 41 5a cb 3b b5 31 48 bb
       0.013001024 0.0068704374 0.0062058275 -0.0030547206
0001f0 cb 30 01 3c 83 4c 60 3b 29 62 a5 3b f1 3f e6 3a
       0.007885168 0.0034225292 0.005047102 0.0017566663
000200 52 ac 97 bb 28 85 40 ba f5 a8 9b bb b1 b8 2c bc
       -0.0046286965 -0.00073440606 -0.004750366 -0.010542081
000210 53 d5 e4 bb e7 37 dd 3a bf 77 c9 bb 9e ec 9d bb
       -0.006983438 0.0016877622 -0.006148308 -0.0048194667
000220 55 fe a1 ba 67 b3 63 ba af 00 a2 bb 2c b3 5c bc
       -0.0012359122 -0.0008686096 -0.004943929 -0.013470452
000230 37 9c c7 bb 58 f3 6a 3b 1e 25 46 3b 18 79 19 3c
       -0.0060916203 0.003585061 0.0030234526 0.00936725
000240 6d 55 f8 39 cd 6f 82 3b 00 92 d1 3b be c5 83 3b
       0.00047365893 0.003980613 0.0063955784 0.0040213754
000250 7d ad fd 3b ff ac be 3a cf b4 1c 3b 94 e9 95 3b
       0.0077416287 0.0014547406 0.0023911481 0.004574964
000260 7a 98 a1 3a ea 0d 83 bb 90 1d 34 bc 8d ea ff bb
       0.0012328767 -0.0039994614 -0.010993376 -0.007809943
000270 d4 b0 67 bb f1 07 da 3b 85 04 30 ba db 39 69 3c
       -0.00353532 0.0066537787 -0.00067145407 0.014234985
000280 00 dd af 39 e2 3f bf 3b fa b4 52 3a 24 fd 8d 3b
       0.0003354326 0.005836473 0.0008037832 0.004333155
000290 be c8 6e 3b ca e5 b3 bb 1c 06 98 bb be c7 a2 bb
       0.003643557 -0.0054900395 -0.0046394 -0.004967659
0002a0 57 28 48 bb 6b a8 58 bc c7 1b b4 bb 25 d4 14 3c
       -0.0030541623 -0.013223748 -0.0054964754 0.009083782
0002b0 2f 88 b2 3a 36 8a fd 3b 80 7b 8d 3b 2d 8f e4 3b
       0.0013620908 0.0077374233 0.004317701 0.0069750757
0002c0 12 db 17 3b f9 79 2d 3c 5a b8 86 3b 32 8b e7 39
       0.0023171348 0.010588163 0.004111332 0.00044163462
0002d0 36 60 2c 3c 57 06 d8 3a ba cb 83 bb 61 01 bb bb
       0.010520985 0.0016481382 -0.004022089 -0.0057069515
0002e0 97 16 a4 bb c3 f3 a3 bb 66 4e 41 bb 28 74 6e ba
       -0.0050075757 -0.005003424 -0.0029496192 -0.0009096288
0002f0 e8 40 d0 ba 7c 7c 66 bb b9 e7 db bb 36 43 b4 bb
       -0.0015888484 -0.0035169413 -0.006710973 -0.005501176
000300 0c 83 47 bc 97 63 1d bb 29 c8 b7 bb eb 66 ec ba
       -0.01217724 -0.002401566 -0.0056085777 -0.0018036043
000310 5a 74 8d bb 6f 14 80 3b ed 17 e2 3b a0 75 0c 3c
       -0.0043168487 0.003908686 0.006899825 0.008572966
000320 72 10 82 3c 8f 77 18 3c e1 82 11 3c 20 54 78 3c
       0.015876982 0.009305849 0.008881302 0.015156776
000330 73 76 32 3c 88 0d 69 bb 58 1b 72 3c 91 15 40 3b
       0.010892498 -0.0035561044 0.014777027 0.002930973
000340 db 67 f2 bb 5c fe 7c bc dc 08 5e bc b3 00 a2 3b
       -0.0073976344 -0.015441503 -0.013551917 0.004943931
000350 02 cb ad ba 96 83 88 bc 33 29 a4 bb 2b ad bd bb
       -0.0013259354 -0.016664308 -0.005009794 -0.0057884655
000360 04 64 c6 b9 ea 9d 12 bb 77 41 2f 3b 7f 7d 07 bc
       -0.0003784002 -0.0022371956 0.00267419 -0.008269667
000370 e8 7c 1c ba e4 e6 a2 bb c7 90 22 bc 71 ba 33 3a
       -0.000596954 -0.004971372 -0.009922213 0.000685609
000380 7f a9 98 b9 d2 30 8f 3b c9 c5 32 3c 31 fa 1b 3c
       -0.00029117984 0.0043698335 0.0109114135 0.0095200995
000390 32 d5 9b bb 44 62 37 bb a7 0f 14 bc 5e 6e ed 3b
       -0.0047556395 -0.0027982155 -0.009036935 0.007245823
0003a0 45 42 43 3c dd 3b eb bb a6 14 a1 3b 46 9e 54 bb
       0.011917655 -0.007178767 0.0049157916 -0.003244297
0003b0 bc b5 3f bc d9 34 93 bb 9b 72 08 bc 13 74 a0 bb
       -0.011701044 -0.004492384 -0.008328105 -0.0048966496
0003c0 6d 7b ab bb d1 00 4b ba 45 4f 48 3b af 3a 93 3a
       -0.0052332194 -0.0007743957 0.0030564826 0.0011232699
0003d0 f4 46 21 bc 38 5d 19 ba fc 9d fc ba d8 9c 35 bc
       -0.009843577 -0.00058503775 -0.0019273157 -0.011084758
0003e0 dd cc 00 bc 67 29 d4 bb 90 d1 bb 3b 36 0a d8 ba
       -0.007861343 -0.006474662 0.005731769 -0.0016482535
0003f0 78 38 29 3b d0 2b 8b 3b b7 16 95 3b b4 38 d0 3b
       0.0025821012 0.004247166 0.004549827 0.006354416

LeNet.3.bias f4 [2]
000000 6a b8 bd bb ae 52 81 3b
       -0.005789806 0.0039466238
