models/model_relu_NLL.PT (torch, 382963 bytes, 14 tensors)

LeNet.0.0.weight f4 [6, 3, 3, 3]
0.02578024 -0.05249763 -0.044647135 0.20888744 0.15494688 -0.06232977 0.023082267 0.20465063
-0.005343368 0.19260217 -0.024243679 0.22313742 0.19768174 0.21838006 -0.0016012472 0.06216038
0.18083432 0.23333244 0.07412977 0.14044607 -0.03570295 0.17490716 0.12233826 0.26694486
0.14532678 0.31944925 0.071752496 -0.023539042 0.09966925 -0.055100102 0.12896852 0.10330997
0.08282939 0.14239055 -0.02543753 0.00013051726 -0.009107986 0.14888248 -0.14849943 -0.205118
0.16439793 0.0929072 -0.008089979 0.12811488 -0.04930768 -0.10004768 0.077699006 0.11231988
0.13463755 -0.039987665 -0.09229755 -0.09084531 0.14939693 -0.052581258 -0.1794209 0.062281277
0.020620836 0.12030668 0.14535429 -0.018085193 0.0024459301 -0.043696474 0.11607317 -0.077217475
0.04253635 -0.16865002 0.1027896 0.041966174 -0.14229713 -0.12000299 0.0062472564 0.002378762
-0.20521586 -0.13485046 -0.16401578 0.14992827 0.03937612 -0.11384376 0.2260039 -0.035608206
0.05515884 -0.028508581 -0.07623939 -0.010763313 0.047832776 -0.084750526 -0.09485998 0.17152381
-0.054346174 -0.1609134 -0.07806235 0.09745488 -0.121844746 -0.16963421 -0.16475224 -0.094310984
-0.11706965 -0.0086162705 -0.12866125 0.06502763 0.16654798 -0.056603555 0.010283903 0.006497464
-0.11765591 -0.19856615 0.12032326 0.014442625 0.13119845 -0.1109047 -0.09636217 0.13749894
-0.14678356 0.18558668 0.22912158 0.1991735 0.19500837 -0.12293214 5.774463e-05 0.19586827
-0.10123821 0.107966915 -0.1213747 -0.11855046 0.0022447924 0.15502644 -0.0028081199 0.08929028
0.15624729 0.14148143 0.044941965 0.0016552983 -0.08211114 0.23931839 0.14146504 0.09508514
0.12120949 0.20622824 -0.055035647 0.03850196 -0.058780063 -0.12766938 -0.016438384 -0.14069363
0.086562015 -0.13368222 -0.055093654 0.18360299 -0.05238125 0.1873313 -0.0016193421 0.13310862
-0.13433552 0.012570497 -0.1439656 0.024295585 0.08164423 0.06690173 0.10073397 0.10114039
0.12965272 -0.062375505
00000000: 1531 d33c c107 57bd eadf 36bd 97e6 553e
00000010: 65aa 1e3e 804d 7fbd 0617 bd3c ef8f 513e
00000020: 6b17 afbb 8139 453e ae9a c6bc 237e 643e
00000030: 156d 4a3e 069f 5f3e f1e0 d1ba e29b 7e3d
00000040: a22c 393e b3ee 6e3e 59d1 973d 18d1 0f3e
00000050: 423d 12bd dd1a 333e 7b8c fa3d ffac 883e
00000060: 8bd0 143e da8e a33e f9f2 923d f3d4 c0bc
00000070: 641f cc3d a5b0 61bd 5310 043e 2d94 d33d
00000080: 75a2 a93d d4ce 113e 5e62 d0bc 76db 0839
00000090: aa39 15bc a674 183e 3c10 18be 740a 52be
000000a0: ee57 283e 2146 be3d d58b 04bc 8c30 033e
000000b0: daf6 49bd cce5 ccbd a820 9f3d f707 e63d
000000c0: 6dde 093e 1bca 23bd 7f06 bdbd 1b0d babd
000000d0: 82fb 183e 725f 57bd 1dba 37be a71a 7f3d
000000e0: 07ed a83c 5963 f63d c1d7 143e 6627 94bc
000000f0: e64b 203b 13fb 32bd c5b7 ed3d 3224 9ebd
00000100: 993a 2e3d 97b2 2cbe 5b83 d23d b9e4 2b3d
00000110: 57b6 11be 21c4 f5bd c9b5 cc3b 01e5 1b3b
00000120: 1b24 52be 3d16 0abe c1f3 27be cc86 193e
00000130: db48 213d eb26 e9bd 916d 673e e9d9 11bd
00000140: 3cee 613d d48a e9bc 6623 9cbd 9b58 30bc
00000150: 4dec 433d af91 adbd f345 c2bd f0a3 2f3e
00000160: 189a 5ebd 7bc6 24be 27df 9fbd 6d96 c73d
00000170: bd89 f9bd 97b4 2dbe d0b4 28be 1e26 c1bd
00000180: 36c2 efbd 422b 0dbc c6bf 03be 352d 853d
00000190: 8e8b 2a3e 21d9 67bd d17d 283c aee8 d43b
000001a0: 95f5 f0bd ed54 4bbe 0b6c f63d c3a0 6c3c
000001b0: e358 063e 0122 e3bd 8859 c5bd 86cc 0c3e
000001c0: 6e4e 16be 6f0a 3e3e d99e 6a3e 23f4 4b3e
000001d0: 46b0 473e d9c3 fbbd d332 7238 b191 483e
000001e0: fb55 cfbd c21d dd3d 4c93 f8bd 95ca f2bd
000001f0: 5e1d 133b 40bf 1e3e 6f08 38bb d3dd b63d
00000200: 4aff 1f3e 82e0 103e 1115 383d 98f6 d83a
00000210: e329 a8bd e10f 753e 36dc 103e ffbb c23d
00000220: ae3c f83d 7f2d 533e 0f6d 61bd 3bb4 1d3d
00000230: 5dc3 70bd c3bb 02be caa9 86bc fe11 10be
00000240: 6d47 b13d fee3 08be e2a9 61bd 6c02 3c3e
00000250: b98d 56bd c7d3 3f3e 1b40 d4ba a04d 083e
00000260: 408f 09be 7cf4 4d3c b86b 13be 8907 c73c
00000270: 1735 a73d c603 893d 9d4d ce3d b122 cf3d
00000280: afc3 043e 757d 7fbd

LeNet.0.0.bias f4 [6]
-0.18347016 -0.05043562 -0.036704306 0.19084962 -0.16042933 -0.022649204
00000000: 9adf 3bbe 9595 4ebd 4157 16bd 156e 433e
00000010: 9647 24be d38a b9bc

LeNet.0.1.weight f4 [6]
0.98785925 1.0124096 1.0583873 1.0287851 0.9283716 0.98291564
00000000: 58e4 7c3f a396 813f 3c79 873f 3baf 833f
00000010: c3a9 6d3f 5ca0 7b3f

LeNet.0.1.bias f4 [6]
-0.00941658 -0.015797356 0.011461516 0.029155854 -0.06480074 -0.016208757
00000000: 0048 1abc 7569 81bc 15c9 3b3c 42d8 ee3c
00000010: 40b6 84bd 3ac8 84bc

LeNet.0.1.running_mean f4 [6]
1.270513 0.27061108 -0.165747 -0.32351762 0.53930503 0.25986624
00000000: 2ca0 a23f 898d 8a3e 95b9 29be 1aa4 a5be
00000010: e50f 0a3f 300d 853e

LeNet.0.1.running_var f4 [6]
0.66405165 0.032941524 0.006408102 0.08312979 0.15384151 0.025408724
00000000: 4aff 293f b1ed 063d 0efb d13b f43f aa3d
00000010: a188 1d3e f525 d03c

LeNet.1.0.weight f4 [16, 6, 3, 3]
0.11358147 -0.12734795 0.12563348 -0.038193118 0.048127074 -0.13901804 -0.0044302633 -0.07274219
0.0693565 -0.0954635 0.034263033 0.034362074 -0.10876482 0.05187278 0.0034749894 0.104029484
-0.13062894 -0.078317426 -0.13615131 0.095124945 0.022419943 0.12665075 -0.012468969 0.12203892
0.04302774 0.09548999 -0.11405261 0.087830335 0.026520256 -0.0028714703 -0.14338091 -0.030939566
-0.015238006 -0.048765704 0.009660638 0.095313504 -0.064188555 -0.005289544 -0.1314193 0.1030875
-0.13899061 0.032659315 0.0155098485 0.02302829 0.044261806 -0.10784011 -0.044862825 -0.013922163
-0.0812406 0.109199524 -0.048608515 -0.104463615 -0.13256946 -0.11923483 0.10189405 -0.15113091
-0.060800236 0.06390474 -0.12249681 -0.14345196 0.06175699 4.2442945e-05 -0.039688803 -0.06191349
-0.14288801 0.108111136 -0.15818022 -0.16295604 -0.12334769 -0.05461044 -0.10429164 0.0036688168
-0.13776831 -0.026380315 0.020596556 -0.06316346 0.09725352 -0.13191608 -0.08546951 -0.12397533
0.029216249 -0.0028177947 -0.10945661 -0.032649502 -0.10630696 0.09127307 -0.14137812 0.10339541
-0.049495574 0.004636945 0.10782397 0.0003038104 0.0243458 0.07610753 -0.1323627 0.00091763714
0.10027905 0.07815692 -0.0052160984 -0.058552235 0.060879223 -0.04397862 -0.038799874 0.09276954
0.06220281 0.108932905 -0.11599465 -0.14201954 0.13531755 0.06021633 -0.09610615 0.04829075
0.055477846 -0.087991044 -0.0131784445 0.020696603 0.1442489 -0.089761965 0.07040799 -0.059822418
-0.11378228 -0.088578105 0.053904988 -0.13009138 -0.032803107 0.07327644 -0.07568766 0.11693352
-0.04968544 0.039971225 -0.070312805 0.044922568 0.13480344 0.1347434 -0.13992171 -0.11747239
0.058834396 0.14357597 -0.10667366 0.08376774 0.0033868805 0.03272086 -0.07666832 -0.09298386
0.011490319 -0.08886643 -0.04711886 0.0052290787 -0.13198213 -0.058981292 0.06853638 -0.08860512
0.049671497 0.010986183 -0.08211651 -0.019931253 0.01817747 0.03688364 -0.05189578 -0.14517716
-0.019047733 0.072349556 0.053444803 0.044957206 0.1207868 -0.017880479 0.056332704 -0.11076718
0.06810032 0.07111959 0.043616515 -0.061664756 -0.04392222 0.039687704 -0.112898655 0.069142155
0.020134542 -0.14861718 -0.12673086 0.117759325 -0.09234991 -0.022101339 -0.08872061 -0.11245493
-0.06672408 0.052637722 -0.05177758 -0.026184974 -0.07461603 0.025579793 -0.059940763 -0.12056278
-0.01662798 0.0045515527 -0.10640028 0.011258217 0.011180492 -0.012847666 -0.048004568 0.044863183
0.049036376 -0.089695655 0.100150906 0.053982515 0.02542024 -0.15318976 0.10464893 -0.11348976
-0.024669798 -0.112183616 0.008112755 -0.04050003 -0.00899104 0.100543424 0.061685715 -0.06049146
-0.009281738 -0.016616128 -0.05210701 0.04500955 -0.11214072 -0.0041820714 -0.015410764 -0.05140503
-0.057624195 0.060270164 -0.05207918 -0.11050433 -0.12310589 -0.118914455 -0.1299812 0.04022989
0.11631636 -0.1257214 -0.14092667 -0.009627156 0.07290715 0.05912251 -0.024016198 0.07636468
0.057259813 0.04180225 0.12490094 -0.022399995 -0.14671229 -0.012091229 -0.13053922 0.08980302
0.018446147 -0.097941086 -0.061846998 0.029653074 -0.035087798 -0.041943256 0.031117067 0.09825417
00000000: 679d e83d 8067 02be 10a6 003e 6370 1cbd
00000010: e520 453d bf5a 0ebe be2b 91bb dbf9 94bd
00000020: c80a 8e3d 5e82 c3bd 6557 0c3d 3fbf 0c3d
00000030: 17c0 debd 8d78 543d a6bc 633b 690d d53d
00000040: 98c3 05be e364 a0bd 406b 0bbe ded0 c23d
00000050: 07aa b73c bcb0 013e a64a 4cbc 8bef f93d
00000060: db3d 303d 4290 c33d 6a94 e9bd 64e0 b33d
00000070: 0241 d93c 472f 3cbb 72d2 12be f974 fdbc
00000080: d4a8 79bc 8cbe 47bd a747 1e3c ba33 c33d
00000090: 4a75 83bd e953 adbb c892 06be 8a1f d33d
000000a0: 8e53 0ebe c6c5 053d 051d 7e3c d3a5 bc3c
000000b0: de4b 353d 47db dcbd 15c2 37bd c919 64bc
000000c0: 7961 a6bd 00a4 df3d b919 47bd 05f1 d5bd
000000d0: 4ac0 07be 6431 f4bd d4ad d03d 10c2 1abe
000000e0: ab09 79bd 7de0 823d 9cdf fabd 12e5 12be
000000f0: e6f4 7c3d c404 3238 ba90 22bd 0099 7dbd
00000100: 3c51 12be 5f69 dd3d fff9 21be f3dd 26be
00000110: b79d fcbd 32af 5fbd db96 d5bd 8870 703b
00000120: 2313 0dbe 881b d8bc 1cba a83c d85b 81bd
00000130: da2c c73d 0215 07be a30a afbd c7e6 fdbd
00000140: ea56 ef3c c0aa 38bb ca2a e0bd 7cbb 05bd
00000150: 77b7 d9bd 60ed ba3d 6dc5 10be f9c0 d33d
00000160: dfbb 4abd 84f1 973b d0d2 dc3d be48 9f39
00000170: d870 c73c 44de 9b3d 168a 07be 968d 703a
00000180: 1a5f cd3d bc10 a03d ceeb aabb 78d4 6fbd
00000190: 7e5c 793d ed22 34bd 9eec 1ebd f5fd bd3d
000001a0: 60c8 7e3d 3718 df3d 9a8e edbd 926d 11be
000001b0: af90 0a3e 66a5 763d 4dd3 c4bd 85cc 453d
000001c0: bd3c 633d a634 b4bd 67ea 57bc ec8b a93c
000001d0: fcb5 133e 1fd5 b7bd 1032 903d 5a08 75bd
000001e0: af06 e9bd 7068 b5bd 7acb 5c3d ad36 05be
000001f0: 8d5c 06bd f511 963d 2202 9bbd d77a ef3d
00000200: f682 4bbd deb8 233d 2900 90bd ba00 383d
00000210: ea09 0a3e 2dfa 093e a347 0fbe 5d95 f0bd
00000220: 56fc 703d 9405 133e b877 dabd 6c8e ab3d
00000230: 6df6 5d3b 4f06 063d 4804 9dbd 526e bebd
00000240: e441 3c3c 9aff b5bd b5ff 40bd b158 ab3b
00000250: 5326 07be 5e96 71bd cd5c 8c3d 9a76 b5bd
00000260: 5774 4b3d 64ff 333c b32c a8bd de46 a3bc
00000270: ebe8 943c 4d13 173d ab90 54bd 52a9 14be
00000280: fe09 9cbc 012c 943d f0e8 5a3d 0c25 383d
00000290: 125f f73d 157a 92bc 1fbd 663d e7d9 e2bd
000002a0: 2e78 8b3d 26a7 913d 3ba7 323d 2f94 7cbd
000002b0: c9e7 33bd 938f 223d 6937 e7bd 679a 8d3d
000002c0: 32f1 a43c 1a2f 18be bcc5 01be cd2b f13d
000002d0: f321 bdbd de0d b5bc 27b3 b5bd c54e e6bd
000002e0: a2a6 88bd a79a 573d ba14 54bd df81 d6bc
000002f0: 4ad0 98bd b78c d13c 7284 75bd 9ee9 f6bd
00000300: 6737 88bc 3125 953b 64e8 d9bd 6274 383c
00000310: 622e 373c 047f 52bc 70a0 44bd 75c2 373d
00000320: 5eda 483d 5bb2 b7bd eb1b cd3d c51c 5d3d
00000330: 1b3e d03c c7dd 1cbe 2e52 d63d 526d e8bd
00000340: 5118 cabc 86c0 e5bd 5ceb 043c 5ce3 25bd
00000350: 284f 13bc b6e9 cd3d 29aa 7c3d e5c5 77bd
00000360: 6e12 18bc 8c1e 88bc 296e 55bd ef5b 383d
00000370: 09aa e5bd c209 89bb 6e7d 7cbc 158e 52bd
00000380: 5907 6cbd d9dd 763d fa50 55bd 1850 e2bd
00000390: f11e fcbd 6c89 f3bd cb19 05be 19c8 243d
000003a0: 4637 ee3d 1cbd 00be 154f 10be 38bb 1dbc
000003b0: 5850 953d 722a 723d 9ebd c4bc 1665 9c3d
000003c0: 4489 6a3d d638 2b3d 10cc ff3d 3280 b7bc
000003d0: bf3b 16be 4a1a 46bc 13ac 05be a5ea b73d
000003e0: 601c 973c 5695 c8bd 4753 7dbd 01eb f23c
000003f0: 39b8 0fbd b1cc 2bbd 38e9 fe3c 7b39 c93d

LeNet.1.0.bias f4 [16]
-0.058758266 0.045482203 0.02281502 0.119608134 -0.055491306 -0.08400373 0.05301833 -0.045284048
0.10768798 -0.04306367 0.09809682 -0.06364187 -0.11922337 0.06986507 0.13368696 0.1323224
00000000: 82ac 70bd 8c4b 3a3d 91e6 ba3c 1cf5 f43d
00000010: da4a 63bd 260a acbd c029 593d c47b 39bd
00000020: 848b dc3d 8863 30bd fce6 c83d ab56 82bd
00000030: 622b f4bd 6b15 8f3d 3ce5 083e 867f 073e

LeNet.1.1.weight f4 [16]
0.9279773 0.93215483 0.93161845 0.8945012 0.94664526 0.93209606 0.9416482 0.9018048
0.9881339 0.9485199 0.92380965 0.8760614 0.88223565 0.9823091 0.90496033 0.8901184
00000000: ec8f 6d3f b3a1 6e3f 8c7e 6e3f 08fe 643f
00000010: 5857 723f d99d 6e3f db0f 713f aedc 663f
00000020: 58f6 7c3f 33d2 723f ca7e 6c3f 8f45 603f
00000030: 32da 613f 9c78 7b3f 7bab 673f cdde 633f

LeNet.1.1.bias f4 [16]
-0.07088831 -0.090126574 -0.07509173 -0.0913056 -0.07767496 -0.09448807 -0.07623155 -0.110540144
-0.0855959 -0.062922135 -0.092178985 -0.09298751 -0.10440925 -0.09012884 -0.08442392 -0.09487487
00000000: e42d 91bd 4894 b8bd b1c9 99bd 6efe babd
00000010: 0d14 9fbd f682 c1bd 491f 9cbd df62 e2bd
00000020: e74c afbd 52dd 80bd 56c8 bcbd 3c70 bebd
00000030: 84d4 d5bd 7895 b8bd 73e6 acbd c14d c2bd

LeNet.1.1.running_mean f4 [16]
-0.57044506 -1.2258868 -0.310645 -0.5503061 -0.736114 -0.60406077 -1.1803634 -0.06021778
0.09660555 0.8584201 0.21320665 -0.8643953 0.9987014 0.0025038668 0.29521576 0.265612
00000000: b008 12bf dce9 9cbf dd0c 9fbe dce0 0cbf
00000010: f871 3cbf baa3 1abf 2616 97bf eba6 76bd
00000020: 21d9 c53d 6bc1 5b3f d852 5a3e 0349 5dbf
00000030: e5aa 7f3f ea17 243b 8526 973e 4cfe 873e

LeNet.1.1.running_var f4 [16]
1.0726845 0.56041807 0.3476051 0.70877284 0.60682374 2.2689695 0.9550633 2.7001278
0.10840976 0.3978474 0.362941 6.8233376 1.0536875 0.14001587 0.16036668 1.2641404
00000000: ba4d 893f 8f77 0f3f 4cf9 b13e 2372 353f
00000010: cd58 1b3f cc36 1140 077f 743f e5ce 2c40
00000020: f005 de3d a8b2 cb3e 67d3 b93e c858 da40
00000030: 3bdf 863f 5260 0f3e 2a37 243e 5acf a13f

LeNet.3.weight f4 [2, 46656]
-0.003302773 -0.014901684 -0.014790239 -0.01593332 -0.0038452127 -0.0009296763 0.007765243 0.0020315277
-0.0007844425 0.0035614704 -0.0031746186 -0.0007977222 0.007063235 0.009738163 0.0067706727 0.0026176006
0.009155848 0.010406398 0.009582153 0.0035271856 0.006831139 0.004732354 -0.0033316198 -0.0036643692
-0.0038959486 -0.012920867 -0.008641053 -0.007720263 -0.010758055 -0.0027079228 -0.005431584 -0.00018441517
-0.0006890439 0.006414063 0.006257242 0.0057041184 0.013604684 0.01265401 0.010847863 0.01072082
-0.0005121106 -0.0014757424 0.0015334418 0.004485821 0.0011599463 -0.007792121 -0.005049801 -0.0021242297
-0.008457504 0.00049789995 -0.0077628866 -0.004215727 -0.006346352 0.0011395455 -0.011300422 -0.008736133
-0.007443153 -0.006982071 -0.0027100404 0.0036541617 0.0057899714 -0.0015979123 0.0022039239 -0.0045011304
3.0691288e-05 -0.0010709635 0.0028788557 0.0034026885 -0.0026218966 0.0032191079 -0.002418272 -0.000726502
-0.0019222767 -0.0031151415 -0.0026390248 -0.0030929893 0.00090593245 -0.0054272665 -0.004098636 -0.0017737362
-0.0022575953 -0.004837842 -0.009920537 -0.008647944 -0.004956849 -0.002640893 -0.0012830287 -0.0041782507
-0.006048771 0.0030201923 0.00553156 -0.0002724084 -0.0004988498 0.0032983106 0.00063051685 0.004168971
0.0028403176 -0.007244732 -0.0004689229 -0.0067303674 -0.008161187 -0.0031484237 -0.010218362 -0.0003575327
0.00021792625 -0.004622909 -0.0076110554 -0.007351609 -0.009723222 -0.0058342074 -0.010281101 -0.009801198
-0.0067738574 -0.0024292318 -0.005765848 -0.003958664 -0.006310872 -0.0063744467 -0.005377384 -0.0010126648
0.0040935697 0.0008121281 0.0016843062 0.00036004407 0.0077651674 0.0040941583 0.0038397065 0.0077368654
0.004276374 -0.004555194 -0.006421898 -0.0037183273 -0.00680885 -0.004107143 -0.0041252635 -0.010487361
-0.008848675 -0.007438032 0.0016827963 -0.006548969 0.0012917046 -0.0016181279 -0.00263117 0.005100698
0.004926708 0.008314274 0.001698183 -0.0029090066 -0.00042152015 -0.0021037676 0.0031191097 -2.807353e-05
-0.00421286 -0.0045149503 -0.009663794 -0.0054154918 -0.008818254 -0.0008249592 0.0008380816 -0.008772326
-0.009795962 -0.0066593634 -0.0033145167 -0.0026175897 -0.002917819 -0.004450659 -0.005267628 -0.0027903218
-0.0053484384 -0.008090408 -0.0054889703 -0.0041633183 0.0029421826 0.009233797 0.00684943 0.0062314165
-0.0018736768 0.0036018095 0.004216747 -0.0016708686 0.0019589234 -0.003365989 0.0025656102 -0.0012499264
-0.00858182 -0.009389277 -0.0056042518 -0.0026711556 -0.007312915 -0.0021136135 -0.0057895747 -0.0026761137
-0.00043669858 0.00020439504 -0.0059887306 0.0005900799 -0.0024425795 0.0053850543 -0.0007081258 0.007049356
0.0021307606 0.003984213 0.003930677 0.0042402637 0.0016474159 -0.0046385145 -0.002216603 -0.0024989152
-0.009714487 -0.008960108 -0.0036290374 -0.0043171244 -0.005189813 -0.008904687 -0.0054741735 -0.0080927815
0.0009863905 -0.0013785394 -0.00242326 0.0022033488 -4.7262933e-05 -0.0065524434 -0.008976433 -0.009199173
-0.007343977 -0.000916146 0.005934953 0.009265142 0.005963723 -0.001711352 0.0018628349 0.0022934605
0.0029648298 0.0019205963 0.000107484906 -0.00732735 -0.0046049682 -0.005294834 -0.0011572543 -0.008830246
-0.001650974 0.0017694328 -0.0041033304 -0.004856187 0.0015595328 0.00045190798 -0.0002759337 -0.0069279694
-0.010037665 -0.00332908 0.0033652904 0.001085098 0.004297998 0.0007947336 0.0041756253 0.0055242954
00000000: 5673 58bb 3126 74bc c252 72bc 9886 82bc
00000010: f7ff 7bbb 85b5 73ba 9473 fe3b 6123 053b
00000020: 0ca3 4dba 8f67 693b 430d 50bb 3b1e 51ba
00000030: b672 e73b d18c 1f3c 85dc dd3b 0d8c 2b3b
00000040: 6902 163c 997f 2a3c 76fe 1c3c 5b28 673b
00000050: bfd7 df3b dd11 9b3b 4e57 5abb ea25 70bb
00000060: 2c53 7fbb 0bb2 53bc 3493 0dbc 43fa fcbb
00000070: 8e42 30bc 6877 31bb 6efb b1bb 925f 41b9
00000080: f4a0 34ba 0f2d d23b 8d09 cd3b 9de9 ba3b
00000090: 2ee6 5e3c c452 4f3c 3cbb 313c 61a6 2f3c
000000a0: 293f 06ba b36d c1ba c5fd c83a cbfd 923b
000000b0: 5709 983a 0c55 ffbb cd78 a5bb a936 0bbb
000000c0: 5891 0abc 8085 023a d05f febb 1524 8abb
000000d0: 0ff5 cfbb cd5c 953a 6825 39bc ff21 0fbc
000000e0: b1e5 f3bb dbc9 e4bb ef9a 31bb a97a 6f3b
000000f0: cdb9 bd3b 0a71 d1ba b56f 103b 387e 93bb
00000100: 85ba 0038 925f 8cba 2fab 3c3b a4ff 5e3b
00000110: 20d4 2bbb abf7 523b df7b 1ebb b972 3eba
00000120: e7f4 fbba 6727 4cbb 7df3 2cbb c0b3 4abb
00000130: 197c 6d3a 36d7 b1bb da4d 86bb b67c e8ba
00000140: 2af4 13bb c386 9ebb bf89 22bc 1bb0 0dbc
00000150: 106d a2bb d512 2dbb 4d2b a8ba b5e9 88bb
00000160: c534 c6bb 6bee 453b 1742 b53b 09d2 8eb9
00000170: 3ec5 02ba 7828 583b 4549 253a dd9b 883b
00000180: 9f24 3a3b 3865 edbb c4d9 f5b9 6a8a dcbb
00000190: 80b6 05bc c955 4ebb eb6a 27bc 3a73 bbb9
000001a0: 2283 6439 c57b 97bb 2966 f9bb c4e5 f0bb
000001b0: 264e 1fbc e12c bfbb 1072 28bc 3495 20bc
000001c0: 3cf7 ddbb bf33 1fbb 70ef bcbb aeb7 81bb
000001d0: 6ecb cebb bce0 d0bb c434 b0bb 64bb 84ba
000001e0: 5a23 863b ffe4 543a f0c3 dc3a 4cc4 bc39
000001f0: f272 fe3b 4a28 863b 96a3 7b3b 8885 fd3b
00000200: d320 8c3b bd43 95bb c96e d2bb 2eaf 73bb
00000210: c61c dfbb 3695 86bb 382d 87bb 2ed3 2bbc
00000220: 08fa 10bc bcba f3bb 4691 dc3a bc98 d6bb
00000230: 6a4e a93a 5d17 d4ba b56f 2cbb c223 a73b
00000240: 3970 a13b 9838 083c 9195 de3a 08a5 3ebb
00000250: 7aff dcb9 5ddf 09bb fa69 4c3b 727f ebb7
00000260: 080c 8abb 26f2 93bb e454 1ebc 7074 b1bb
00000270: 707a 10bc 1342 58ba b4b2 5b3a cdb9 0fbc
00000280: 3e7f 20bc ca36 dabb 5d38 59bb de8b 2bbb
00000290: e138 3fbb d5d6 91bb 119c acbb d5dd 36bb
000002a0: f441 afbb a18d 04bc d2dc b3bb 726c 88bb
000002b0: a2d1 403b 5a49 173c 2f71 e03b e930 cc3b
000002c0: 2996 f5ba 560c 6c3b a32c 8a3b 0c01 dbba
000002d0: 4861 003b ed97 5cbb cc23 283b 92d4 a3ba
000002e0: c39a 0cbc 7bd5 19bc dfa3 b7bb 8e0e 2fbb
000002f0: 2da1 efbb 8d84 0abb 79b6 bdbb bd61 2fbb
00000300: b1f4 e4b9 e052 5639 1d3d c4bb 97af 1a3a
00000310: af13 20bb 1c75 b03b 85a1 39ba 49fe e63b
00000320: 3ba4 0b3b 008e 823b e9cc 803b e9f1 8a3b
00000330: 1bee d73a aefe 97bb 6d44 11bb d7c4 23bb
00000340: 8329 1fbc 6bcd 12bc 25d5 6dbb aa76 8dbb
00000350: 4f0f aabb f7e4 11bc b260 b3bb 9697 04bc
00000360: c649 813a 1bb0 b4ba 8ecf 1ebb 0f66 103b
00000370: 303c 46b8 e1b5 d6bb e411 13bc 21b8 16bc
00000380: bfa5 f0bb 8429 70ba ff79 c23b d2cc 173c
00000390: 566b c33b 724f e0ba 5e2a f43a e24d 163b
000003a0: 974d 423b 85bc fb3a 8569 e138 441a f0bb
000003b0: 46e5 96bb 4980 adbb 03af 97ba bcac 10bc
000003c0: 7f65 d8ba 50ec e73a 3b75 86bb a620 9fbb
000003d0: 3d69 cc3a 10ee ec39 32ab 90b9 0504 e3bb
000003e0: 0575 24bc b22c 5abb 348c 5c3b d939 8e3a
000003f0: 38d6 8c3b ab55 503a afd3 883b 2605 b53b

LeNet.3.bias f4 [2]
-0.0033149247 0.0022601432
00000000: 353f 59bb e91e 143b
