models/sigmoid+nll.pth (torch, 382909 bytes, 14 tensors)

LeNet.0.0.weight f4 [6, 3, 3, 3]
0	0x3dc297df	0.09501623
1	0x3e0e3c58	0.13890207
2	0x3e3a7b29	0.18211044
3	0x3d037a0c	0.032098815
4	0x3cef0796	0.029178422
5	0x3d7d8dfe	0.061902992
6	0xbe911604	-0.2833711
7	0xbe0e5dd7	-0.13902985
8	0x3c81e828	0.015857771
9	0xbe04725b	-0.12934248
10	0xbe017b02	-0.1264458
11	0xbe2e091f	-0.16995667
12	0xbe6eee76	-0.23333153
13	0xbe84e1d6	-0.2595355
14	0xbe1d18f0	-0.15341544
15	0xbe9dbdd9	-0.30808905
16	0xbe17cbfb	-0.14823906
17	0xbe4c68c4	-0.1996184
18	0x3d9c0898	0.07618827
19	0x3e03657a	0.12831679
20	0x3dc52107	0.0962544
21	0x3c9e5fb6	0.019332748
22	0xbd0f9741	-0.035056356
23	0xbe1af26e	-0.15131542
24	0xbe895375	-0.26821485
25	0x3c348259	0.011017405
26	0xbde4f205	-0.11178974
27	0x3daa73ab	0.08322843
28	0x3dbd2b8e	0.09236823
29	0xbdc69504	-0.09696391
30	0x3e134b3a	0.14384165
31	0xbe4a7fe2	-0.19775346
32	0xbdc2c346	-0.09509902
33	0x3e3384de	0.17531154
34	0x3dc3764b	0.09544047
35	0xbdde15fc	-0.10844037
36	0x3de31663	0.11088254
37	0xbdd9bc76	-0.10631649
38	0xbd03b72b	-0.032157104
39	0x3e274146	0.16333494
40	0xbe54cb92	-0.20780781
41	0x3e15f14a	0.14642826
42	0xbcdc9f79	-0.026931511
43	0xbe56feff	-0.20995711
44	0xbdc007bf	-0.093764775
45	0x3e29ec36	0.16594014
46	0x3db386f2	0.08765973
47	0xbdb71a5c	-0.089405745
48	0x3df030fc	0.11728093
49	0xbd43924e	-0.04774695
50	0x3dd51a14	0.10405365
51	0x3e411fea	0.1885983
52	0xbd8e7e3b	-0.0695767
53	0x3d805d1e	0.06267761
54	0x3da3bf04	0.07995418
55	0xbd98048a	-0.07422741
56	0x3e0af71c	0.13570827
57	0xbd4f6b5c	-0.050639495
58	0x3e1c2a19	0.15250434
59	0xbdb9d733	-0.09074249
60	0xbe828d73	-0.25498542
61	0x3d9f3121	0.077730425
62	0xbd5d41d2	-0.05401785
63	0x3e134740	0.14382648
64	0x3de14b04	0.11000636
65	0xbc37a5fa	-0.0112090055
66	0x3e21dd57	0.1580709
67	0x3bdb287b	0.0066881753
68	0x3e288f74	0.16460973
69	0xbe8c075e	-0.2734937
70	0xbe2fd841	-0.17172338
71	0xbbed4231	-0.0072405566
72	0x3e27be74	0.16381246
73	0x3e08f6d5	0.13375409
74	0xbe292fe2	-0.16522172
75	0x3e2a2e87	0.16619311
76	0x3e26cefb	0.16289894
77	0x3de2197f	0.11040019
78	0xbe7076ec	-0.23482865
79	0xbde3920f	-0.11111843
80	0xbe84816e	-0.25879997
81	0x3dd8bed7	0.10583275
82	0x3d8e2689	0.06940944
83	0xbc9cbb60	-0.019132316
84	0x3e50fd08	0.20409024
85	0x3e2459fb	0.1604995
86	0x3ea4ff20	0.32225895
87	0x3d877649	0.06614358
88	0x3eaaa916	0.33332127
89	0x3db4f870	0.08836448
90	0x3e8cf207	0.27528402
91	0x3c183b57	0.0092914915
92	0x3e720f9b	0.23638766
93	0x3d95e16e	0.07318388
94	0x3eaaaec4	0.3333646
95	0x3d40964f	0.047018345
96	0x3e8cc327	0.2749264
97	0x3da3785b	0.0798194
98	0x3e66d57e	0.22542378
99	0xbd87bbb0	-0.066275954
100	0x3c56ce4e	0.01311071
101	0x3dff3411	0.12461103
102	0x3cb7d0a7	0.02243836
103	0x3e8a2ca0	0.2698717
104	0x3e9b52ca	0.303366
105	0x3d2f2e6e	0.04276889
106	0x3dbd051f	0.092294924
107	0xbbf62196	-0.007511328
108	0x3e08df2a	0.1336638
109	0xbcc73862	-0.024318878
110	0x3e441473	0.19148426
111	0x3dafa2ee	0.08575998
112	0x3db00190	0.08594048
113	0x3e483935	0.19553073
114	0x3e526ab0	0.2054851
115	0x3d8b40e7	0.067994885
116	0xbe22f077	-0.15912043
117	0xbbf68389	-0.0075230044
118	0x3dda9246	0.10672431
119	0x3e3d1d1d	0.18468137
120	0x3e65f477	0.22456537
121	0x3d175f18	0.036955923
122	0xbe242ab0	-0.16031909
123	0x3e3f280e	0.18667623
124	0x3c5962b2	0.01326816
125	0xbd0acf30	-0.033888996
126	0xbcdf8031	-0.027282806
127	0xbce13ac2	-0.027493838
128	0xbd0464a1	-0.03232253
129	0xbd93bf48	-0.072142184
130	0xbdc74813	-0.09730544
131	0x3dab6db6	0.08370535
132	0x3de57451	0.11203826
133	0x3db2733b	0.08713385
134	0x3d992142	0.074770465
135	0x3e24887c	0.1606769
136	0xbe3735da	-0.17891636
137	0x3c26d5b5	0.010182788
138	0xbdecd81f	-0.11564659
139	0x3e36111e	0.17779967
140	0x3da20aef	0.07912242
141	0xbe4ea0be	-0.20178506
142	0xbc0d14a2	-0.008610876
143	0x3e04629f	0.12928246
144	0xbe3f23c9	-0.18665995
145	0x3e03d377	0.12873636
146	0x3e35f566	0.17769393
147	0xbe1a5975	-0.15073188
148	0x3e195d68	0.14977038
149	0xbc08e104	-0.008354429
150	0xbd41214e	-0.047150902
151	0x3df39746	0.118940875
152	0x3e00bd0f	0.1257212
153	0x3dee2521	0.116281755
154	0x3e32eb91	0.17472674
155	0x3c22d455	0.009938319
156	0x3de03c01	0.10948945
157	0x3d67da04	0.0566044
158	0xbc5c1828	-0.013433494
159	0x3da695e2	0.08134057
160	0xbe3f4c13	-0.18681364
161	0xbe3c6585	-0.18398102

LeNet.0.0.bias f4 [6]
0	0x3e0e2891	0.13882662
1	0xbc889a02	-0.016675
2	0x3dac812c	0.08423075
3	0x3e1de3dc	0.15418953
4	0xbe2b9a6b	-0.16758125
5	0x3c5d20e1	0.0134966085

LeNet.0.1.weight f4 [6]
0	0x3f6c0126	0.9218925
1	0x3f847234	1.0347352
2	0x3f7c0e8d	0.984597
3	0x3f7c175c	0.98473144
4	0x3f859046	1.0434654
5	0x3f81a3bc	1.0128093

LeNet.0.1.bias f4 [6]
0	0xbe2b30bb	-0.16717808
1	0xbd27d65e	-0.04097592
2	0xbdc7c9f1	-0.09755314
3	0xbd669f8f	-0.05630451
4	0xbc63244f	-0.013863637
5	0xbb1e9267	-0.002419615

LeNet.0.1.running_mean f4 [6]
0	0xbf403ee1	-0.75095946
1	0x3e1ac3b9	0.15113725
2	0x3d983da9	0.07433636
3	0x3ff86473	1.9405655
4	0x3f074f28	0.5285516
5	0x3e8907d6	0.2676379

LeNet.0.1.running_var f4 [6]
0	0x3e80463f	0.25053594
1	0x3c35d461	0.011097998
2	0x3b6ac58d	0.0035823316
3	0x3f803426	1.0015914
4	0x3e1b8718	0.15188253
5	0x3cadd080	0.021217585

LeNet.1.0.weight f4 [16, 6, 3, 3]
0	0xbd2e1326	-0.04249873
1	0xbd49197b	-0.049096566
2	0x3dead205	0.11465839
3	0xbd0b300a	-0.03398136
4	0xbd4bf944	-0.049798265
5	0x3daa6f5d	0.08322022
6	0xbd38da04	-0.04512979
7	0xbdc64a2a	-0.096821144
8	0x3dd1fbd8	0.102531135
9	0x3d793261	0.06083906
10	0xbdf22ac1	-0.11824561
11	0xbe056555	-0.13026936
12	0xbcf5a10d	-0.029984022
13	0xbdc225be	-0.09479855
14	0xbd0e8d7d	-0.034802902
15	0x3e0de213	0.13855772
16	0x3b9a40a9	0.004707415
17	0xbc97d027	-0.018531872
18	0xbdd414e3	-0.10355546
19	0x3d3ac3a4	0.045596734
20	0xbd9a77c6	-0.07542376
21	0xbbb5b7bc	-0.0055455845
22	0xbd5da789	-0.054114852
23	0xbba84b29	-0.005135913
24	0xbd0ad822	-0.033897527
25	0x3e1d711b	0.15375178
26	0x3d91f9af	0.071277015
27	0x3db7bfa6	0.08972101
28	0x3deaa4ea	0.11457236
29	0xbd563095	-0.052292425
30	0x3e006e3a	0.12542048
31	0x3d29635b	0.04135452
32	0x3db67f59	0.089110084
33	0x3c65df47	0.014030284
34	0xbdd31f84	-0.103087455
35	0xbd1a4d59	-0.03767142
36	0x3d6aee69	0.057356272
37	0xbd89d0d1	-0.06729282
38	0x3cefdb3e	0.029279348
39	0x3d9bd97e	0.07609843
40	0xbda9ddbb	-0.08294245
41	0xbda2408e	-0.07922469
42	0x3e154b44	0.14579493
43	0xbd5961b5	-0.053071696
44	0xbe093fa3	-0.13403182
45	0xbdc8bfc0	-0.098021984
46	0xbdb327cc	-0.08747825
47	0xbdbd9c76	-0.09258358
48	0x3d8d718e	0.069064245
49	0xbe0bd726	-0.13656291
50	0x3da18e33	0.078884505
51	0xbd85ad5d	-0.06527207
52	0xbd5e79eb	-0.05431549
53	0xbe050baa	-0.1299273
54	0xbd1f391a	-0.038872816
55	0x3d971aee	0.07378183
56	0x3e02b8fb	0.12765877
57	0xbd3fa128	-0.04678455
58	0x3e08ea2f	0.13370584
59	0x3db052c6	0.08609538
60	0x3d172617	0.03690156
61	0x3cd67428	0.026178434
62	0xbd918343	-0.07105114
63	0xbd829da0	-0.06377721
64	0xbdcb17db	-0.099166594
65	0xbd5e7a24	-0.0543157
66	0xbdcb3900	-0.09922981
67	0xbc9cc718	-0.019137904
68	0xbd648f8e	-0.055800967
69	0x3bc516f6	0.0060147
70	0xbcbde6b4	-0.023181297
71	0xbe15f1b9	-0.14642991
72	0xbdf70c29	-0.12062866
73	0xbda10949	-0.07863099
74	0x3d429b65	0.047511477
75	0x3c81748b	0.015802642
76	0x3dab9083	0.08377173
77	0x3d244de8	0.04011336
78	0xbda8f326	-0.08249502
79	0xbdae7dd2	-0.08520092
80	0x3dc41554	0.095743805
81	0x3dbabd02	0.09118082
82	0x3dd4e070	0.103943706
83	0xbd0c38c7	-0.034233835
84	0xbd7f520f	-0.062334117
85	0xbdc9e493	-0.0985805
86	0xbd1e4ea7	-0.038649227
87	0xbd7fe03f	-0.062469717
88	0x3d422357	0.047396984
89	0x3b92af5d	0.0044764713
90	0xbe12475c	-0.14285034
91	0xbe18112e	-0.14850304
92	0xbd06b55d	-0.032887805
93	0x3d095c62	0.03353537
94	0x3d0e3212	0.03471572
95	0xbd680508	-0.056645423
96	0x3dbe5a22	0.09294535
97	0x3d50a449	0.050937925
98	0xbd25adeb	-0.040449064
99	0x3d641c49	0.055691037
100	0x3ba57502	0.005049349
101	0xbde3beef	-0.11120402
102	0xbdd56ded	-0.10421357
103	0x3cd00637	0.025393588
104	0xbb53b41c	-0.0032303398
105	0x3c78b293	0.015179294
106	0xbe0796d4	-0.1324113
107	0xbdae0627	-0.08497267
108	0xbe1aa879	-0.1510333
109	0xbd82e03a	-0.06390424
110	0xbd8f8ad9	-0.07008905
111	0xbe150d11	-0.14555766
112	0xbbc18178	-0.0059053265
113	0x3d0d8ae5	0.03455629
114	0xbdd93cdd	-0.10607312
115	0xbd77fbd5	-0.0605429
116	0xbe0d4a59	-0.13797893
117	0x3dff99d1	0.1248051
118	0xbbb89a66	-0.00563364
119	0x3d206d59	0.039166782
120	0x3dc80426	0.09766416
121	0x3d8dcc58	0.06923741
122	0xbd3a10d0	-0.04542619
123	0xbdcd19a8	-0.10014659
124	0x3e15077e	0.1455364
125	0x3d3b5c1c	0.04574214
126	0xbd858787	-0.065199904
127	0x3d49523f	0.0491507
128	0xbd10d9b8	-0.035363883
129	0x3d869c18	0.06572741
130	0x3bfaa71f	0.007649317
131	0x3d039643	0.032125723
132	0xbb27dd66	-0.0025614141
133	0xbd144394	-0.03619726
134	0xbd93d23a	-0.07217832
135	0xbceb4d8e	-0.028723504
136	0xbbcd2aef	-0.0062612216
137	0x3d5fb574	0.054616407
138	0x3cc55d49	0.024092333
139	0x3ddee588	0.10883623
140	0x3d1ff6e5	0.039053816
141	0x3cc83d82	0.024443392
142	0xbcfa991d	-0.030590588
143	0xbb5eb610	-0.003398303
144	0x3dd99962	0.106249586
145	0xbd8b1ccf	-0.06792604
146	0x3db25f57	0.08709591
147	0xbde3b212	-0.111179486
148	0xbd0f45f6	-0.03497883
149	0x3dd03f51	0.10168327
150	0xbdb7d131	-0.08975447
151	0x3d5076b6	0.05089446
152	0x3e05b721	0.1305814
153	0x3afa0a27	0.0019076512
154	0xbd3afbb1	-0.045650188
155	0xbdd7f45d	-0.105446555
156	0xbd06b3ba	-0.032886244
157	0x3d69980b	0.057029765
158	0x3dc86c0e	0.09786235
159	0x3d087b4c	0.03332071
160	0x3e16aed8	0.14715135
161	0x3df4783a	0.11936994
162	0x3b0047c1	0.0019574019
163	0xbd219c2b	-0.039455574
164	0xbda6a1aa	-0.08136304
165	0x3e014dfc	0.12627405
166	0xbcdf8a97	-0.027287764
167	0xbc5f9a65	-0.01364765
168	0xbdddac43	-0.10823872
169	0x3d90e458	0.07074803
170	0xbdf63343	-0.12021496
171	0xbdda8e55	-0.10671679
172	0xbdef8a42	-0.116962925
173	0x3b772bf7	0.0037715414
174	0xbdc3bfc1	-0.095580585
175	0xbd5d5807	-0.054039028
176	0x3c8150a7	0.015785528
177	0xbdaf317c	-0.0855436
178	0xbd945d0d	-0.072443105
179	0xbe10272d	-0.14077444
180	0xbdc02ee9	-0.093839474
181	0xbdc76b7e	-0.097372994
182	0xbdab51c9	-0.08365209
183	0x3cb71c57	0.02235238
184	0xbda81bea	-0.08208449
185	0x3d968219	0.07349033
186	0x3d334449	0.043766294
187	0x3da4dbdb	0.080497466
188	0xbcd52624	-0.026019163
189	0xbdfc47bc	-0.1231837
190	0xbcd7ca33	-0.026341533
191	0x3dc32e20	0.09530282
192	0xbd5e35a1	-0.054250363
193	0xbd34ac12	-0.04410941
194	0x3ce34470	0.027742594
195	0x3da6e3a6	0.08148889
196	0x3cc8778b	0.024471065
197	0x3d86c265	0.065800466
198	0xbd77d4dd	-0.060505737
199	0xbdfef36c	-0.12448773
200	0x3de8dfb5	0.11370794
201	0xbd36635c	-0.04452835
202	0xbdcb29b0	-0.09920061
203	0x3d37b7e0	0.04485309
204	0x3dc52540	0.096262455
205	0xbdf3bb6c	-0.11900982
206	0xbda1a0c2	-0.0789199
207	0xbcef62a0	-0.029221833
208	0xbdaf731b	-0.085668765
209	0x3e00366a	0.12520757
210	0xbde02580	-0.109446526
211	0xbe0f53f9	-0.13996877
212	0x3db9a04f	0.090637796
213	0xbdc04434	-0.09388009
214	0x3c82150f	0.015879182
215	0xbde58afd	-0.112081505
216	0x3c34d508	0.011037119
217	0xbd810040	-0.06298876
218	0xbdf0148f	-0.11722671
219	0x3c2ef8f2	0.01067947
220	0xbe1d0c0f	-0.15336631
221	0xbc4c4b56	-0.012469133
222	0xbe2f4a33	-0.17118149
223	0xbe13a5ed	-0.14418764
224	0xbdd4917d	-0.10379312
225	0xbd4b30dd	-0.049607147
226	0x3c3e47bb	0.011613782
227	0xbba0acb5	-0.004903401
228	0xbdad0311	-0.084478505
229	0x3dad4fc3	0.08462479
230	0xbd75e45b	-0.06003223
231	0xbda000f1	-0.078126796
232	0xbdd9faf5	-0.106435694
233	0xbd6b0cc6	-0.05738523
234	0x3d1edcad	0.03878467
235	0xbde4ed6f	-0.11178099
236	0xbd3151d2	-0.04329092
237	0xbd5a90e7	-0.053360846
238	0xbe18e94f	-0.1493275
239	0xbda9a7de	-0.08283971
240	0xbcabfe87	-0.020995392
241	0xbe037824	-0.12838799
242	0x3ce37002	0.02776337
243	0x3d84eacb	0.06490096
244	0xbd0824ac	-0.033238098
245	0xbd275fdc	-0.040862903
246	0xbbda90ed	-0.0066701085
247	0x3d02c77e	0.03192853
248	0x3d0d4cd8	0.034497112
249	0xbcee7939	-0.029110538
250	0x3db83dd8	0.08996171
251	0x3daf7406	0.085670516
252	0xbce3ed1b	-0.027823022
253	0xbdbaf97b	-0.09129616
254	0x3dc3bc6f	0.09557425
255	0xbd11ef0b	-0.03562836

LeNet.1.0.bias f4 [16]
0	0x3e084db8	0.13310897
1	0x3d8cdada	0.0687768
2	0xbdb379ca	-0.08763464
3	0xbe06523e	-0.1311731
4	0xbdb26adf	-0.0871179
5	0x3c96c72c	0.01840552
6	0xbd81e233	-0.06341972
7	0x3e067b4e	0.13132975
8	0x3cf58da5	0.029974768
9	0xbdaaecc4	-0.08345941
10	0xbd45b9ac	-0.048272774
11	0x3d3d1e04	0.046171203
12	0x3d8f17c4	0.06986955
13	0xbd8a4a00	-0.06752396
14	0xbd3235e2	-0.043508418
15	0xbe098f5d	-0.13433595

LeNet.1.1.weight f4 [16]
0	0x3f529dd8	0.822721
1	0x3f4c3c1b	0.79779214
2	0x3f3dd68a	0.74155486
3	0x3f545915	0.8294843
4	0x3f540e39	0.828342
5	0x3f6091a8	0.87722254
6	0x3f55524f	0.8332872
7	0x3f4df397	0.80449814
8	0x3f5232cb	0.82108754
9	0x3f4c783e	0.79870975
10	0x3f5419dc	0.8285196
11	0x3f51839c	0.81841445
12	0x3f460498	0.7735076
13	0x3f3585c2	0.70907223
14	0x3f3cbb1f	0.73723024
15	0x3f56a796	0.83849466

LeNet.1.1.bias f4 [16]
0	0xbe6ae5ee	-0.22939274
1	0xbe72655c	-0.23671478
2	0xbe6727b8	-0.22573745
3	0xbe5e9bba	-0.21739092
4	0xbe477668	-0.19478762
5	0xbe56878e	-0.20950148
6	0xbe63f96e	-0.22263119
7	0xbe6fa20c	-0.2340166
8	0xbe64574a	-0.22298923
9	0xbe531329	-0.20612778
10	0xbe5984e2	-0.21242097
11	0xbe5a2a67	-0.21305238
12	0xbe681e27	-0.22667752
13	0xbe4ee7ba	-0.20205584
14	0xbe6840bc	-0.22680944
15	0xbe661c63	-0.22471766

LeNet.1.1.running_mean f4 [16]
0	0xbec9f97e	-0.3944816
1	0xbf458b98	-0.7716613
2	0x3ea21aa6	0.31660956
3	0xbfb0eda6	-1.3822525
4	0xbf9d9ff5	-1.231444
5	0xbe50f1cc	-0.20404738
6	0xbfb6a325	-1.4268538
7	0xbf6d795c	-0.92763305
8	0xbf57fe34	-0.8437226
9	0xbf6a2a50	-0.91470814
10	0xbdd7cdcb	-0.10537299
11	0x3e1ab42a	0.1510779
12	0xbe024a72	-0.12723711
13	0x3ff07d7c	1.8788295
14	0x3f0b8bf8	0.5451045
15	0xbeafc990	-0.34333467

LeNet.1.1.running_var f4 [16]
0	0x3f0a2fea	0.5397936
1	0x3fdf2da2	1.7435801
2	0x400045f9	2.0042708
3	0x3fb60119	1.4219085
4	0x3f2d8e8c	0.67795634
5	0x3eb43d0b	0.35202822
6	0x40007faa	2.007792
7	0x3fc5c3b4	1.5450349
8	0x3f9343e1	1.150509
9	0x3fe5654c	1.7921538
10	0x3ecea948	0.40363526
11	0x3f63875f	0.88878435
12	0x3f58b9e1	0.8465863
13	0x4098ee0c	4.7790585
14	0x3f83063d	1.0236279
15	0x3eec9f7b	0.46215424

LeNet.3.weight f4 [2, 46656]
0	0xbb4fe8f9	-0.0031724556
1	0x3b267fbe	0.002540573
2	0x3c094515	0.008378287
3	0xbc51307f	-0.01276791
4	0xbb808ca4	-0.0039230157
5	0xbbd26c70	-0.006421618
6	0x3c4cf450	0.0125094205
7	0x3b429b3b	0.0029694575
8	0x3b24426f	0.0025064012
9	0xbbaef726	-0.005339521
10	0xbba77805	-0.005110743
11	0xba1f728b	-0.0006082437
12	0xb99646f9	-0.00028663108
13	0xb9437659	-0.00018640737
14	0x3a7b226e	0.00095800206
15	0x3b816f66	0.0039500473
16	0x3c0d8bb3	0.008639264
17	0x3c596666	0.013269043
18	0x3bb24381	0.005440176
19	0x3bcd4e19	0.0062654135
20	0x3b9cdc8c	0.0047870334
21	0xbbd26c0b	-0.006421571
22	0xbc4ba0fc	-0.012428518
23	0xbc89f170	-0.01683876
24	0xbc889cac	-0.01667627
25	0xbc6a980e	-0.014318479
26	0xbc7a3b06	-0.015272861
27	0xbc4d4114	-0.012527723
28	0xbc45edb2	-0.012080597
29	0xbc56c6b8	-0.013108902
30	0xbc3ac345	-0.011399095
31	0xbb0949fc	-0.002094864
32	0x395e48f4	0.00021198747
33	0x3a9399db	0.0011261062
34	0x3c34bafe	0.011030911
35	0x3b6d3894	0.0036197053
36	0x3b9fda7f	0.0048783417
37	0xbb0340ed	-0.0020027712
38	0x3c3308c5	0.010927384
39	0x3c08713b	0.0083277775
40	0xb8bf26ef	-9.114842e-05
41	0xbac5f897	-0.0015103993
42	0x39b955a2	0.0003534975
43	0x3ba61204	0.0050680656
44	0xbb3823f6	-0.0028097606
45	0xbc11f958	-0.008909546
46	0xbbac36e1	-0.0052555655
47	0xbc031d20	-0.008002549
48	0xb9aaa54a	-0.00032548077
49	0x3a7bb5b4	0.0009601966
50	0xbc6168d4	-0.013757903
51	0xbc185f76	-0.009300103
52	0xbc676098	-0.014122151
53	0x3a25a735	0.0006319166
54	0xbbab2163	-0.005222486
55	0xba45e5de	-0.00075492065
56	0x3c883a9f	0.016629515
57	0x3a8be6c2	0.001067363
58	0x3aec28c1	0.0018017517
59	0xbbb7687a	-0.0055971714
60	0x3b877c99	0.0041347262
61	0xbbaec0a7	-0.0053330245
62	0x3b69b40c	0.0035660295
63	0xbad6b3ba	-0.0016380467
64	0xbb178535	-0.002312017
65	0x3bbcebdf	0.0057654227
66	0x3c478e18	0.012179874
67	0x3b1146e6	0.0022167503
68	0xbbdb5d2a	-0.0066944556
69	0x3b7ff923	0.003905841
70	0x3b9261dd	0.0044672326
71	0xbba61d86	-0.0050694374
72	0xbc3dc83f	-0.011583387
73	0xbc2da2db	-0.01059791
74	0x3a539519	0.00080712285
75	0x3b041773	0.0020155578
76	0xbb385c13	-0.0028131052
77	0xbc1fb692	-0.009748118
78	0xbc83125f	-0.015999971
79	0xbc03171c	-0.008001115
80	0xbc645c1f	-0.013937979
81	0xbc2e13ec	-0.010624867
82	0xbc533377	-0.012890688
83	0xbc13dc02	-0.009024622
84	0xbc2c1a6e	-0.010504348
85	0xbb9e1287	-0.004823986
86	0xbabfa4c9	-0.0014621253
87	0x3bf411f1	0.007448428
88	0x3b469b34	0.003030491
89	0xba9c41e2	-0.001192149
90	0xb8cdfb74	-9.8219985e-05
91	0x3b93cba4	0.00451036
92	0x3ad50d74	0.001625462
93	0xbb206b16	-0.002447789
94	0xbc3a173e	-0.01135808
95	0xbc389eba	-0.011268312
96	0xbbcb056e	-0.0061957156
97	0xbbc943e8	-0.0061421283
98	0xbc80180a	-0.015636463
99	0xbb9e41ab	-0.0048296056
100	0xbc74f364	-0.014950607
101	0xbbad145f	-0.0052819694
102	0xbaf01646	-0.0018317185
103	0x3b695644	0.0035604397
104	0x3ba20b94	0.004945228
105	0xb97ddf0a	-0.00024211049
106	0x3c09057d	0.008363125
107	0x3b830bdf	0.003999218
108	0xbc3868ec	-0.011255484
109	0x3bbc8ee1	0.005754337
110	0x38b14fcd	8.454882e-05
111	0x3b7eaecf	0.0038861518
112	0xbc119a73	-0.008886921
113	0xbb3a6ae0	-0.002844505
114	0xbc0c5fdb	-0.008567776
115	0x3b4b9ba8	0.003106812
116	0x3b92bae0	0.0044778436
117	0xbbdfced5	-0.006830076
118	0xbb278e90	-0.0025567152
119	0x3be3048b	0.006928032
120	0xbaf82c49	-0.0018934096
121	0xbafcabcf	-0.0019277277
122	0xbb9729b4	-0.0046131257
123	0xbc5da9fc	-0.013529297
124	0x3b413d98	0.0029486176
125	0xbbef58ed	-0.007304302
126	0xbaf4ac15	-0.0018667007
127	0x3b9c6fe3	0.00477408
128	0x3ab04aa3	0.0013449978
129	0xbbbedc86	-0.0058246283
130	0xbba79e45	-0.0051153027
131	0xbbd72d4e	-0.00656668
132	0xbbfbd5d4	-0.0076854024
133	0xba9e9618	-0.0012099175
134	0xbbf760bd	-0.007549374
135	0xbc09d9d6	-0.008413753
136	0xbc0e9d47	-0.00870449
137	0x3b732320	0.0037099794
138	0x3b054bc1	0.0020339342
139	0xbbafb6d4	-0.005362371
140	0x3b2e159a	0.0026563169
141	0x3c231ffb	0.009956355
142	0x3c2f2b43	0.010691467
143	0x3b9ea1a0	0.0048410445
144	0x3bb4c0f5	0.0055161663
145	0x3c4ce2be	0.012505231
146	0x3c1bdad8	0.009512626
147	0x3b7feb7a	0.0039050267
148	0xbc17cdfe	-0.009265421
149	0xbb5c663e	-0.0033630277
150	0x3ba445ff	0.005013227
151	0x3b1b10b6	0.0023661084
152	0xb991f6c8	-0.00027840422
153	0xbad735fb	-0.0016419286
154	0xbc974600	-0.018465996
155	0xbbed54e3	-0.0072427853
156	0x3bf87bfb	0.007583139
157	0x3a3d63f9	0.0007224675
158	0x3ba640cb	0.005073642
159	0xbc016344	-0.007897202
160	0xbbe09ac2	-0.006854386
161	0x3b31ee39	0.0027150048
162	0x3a1125cf	0.0005536945
163	0x3a908520	0.0011026002
164	0xbc106a9f	-0.008814483
165	0xbb6048a2	-0.003422298
166	0xbb27cee2	-0.002560549
167	0xbb366003	-0.0027828224
168	0xbba0b45d	-0.0049043135
169	0x3b99d522	0.004694597
170	0xbb8165fe	-0.003948926
171	0xb8a157ad	-7.693409e-05
172	0x3c16291b	0.009165074
173	0x3b81805f	0.0039520706
174	0x3b184495	0.0023234237
175	0x3ab7ca0f	0.001402201
176	0xbb838512	-0.004013666
177	0x3c3b67e9	0.011438348
178	0x3b1804f7	0.0023196319
179	0x3bcf9e63	0.00633602
180	0xba694f35	-0.00089000474
181	0xbb83435e	-0.0040058335
182	0x3b9c07f6	0.004761691
183	0xbbbbd4dd	-0.0057321624
184	0xbc538fc5	-0.012912695
185	0xba02996f	-0.000498197
186	0x3bb63970	0.0055610463
187	0x38d9be73	0.0001038284
188	0xbb8d560d	-0.0043132366
189	0xbc17a5ee	-0.009255869
190	0xbc34184f	-0.010992124
191	0xbb199979	-0.0023437424
192	0xba1871c3	-0.00058152917
193	0xbbb31b69	-0.005465914
194	0x3a5d1818	0.0008434071
195	0x3b4e1b0b	0.0031449224
196	0xbb348609	-0.0027545711
197	0x3b54697b	0.0032411504
198	0x3c48cde4	0.012256119
199	0x3c3e59ea	0.011618117
200	0x3b238330	0.002495002
201	0xbbba26df	-0.0056809033
202	0xbb2c489e	-0.00262884
203	0x3c276838	0.010217719
204	0x3ae66148	0.00175766
205	0xbb85b57e	-0.0040804734
206	0xbb9311a3	-0.0044881864
207	0xbc173455	-0.0092287855
208	0xbc048bc2	-0.0080899615
209	0xbb553557	-0.0032533014
210	0xbc09971b	-0.008397843
211	0x39385195	0.00017577999
212	0x3a7bfbe8	0.0009612427
213	0xbc1a9e67	-0.00943718
214	0xbc14e98e	-0.009088887
215	0xbb8850c8	-0.0041600205
216	0xbc252461	-0.010079474
217	0xbb28a4bc	-0.0025732955
218	0x3c1940c5	0.009353821
219	0x3b709032	0.003670704
220	0x3a27ba85	0.0006398338
221	0xbbe7d06a	-0.0070744054
222	0xbc29834e	-0.010346247
223	0xbb3cc653	-0.0028804734
224	0xbbc67dcd	-0.006057477
225	0xbb3d7d80	-0.0028913915
226	0x3a98b0db	0.0011649387
227	0xbaa3e166	-0.0012503087
228	0xbbe01228	-0.006838102
229	0xbb1147a0	-0.0022167936
230	0xbaef4e00	-0.0018257499
231	0xbbefdd17	-0.007320057
232	0x3a230936	0.0006219329
233	0x3bc8e308	0.00613058
234	0xbb4d57ee	-0.0031332928
235	0xbc3e29c3	-0.011606636
236	0x3a00b928	0.0004910403
237	0xbbc8ffb8	-0.0061339997
238	0xbbffe7fb	-0.0078096366
239	0xbbfadb09	-0.0076555056
240	0x3bf5481d	0.007485403
241	0xba4b1341	-0.00077467045
242	0xbbc12faf	-0.005895577
243	0xbb6d3508	-0.003619494
244	0xba2b08e2	-0.0006524456
245	0x3af80862	0.0018923397
246	0x38e40030	0.00010871922
247	0xbc5be565	-0.013421391
248	0xbbbb6021	-0.0057182466
249	0xb9187fff	-0.00014543532
250	0xbbbbbb98	-0.00572915
251	0x3b8e74a4	0.0043474007
252	0xbb942607	-0.004521135
253	0xba498a32	-0.0007688134
254	0x3bed0ef6	0.0072344495
255	0x3b2aaa42	0.0026041423

LeNet.3.bias f4 [2]
0	0xbb6d34bc	-0.0036194762
1	0x3b9f1fdb	0.0048560924
