models/softmaxmodel_nll.PT (torch, 382999 bytes, 14 tensors)

LeNet.0.0.weight f4 [6, 3, 3, 3]
0.015915357 -0.08086941 -0.074216045 0.003982888 0.210358 -0.046974733 0.08293526 0.090489775
0.08525767 -0.093756266 -0.20044799 -0.22118686 -0.045224663 -0.16348079 -0.0006837489 -0.063505426
0.1954703 -0.0018782619 -0.20015487 0.028345255 -0.0063891537 -0.029956471 -0.03701047 0.1694369
0.14448859 0.021594826 0.14076369 0.06593091 -0.074440345 -0.1488078 0.030784564 -0.15707305
0.022306329 -0.024685761 0.1100796 -0.19545239 -0.017139316 -0.06584062 -0.1788863 0.1753399
0.122623466 -0.04415217 0.044278644 0.096688256 -0.14653361 -0.09185186 0.162053 0.028840229
-0.03621782 0.10208901 -0.01021206 0.17098902 0.10659878 0.10167617 -0.16108264 -0.092604145
0.20140722 0.024882931 -0.040662654 -0.07134175 0.113470264 -0.032439128 -0.038211912 -0.19875409
-0.010133914 0.06015843 -0.04699771 0.14165834 0.06749332 0.18677823 0.038040593 0.16571933
-0.07011876 -0.056687012 -0.061086725 0.102770396 0.10604294 0.10735774 -0.12759827 -0.17616126
0.040740237 0.169166 0.15701923 -0.036001105 0.12304971 -2.0391662e-05 0.15986428 0.17481011
0.058211606 0.079099864 -0.008100211 0.014616484 0.1475309 0.07309995 0.114139594 0.07571789
0.036722887 0.1055619 0.18942358 -0.05953306 0.023995128 -0.18946688 0.11796022 0.17907338
0.05396948 0.054483294 -0.050502736 -0.15925021 0.13518552 -0.022240756 -0.07453939 0.14207006
-0.023382585 0.12988685 -0.21226667 0.12579042 0.012284155 -0.083391726 0.08194197 0.14479026
0.15014073 0.14867742 -0.069582395 0.10433673 -0.15594678 -0.14055881 0.065638274 -0.12533484
0.18318346 -0.12339767 0.08671136 -0.0058056302 0.08851316 0.0495306 -0.12728794 -0.06305567
0.13592647 -0.07628838 -0.108175084 -0.06781022 -0.1168057 -0.0021107267 0.04162107 -0.13603972
0.2064281 0.11654888 0.14511591 -0.09654961 0.05491349 -0.02189074 -0.036825255 -0.15381646
-0.1058979 -0.0842061 -0.11392155 -0.10465228 -0.18326573 0.020534838 -0.030494144 0.05389112
-0.04645187 -0.13173814
00000000: ec60 823c dc9e a5bd 95fe 97bd e382 823b
00000010: 1668 573e 9468 40bd f6d9 a93d b452 b93d
00000020: 939b ae3d 4903 c0bd 3d42 4dbe cf7e 62be
00000030: 7f3d 39bd 8267 27be 9d3d 33ba 220f 82bd
00000040: 5e29 483e 0330 f6ba 66f5 4cbe 4f34 e83c
00000050: 1b5c d1bb 4667 f5bc 4a98 17bd de80 2d3e
00000060: d1f4 133e a2e7 b03c 5b24 103e c906 873d
00000070: 2e74 98bd 1261 18be e92f fc3c c2d7 20be
00000080: c3bb b63c cb39 cabc 6a71 e13d ac24 48be
00000090: c067 8cbc 72d7 86bd f82d 37be 4e8c 333e
000000a0: 0322 fb3d e8d8 34bd 865d 353d 7e04 c63d
000000b0: e80c 16be d41c bcbd 39f1 253e 5842 ec3c
000000c0: 2359 14bd 0b14 d13d 7c50 27bc bf17 2f3e
000000d0: 7650 da3d 993b d03d d9f2 24be 3ea7 bdbd
000000e0: b23d 4e3e 4ad7 cb3c e28d 26bd a01b 92bd
000000f0: 1963 e83d e4de 04bd 1884 1cbd 3186 4bbe
00000100: b708 26bc b068 763d ac80 40bd e20e 113e
00000110: f039 8a3d cb42 3f3e 74d0 1b3d 54b2 293e
00000120: 6d9a 8fbd a430 68bd 1336 7abd 4979 d23d
00000130: 0a2d d93d 60de db3d 1fa9 02be 9e63 34be
00000140: 3cdf 263d da39 2d3e a6c9 203e e575 13bd
00000150: 7d01 fc3d c30e abb7 76b3 233e 6c01 333e
00000160: 4b6f 6e3d 1cff a13d bfb6 04bc fa79 6f3c
00000170: 5712 173e 6db5 953d 05c2 e93d fb11 9b3d
00000180: bd6a 163d d630 d83d 41f8 413e f0d8 73bd
00000190: 6e91 c43c 9b03 42be 2195 f13d 035f 373e
000001a0: 1a0f 5d3d e029 5f3d f5db 4ebd 7d12 23be
000001b0: 136e 0a3e 3f32 b6bc 1ca8 98bd d07a 113e
000001c0: d68c bfbc 0f01 053e 6f5c 59be 34cf 003e
000001d0: 7b43 493c 48c9 aabd 31d1 a73d e643 143e
000001e0: 7ebe 193e e53e 183e 3781 8ebd 7fae d53d
000001f0: 83b0 1fbe a6ee 0fbe 5c6d 863d c757 00be
00000200: 7294 3b3e ebb7 fcbd ba95 b13d 283d bebb
00000210: 6346 b53d 99e0 4a3d c557 02be 5523 81bd
00000220: 4f30 0b3e 153d 9cbd e68a ddbd 16e0 8abd
00000230: d437 efbd 1e54 0abb db7a 2a3d ff4d 0bbe
00000240: e361 533e 2eb1 ee3d 4499 143e cdbb c5bd
00000250: f8ec 603d 3654 b3bc 14d6 16bd 1082 1dbe
00000260: 00e1 d8bd 3f74 acbd b44f e9bd ef53 d6bd
00000270: 03aa 3bbe ad38 a83c dbce f9bc efbc 5c3d
00000280: 5144 3ebd 5de6 06be

LeNet.0.0.bias f4 [6]
-0.041988105 0.0818504 0.060371567 0.17557867 -0.14188248 -0.11670883
00000000: b8fb 2bbd 2fa1 a73d 2d48 773d e5ca 333e
00000010: a449 11be 0a05 efbd

LeNet.0.1.weight f4 [6]
1.0183942 1.0003974 1.0811979 1.0434589 0.90346485 1.013629
00000000: be5a 823f 060d 803f b164 8a3f 1090 853f
00000010: 7949 673f 98be 813f

LeNet.0.1.bias f4 [6]
0.051886752 -0.022360565 -0.026744777 -0.030635422 -0.032864064 0.0607181
00000000: 3487 543d 812d b7bc dd17 dbbc 23f7 fabc
00000010: 789c 06bd 8bb3 783d

LeNet.0.1.running_mean f4 [6]
-0.06761229 0.1507192 0.15301107 0.9485547 0.090972885 -0.5537457
00000000: 5078 8abd 2256 1a3e efae 1c3e 7bd4 723f
00000010: fe4f ba3d 47c2 0dbf

LeNet.0.1.running_var f4 [6]
0.0022259252 0.0028357385 0.0035748305 0.18548879 0.017266365 0.059454206
00000000: d4e0 113b ccd7 393b b447 6a3b c6f0 3d3e
00000010: 3172 8d3c 4186 733d

LeNet.1.0.weight f4 [16, 6, 3, 3]
-0.002245231 0.023579035 0.090734236 -0.09895233 0.004953537 0.07183807 0.019581186 0.07764488
0.028190145 -0.0062143607 0.06163026 -0.046509895 0.15616985 0.18252881 -0.024014778 0.08126496
0.16048633 0.06542758 0.0016498981 0.09389484 0.13006492 0.085307404 0.14095458 -0.05774757
0.05028921 -0.0052203634 0.008864426 -0.0012363539 -0.05828299 -0.026689503 0.07917622 0.038661234
0.03660728 -0.1036001 -0.015964434 -0.12870654 -0.09738459 -0.093595214 0.039594136 0.12193995
-0.049795642 0.040119845 -0.06655958 0.09796602 0.096285656 -0.08977482 0.09735713 0.058224216
0.004004889 -0.021587636 0.13528283 0.028801491 0.06967029 -0.021187486 -0.11563838 0.056081984
-0.09343458 -0.13280113 -0.019697305 0.057800844 0.077938505 0.022690652 -0.13210335 0.12595811
-0.021383507 -0.05759774 -0.06450936 0.04110819 0.07819384 -0.021746451 -0.11403213 -0.004170103
-0.004097075 0.12677611 0.0348942 -0.045441356 -0.07243791 -0.014415854 0.003275466 0.09442789
-0.10712812 0.017274082 -0.011383959 -0.01790824 0.090856865 0.10932657 -0.016956052 -0.08304607
-0.08174661 -0.05021816 0.1318962 -0.083090514 -0.06056283 -0.04936931 0.15600514 -0.07367497
-0.07546167 -0.11464458 0.037286054 -0.160299 -0.15960339 0.04763968 0.04813339 0.10299743
0.028888095 0.15021347 0.17592692 -0.010935695 -0.047405146 0.07568231 -0.11008372 -0.02453392
-0.0746893 -0.05729905 0.050420366 -0.04715445 -0.033944875 -0.10384534 -0.13849749 0.058807053
-0.12375666 -0.091387756 -0.106737316 -0.030577227 -0.1277098 -0.1083043 -0.020203386 0.09984318
0.05370549 0.05157136 0.10488758 -0.125342 -0.07083251 -0.11186523 0.118897595 -0.02613122
-0.07481074 0.14394869 -0.107467175 0.1269624 -0.010209045 0.021545028 -0.009051806 0.06640681
0.029905995 0.061294794 0.121320434 0.058637574 0.053652536 0.031415284 -0.042757258 -0.08057869
-0.051411074 -0.092327304 0.018008081 0.12664576 -0.022651812 -0.020647848 -0.03021356 0.0031533956
-0.09388144 -0.07362259 0.03174678 0.10911451 0.10267551 -0.09544599 -0.015919019 0.0414059
-0.006526376 0.10574233 0.030627823 -0.12863952 -0.072252 -0.047084738 -0.046417814 -0.04238661
0.07562386 0.031174932 -0.11679725 0.031808116 -0.011908206 -0.08045052 -0.00180572 -0.03176168
0.06853551 -0.024273457 -0.12678659 -0.11622504 0.011009271 -0.08472437 -0.045221698 -0.06000644
0.06812949 -0.038251452 0.0045383717 -0.034402523 0.1028676 0.019885043 0.10036105 -0.075971745
0.058460586 -0.1339203 -0.14271912 -0.119660854 -0.067856684 0.08619777 -0.11286611 -0.0675034
-0.07908048 0.1040729 -0.04409884 -0.072581954 -0.012854511 0.08250592 -0.037608165 0.11237327
0.06858821 0.110010505 -0.12945972 0.11032024 -0.008870982 -0.123408705 0.04013283 0.12787707
0.12088987 0.028463854 -0.057603378 0.07450642 0.055071115 -0.019494684 0.1277813 0.017991675
-0.03872182 -0.060127694 0.07990905 -0.015742306 -0.11380329 -0.12791686 0.056160387 -0.08793084
0.021979796 -0.0452131 -0.13494334 -0.09076492 -0.046033707 -0.009518046 -0.07398903 0.024794307
-0.09985394 0.11122417 0.023503732 -0.067989804 -0.07111257 -0.119868666 -0.069705136 -0.08444487
00000000: ba24 13bb d228 c13c dfd2 b93d 85a7 cabd
00000010: 4851 a23b d71f 933d b968 a03c 4704 9f3d
00000020: 05ef e63c d6a1 cbbb 0370 7c3d 2981 3ebd
00000030: fdea 1f3e d5e8 3a3e a4ba c4bc 3e6e a63d
00000040: 8756 243e e5fe 853d 6541 d83a f04b c03d
00000050: bd2f 053e a6b5 ae3d 6656 103e b788 6cbd
00000060: 0ffc 4d3d 950f abbb 193c 113c 270d a2ba
00000070: 25ba 6ebd f2a3 dabc 2427 a23d 3e5b 1e3d
00000080: 84f1 153d 4a2c d4bd d8c7 82bc a6cb 03be
00000090: 9271 c7bd d9ae bfbd 762d 223d a7bb f93d
000000a0: 84f6 4bbd b554 243d 6450 88bd 69a2 c83d
000000b0: 6a31 c53d dcdb b7bd 2d63 c73d 847c 6e3d
000000c0: 723b 833b 8ed8 b0bc 9587 0a3e 1bf1 eb3c
000000d0: 4caf 8e3d 6191 adbc d1d3 ecbd 39b6 653d
000000e0: a15a bfbd 05fd 07be 3e5c a1bc 94c0 6c3d
000000f0: 399e 9f3d bfe1 b93c 1a46 07be 2afb 003e
00000100: 772c afbc 9ceb 6bbd 7c1d 84bd 1061 283d
00000110: 1824 a03d 9d25 b2bc ad89 e9bd 5ca5 88bb
00000120: c240 86bb 99d1 013e 38ed 0e3d b720 3abd
00000130: 545a 94bd 7930 6cbc 33a9 563b 6963 c13d
00000140: fd65 dbbd 6082 8d3c c983 3abc 4db4 92bc
00000150: 2a13 ba3d 9ce6 df3d 6be7 8abc 0f14 aabd
00000160: c46a a7bd 8fb1 4dbd cc0f 073e 5c2b aabd
00000170: bb10 78bd 7937 4abd d0bf 1f3e e7e2 96bd
00000180: a68b 9abd c7ca eabd 43b9 183d 6c25 24be
00000190: 126f 23be d321 433d 8427 453d 51f0 d23d
000001a0: baa6 ec3c 8fd1 193e 3026 343e a12b 33bc
000001b0: e62b 42bd 54ff 9a3d 9373 e1bd 5cfb c8bc
000001c0: b4f6 98bd 69b2 6abd 9685 4e3d 0625 41bd
000001d0: c809 0bbd deac d4bd 49d2 0dbe aadf 703d
000001e0: 2274 fdbd 8129 bbbd 1899 dabd 187d fabc
000001f0: 5cc6 02be a5ce ddbd 9281 a5bc 957a cc3d
00000200: 4afa 5b3d 7e3c 533d 4dcf d63d a759 00be
00000210: a310 91bd 9919 e5bd 9580 f33d 2411 d6bc
00000220: 6036 99bd 4967 133e c017 dcbd 6e02 023e
00000230: d743 27bc 337f b03c 074e 14bc 4b00 883d
00000240: 6bfd f43c 4010 7b3d d976 f83d f42d 703d
00000250: c3c2 5b3d 50ad 003d 3c22 2fbd 7106 a5bd
00000260: 6b94 52bd 1916 bdbd af85 933c 6daf 013e
00000270: 4b90 b9bc ad25 a9bc 6e82 f7bc 33a9 4e3b
00000280: ea44 c0bd 71c7 96bd e908 023d 6e77 df3d
00000290: 8a47 d23d 3079 c3bd 9a68 82bc 3c99 293d
000002a0: 36db d5bb 6f8f d83d 33e7 fa3c 14ba 03be
000002b0: dbf8 93bd eddb 40bd 9b20 3ebd 959d 2dbd
000002c0: afe0 9a3d 9262 ff3c 6633 efbd 3a49 023d
000002d0: a31a 43bc 3ec3 a4bd e9ad ecba 8918 02bd
000002e0: 585c 8c3d 21d9 c6bc 58d4 01be 6507 eebd
000002f0: 3b60 343c f883 adbd 633a 39bd 50c9 75bd
00000300: 7987 8b3d 8ead 1cbd 9fb6 943b a9e9 0cbd
00000310: 40ac d23d f5e5 a23c 188a cd3d 1397 9bbd
00000320: 5e74 6f3d 6722 09be f624 12be c010 f5bd
00000330: 72f8 8abd 7588 b03d 5926 e7bd 393f 8abd
00000340: f2f4 a1bd 2c24 d53d fca0 34bd d9a5 94bd
00000350: ba9b 52bc ddf8 a83d 050b 1abd f523 e63d
00000360: fa77 8c3d 304d e13d 1791 04be 94ef e13d
00000370: 9857 11bc b4bd fcbd 5362 243d 35f2 023e
00000380: 1c95 f73d 072d e93c 85f1 6bbd d296 983d
00000390: 4092 613d 51b3 9fbc 1ad9 023e 4763 933c
000003a0: c59a 1ebd 7548 76bd 5ba7 a33d 02f6 80bc
000003b0: b311 e9bd a3fc 02be 6f08 663d 1615 b4bd
000003c0: f90e b43c 5f31 39bd 962e 0abe f5e2 b9bd
000003d0: d78d 3cbd 94f1 1bbc 9087 97bd 6e1d cb3c
000003e0: 3980 ccbd 7fc9 e33d e68a c03c 3d3e 8bbd
000003f0: 78a3 91bd b47d f5bd 91c1 8ebd 6ff1 acbd

LeNet.1.0.bias f4 [16]
0.11305526 0.06619269 -0.04824432 0.0073854383 -0.06698067 -0.060068518 0.012882761 0.08489841
0.015256047 -0.090525046 -0.10560953 -0.0734261 0.1325112 -0.044990942 0.11065623 -0.071557865
00000000: 8489 e73d 0890 873d d69b 45bd 8c01 f23b
00000010: 292d 89bd 680a 76bd 3712 533c 38df ad3d
00000020: 80f4 793c 3265 b9bd cf49 d8bd 6c60 96bd
00000030: 04b1 073e 6c48 38bd bc9f e23d ee8c 92bd

LeNet.1.1.weight f4 [16]
1.1372075 1.1148098 1.0981485 1.0013825 1.0085135 1.071468 1.0560982 1.107146
1.034772 1.0442847 1.0636435 1.0076972 1.0709759 1.0262587 1.2137523 1.0183908
00000000: 0490 913f 16b2 8e3f 2190 8c3f 4d2d 803f
00000010: f816 813f dd25 893f 3a2e 873f f6b6 8d3f
00000020: 6973 843f 1fab 853f 7825 883f 39fc 803f
00000030: bd15 893f 725c 833f 3c5c 9b3f a15a 823f

LeNet.1.1.bias f4 [16]
0.0045396513 0.012989859 0.017662233 -0.008635834 -0.0071880105 0.009897188 0.0017925183 0.015035843
-0.003953462 -0.0014105148 -0.019691467 -0.0099634295 0.010904484 -0.023437027 0.009398634 -0.007940648
00000000: 5bc1 943b 6bd3 543c 63b0 903c 507d 0dbc
00000010: 6789 ebbb d127 223c eff2 ea3a e558 763c
00000020: 0b8c 81bb 06e1 b8ba 0050 a1bc a73d 23bc
00000030: b9a8 323c 02ff bfbc bafc 193c 7e19 02bc

LeNet.1.1.running_mean f4 [16]
0.6116378 0.012867389 -0.33873072 -0.22832006 0.0014107774 -0.42400783 -0.21004608 -0.03450448
-0.09572113 -0.16091971 0.10830224 -0.10880146 0.2757287 0.24520434 0.39432758 -0.34883013
00000000: 4b94 1c3f bed1 523c 1d6e adbe bccc 69be
00000010: d6e9 b83a 8e17 d9be 5216 57be 9254 0dbd
00000020: 7109 c4bd 23c8 24be 91cd dd3d 4dd3 debd
00000030: 502c 8d3e d916 7b3e 4ee5 c93e dd99 b2be

LeNet.1.1.running_var f4 [16]
0.01517376 0.02569194 0.028290538 0.037113838 0.08645108 0.02288132 0.017113738 0.039132107
0.049917582 0.035175376 0.018118305 0.051052164 0.02096188 0.010543754 0.017404139 0.036951084
00000000: 5d9b 783c e777 d23c 8fc1 e73c ae04 183d
00000010: 440d b13d 9b71 bb3c 1c32 8c3c fd48 203d
00000020: 6176 4c3d 0e14 103d d76c 943c 131c 513d
00000030: 40b8 ab3c b6bf 2c3c 2093 8e3c 055a 173d

LeNet.3.weight f4 [2, 46656]
-0.03669748 -0.052315604 -0.086841874 -0.080337845 -0.050991055 -0.009983445 0.0014184291 0.0066917646
-0.00079006195 0.0020185178 0.0023575695 0.0027487066 0.0034278466 0.0019024325 -0.0054441253 -0.0051646363
-0.0023721443 -0.009688106 -0.009590224 -0.005975651 -0.0066926815 -0.011814189 -0.011398212 -0.010486766
-0.008861186 -0.014604447 -0.01332806 -0.011243662 -0.01230271 -0.0068009365 -0.0029060072 -0.013296001
-0.008619686 -0.00012187036 -0.0049717003 -0.0013707735 -0.0053914906 -0.017397823 -0.017986557 -0.013776151
-0.009228582 -0.014654154 -0.0041075484 -0.009118381 -0.0038348678 -0.0073789386 -0.009740973 0.0032756752
-0.0049036 -0.01623593 -0.010730917 -0.014548352 -0.03290309 -0.023087587 -0.025788076 -0.04302344
-0.039959166 -0.057648197 -0.03324186 -0.004498912 0.008983882 0.00891347 -0.0012505513 0.0022958764
0.0028230927 0.012381948 0.0123899365 0.0036525268 -0.0030660296 0.0030859709 0.008313449 -0.015641242
-0.011874865 -0.011961003 -0.011529743 -0.018534083 -0.016068537 -0.016212372 -0.009754374 -0.009569395
-0.016613292 -0.018342579 -0.020698253 -0.013352942 -0.010416374 -0.014612754 -0.012492103 -0.005743202
-0.000978234 -0.0019881309 -0.003329971 -0.015909538 -0.012113453 -0.0077104345 -0.007635648 -0.009170145
-0.0032977068 -0.0009898893 -0.012733592 -0.011290746 -0.0035978495 0.0075200666 0.0012190954 -0.0025027771
-0.0056011016 -0.00081190426 -0.018051874 -0.012029529 -0.020110203 -0.020480743 -0.012084799 -0.01268428
-0.020201745 0.0032304625 0.010745884 0.013846212 0.008121286 0.0060568606 0.010656285 0.013326053
0.008517855 0.0011168144 -0.006740497 -0.003384072 0.0054960116 -0.008581848 -0.018984968 -0.006966149
-0.009926952 -0.010712642 -0.011761467 -0.0046650455 -0.004511096 -0.006183353 -0.011971909 -0.01669433
-0.016492045 -0.012307497 -0.012632535 -0.008702184 -0.0054671066 0.0017942172 -0.0012121623 -0.0049237274
-0.013084218 -0.005881209 -0.008960922 -0.014071602 -0.010638137 -0.014219829 -0.0108463075 -0.012282046
-0.014591483 -0.012138778 -0.004608256 -0.00042699583 0.0062997104 -0.0066172355 0.0018435946 -0.0013289143
0.0012348532 -0.002440779 -0.03708393 -0.0267155 -0.021296762 -0.026539432 -0.024410727 0.0027172253
0.009057031 0.008890677 0.004027804 0.011985734 -0.0019986327 -0.0005941007 0.002006645 0.0010035993
-0.008640085 -0.0019041734 -0.00553606 -0.005872538 -0.012153468 -0.0078120045 -0.0044589937 -0.008051432
-0.010816162 -0.008671327 0.0023434728 0.0012154956 -0.014550315 -0.013896687 -0.013661534 -0.0030269236
-0.0052123233 -0.008794199 -0.004988052 -0.006116754 -0.00062894047 -0.011386271 -0.0083821695 0.003171484
-0.0046960767 -0.010716999 -0.009652929 -0.004200056 -0.005545531 -0.008599817 -0.011276395 -0.009070847
-0.012611034 -0.0085790455 -0.002700918 0.0007387411 0.002788259 -0.0059997365 -0.008540525 -0.003461129
-0.04722212 -0.05829925 -0.030496772 -0.049449395 -0.029325543 -0.012366225 0.006449104 0.01023603
-0.0011324893 0.0009995317 0.0033236947 -0.0024336625 -0.010313122 -0.005966717 -0.0091752 -0.006815323
-0.015580214 -0.005640435 -0.010343188 -0.012825253 -0.0037073393 -0.0047700317 -0.012158839 -0.0027989391
-0.0045298887 -0.00083105237 -0.0011127469 -0.012307249 -0.015796077 -0.007312337 -0.008925659 -0.0133022545
-0.010386589 -0.008031652 -0.0018512974 -0.0012889077 -0.012069336 -0.0074674464 -0.01050447 -0.00798977
00000000: 1950 16bd e348 56bd 27da b1bd 2b88 a4bd
00000010: ffdb 50bd 9a91 23bc 95ea b93a 9746 db3b
00000020: 291c 4fba 1c49 043b 7481 1a3b a523 343b
00000030: b9a5 603b 0b5b f93a a264 b2bb 1c3c a9bb
00000040: fa75 1bbb ddba 1ebc 5120 1dbc 65cf c3bb
00000050: 484e dbbb 4d90 41bc 91bf 3abc afd0 2bbc
00000060: 822e 11bc 7e47 6fbc ef5d 5abc 5637 38bc
00000070: 4e91 49bc 64da debb b672 3ebb 78d7 59bc
00000080: 9539 0dbc a794 ffb8 a5e9 a2bb 87ab b3ba
00000090: 1aab b0bb e185 8ebc 8b58 93bc 5eb5 61bc
000000a0: 7a33 17bc fa17 70bc 9d98 86bb 4365 15bc
000000b0: 6852 7bbb 06cb f1bb 9a98 1fbc b6ac 563b
000000c0: 61ae a0bb 3701 85bc bad0 2fbc 365c 6ebc
000000d0: 64c5 06bd 2e22 bdbc 8441 d3bc 5939 30bd
000000e0: 39ac 23bd 8420 6cbd 9e28 08bd 9c6b 93bb
000000f0: 2231 133c ce09 123c 8ae9 a3ba 6a76 163b
00000100: a303 393b a7dd 4a3c 29ff 4a3c 3b5f 6f3b
00000110: 71ef 48bb 003e 4a3b 2235 083c 1022 80bc
00000120: cb8e 42bc 15f8 43bc 3fe7 3cbc cad4 97bc
00000130: 2aa2 83bc cfcf 84bc cfd0 1fbc f4c8 1cbc
00000140: 9918 88bc 2d43 96bc 628f a9bc 4cc6 5abc
00000150: 70a9 2abc 556a 6fbc adab 4cbc 7831 bcbb
00000160: 1638 80ba 4d4b 02bb a53b 5abb b854 82bc
00000170: 8177 46bc d0a7 fcbb 7534 fabb 603e 16bc
00000180: 571e 58bb 2cbf 81ba 8ea0 50bc d2fc 38bc
00000190: e6c9 6bbb e46a f63b 0eca 9f3a a205 24bb
000001a0: 7289 b7bb f9d5 54ba 86e1 93bc 8017 45bc
000001b0: 27be a4bc 3bc7 a7bc 52ff 45bc bad1 4fbc
000001c0: 217e a5bc 2bb6 533b 810f 303c 39db 623c
000001d0: 240f 053c a178 c63b b397 2e3c 8455 5a3c
000001e0: 798e 0b3c 1362 923a 63df dcbb 4fc7 5dbb
000001f0: e317 b43b e19a 0cbc 5d86 9bbc 4b44 e4bb
00000200: a8a4 22bc 1484 2fbc 2bb3 40bc 3ddd 98bb
00000210: d1d1 93bb b99d cabb d325 44bc 8cc2 88bc
00000220: 531a 87bc 62a5 49bc b1f8 4ebc 9b93 0ebc
00000230: 6a25 b3bb f02b eb3a 6be1 9eba 3857 a1bb
00000240: 305f 56bc 28b7 c0bb d5d0 12bc 948c 66bc
00000250: 954b 2ebc 49fa 68bc b6b4 31bc a23a 49bc
00000260: 1e11 6fbc bae1 46bc da00 97bb 69de dfb9
00000270: cd6d ce3b 65d5 d8bb c5a4 f13a f72e aeba
00000280: ccda a13a 7af5 1fbb 52e5 17bd 77da dabc
00000290: 8c76 aebc 3969 d9bc 01f9 c7bc 7a13 323b
000002a0: f163 143c 34aa 113c abfb 833b d05f 443c
000002b0: 7efb 02bb 6cbd 1bba eb81 033b 348b 833a
000002c0: 258f 0dbc 7595 f9ba d667 b5bb 6b6e c0bb
000002d0: 571f 47bc d8fb ffbb c01c 92bb 27ea 03bc
000002e0: 4636 31bc 2e12 0ebc f394 193b 4451 9f3a
000002f0: 7264 6ebc eeae 63bc a0d4 5fbc 5a5f 46bb
00000300: 23cc aabb 8b15 10bc d072 a3bb 0d6f c8bb
00000310: 7bdf 24ba 7b8d 3abc 5e55 09bc acd8 4f3b
00000320: 8ce1 99bb 5a96 2fbc 5227 1ebc a0a0 89bb
00000330: 49b7 b5bb 3fe6 0cbc a1c0 38bc e49d 14bc
00000340: 839e 4ebc 208f 0cbc e201 31bb 13a8 413a
00000350: 39bb 363b 7099 c4bb 8fed 0bbc 1cd4 62bb
00000360: fb6b 41bd 32cb 6ebd 5ed4 f9bc 738b 4abd
00000370: 1f3c f0bc b59b 4abc 0153 d33b 06b5 273c
00000380: 0970 94ba b802 833a 58d2 593b 157e 1fbb
00000390: 5ef8 28bc 7384 c3bb 9453 16bc 1353 dfbb
000003a0: 2744 7fbc 66d3 b8bb 7a76 29bc 0321 52bc
000003b0: d5f6 72bb ed4d 9cbb de35 47bc 686e 37bb
000003c0: 766f 94bb fbda 59ba 97d9 91ba 58a4 49bc
000003d0: c666 81bc 549c efbb ed3c 12bc b3f1 59bc
000003e0: 832c 2abc 3197 03bc 3ca7 f2ba 91f0 a8ba
000003f0: 77be 45bc 7bb1 f4bb f11a 2cbc 86e7 02bc

LeNet.3.bias f4 [2]
0.00036393455 0.004074776
00000000: 78ce be39 b385 853b
