models/softmaxmodel_ce.PT (torch, 382927 bytes, 14 tensors)

LeNet.0.0.weight f4 [6, 3, 3, 3]
000000 af 82 09 be 86 d2 de bb 54 01 a2 3c 0e 63 0b be
       -0.13428758 -0.0067999987 0.019776024 -0.13612005
000010 a1 81 3f 3c aa f0 00 3e 72 67 ab 3d 96 f5 ef bd
       0.011688621 0.12591806 0.0836934 -0.11716764
000020 3a 06 1b be 82 56 26 be d6 b1 29 3e 6a f4 ac bd
       -0.15139094 -0.16243938 0.16571745 -0.08445056
000030 21 9c 3f be 92 1b ff bd 81 7f 80 bd 75 28 b8 bd
       -0.18711902 -0.124564305 -0.062743194 -0.089920916
000040 0f 2f ed bd 72 d6 1c be 4f 1e 17 be 54 5d 0f be
       -0.11581241 -0.1531618 -0.14757656 -0.14000446
000050 3e 5b ea 3d 93 e3 66 3d 60 84 b8 bd 4f 21 5b bd
       0.11443184 0.056369375 -0.090096235 -0.053498562
000060 8a 74 eb bd fb 39 1e 3e bd 35 93 bd d2 83 18 bd
       -0.114968374 0.15451805 -0.07187984 -0.03723509
000070 63 34 92 3d 77 cc 0f be e8 ea 26 3c 96 14 82 3d
       0.07138898 -0.14042841 0.010187842 0.06351583
000080 c1 44 1f 3e 87 16 c2 3d a6 9a 03 be 25 95 28 bc
       0.15553571 0.09476953 -0.12851962 -0.010289465
000090 0e a9 df bc 16 e1 ad 3d b9 4a 0f 3c b4 1a 13 3e
       -0.027302291 0.08490197 0.008745843 0.14365655
0000a0 06 8e 37 3d c8 9c c8 3d f1 76 e4 bd 73 70 05 bd
       0.04481318 0.09795529 -0.11155499 -0.032577943
0000b0 7a c5 12 bd 97 4d fd 3d c3 74 91 bd d7 7d bb 3d
       -0.03583286 0.12368315 -0.07102349 0.091548614
0000c0 c8 ad af 3c e9 c8 01 3e 35 54 28 3e 0d 29 5f 3d
       0.02144517 0.12674297 0.16438372 0.05448251
0000d0 79 5f 45 be 5c a6 44 be 3f e1 a9 3d 99 c6 db 3d
       -0.19274701 -0.19204086 0.082949154 0.10731239
0000e0 72 be db 3d 01 35 af bd ba cd b7 3d d5 ec ad 3d
       0.10729684 -0.085550316 0.08974786 0.08492438
0000f0 a4 06 39 bd 03 e0 3a 3c 2d 5d 47 bb aa 2e 3e be
       -0.04517235 0.011405948 -0.0030420527 -0.18572488
000100 7e e2 d4 3c 8f 9e 1d be 96 6d c2 3c ee de 31 3e
       0.025986906 -0.15392517 0.023733895 0.17370197
000110 af 93 3b 3e 98 bc 2f 3d d3 c0 4c 3c 78 43 fd bd
       0.18318056 0.042904466 0.012497145 -0.12366384
000120 e8 10 96 3c cf da 3a be 4a b4 af 3d b8 29 86 3b
       0.018318608 -0.18247531 0.08579309 0.0040943287
000130 50 3e 01 3e 79 bc 27 bd 28 6c 0d 3e 4d 60 29 3e
       0.12621427 -0.040951226 0.1381079 0.16540642
000140 5d 94 99 3d 4d 1d 0f 3d 48 1c f9 bd 2f 9f 26 be
       0.07499001 0.034940053 -0.12163597 -0.16271661
000150 37 d7 9b 3d 89 5d 32 bc 9d 64 18 3e 1f d2 ad 3d
       0.07609408 -0.010886558 0.14882131 0.08487343
000160 cd 03 28 be 3f 67 dc bd e9 12 0b 3c ae 2b 00 3e
       -0.164077 -0.1076188 0.008488395 0.12516662
000170 75 64 3d be bf b0 a2 bd dd e3 2e 3d 59 af 1b 3d
       -0.18495353 -0.07943868 0.042697776 0.03800902
000180 0e e0 2f be 17 d8 2c 3e b9 88 8b bd e7 6a 68 3e
       -0.17175314 0.16879307 -0.06813187 0.2269703
000190 c8 40 d0 bd 16 40 3b 3a 6e 84 14 3e 62 77 ad bd
       -0.10168606 0.00071430334 0.14503643 -0.08470036
0001a0 0f 04 54 be 0a 36 21 3e ec 71 d6 3d b1 0b c4 bd
       -0.20704673 0.1574327 0.104709476 -0.095725425
0001b0 33 5b b8 bc 30 78 7a 3c c8 f3 6c bd fa ce 8d 3c
       -0.022504425 0.015287444 -0.057849675 0.017310608
0001c0 87 87 09 be 9a 21 de bc 32 10 3d 3e 2a 23 39 3e
       -0.13430606 -0.027115632 0.1846321 0.1807982
0001d0 c3 bd 1f bd 1d dc 07 be 0c a6 42 be 4c 10 0b bd
       -0.03899933 -0.1326756 -0.19008654 -0.03395109
0001e0 ad 84 99 bd 6d 40 0a 3e 2b 5b 13 3d 0b 7f 8b bd
       -0.07496009 0.13501139 0.035975616 -0.06811341
0001f0 74 e4 aa 3d 0c 6b 6f 3e 97 98 61 be 6c a2 50 be
       0.08344355 0.23380679 -0.22030865 -0.20374459
000200 bb ef 1f bc 1a 3e 4e bc 73 13 08 3e 8e 73 a5 3d
       -0.009761746 -0.012588048 0.1328867 0.08078681
000210 15 f4 f9 bc 29 f9 04 3c 08 ce 04 3e 87 fb 10 3e
       -0.030511895 0.008116045 0.1296922 0.1415845
000220 82 41 18 3e 7e bf 22 be 11 c8 46 3e f7 60 42 3e
       0.14868739 -0.15893361 0.19412257 0.18982302
000230 9d db 28 3e 98 9c b4 bd b6 6e 17 be 5d 19 98 3d
       0.16490026 -0.088189304 -0.14788327 0.07426713
000240 72 62 fd bd 2e 86 13 3e b0 d4 17 3e e2 70 fe bd
       -0.123722926 0.14406654 0.14827228 -0.124238744
000250 68 15 e4 bd 2b db 41 be c7 81 3e 3d 40 33 fa 3d
       -0.111368954 -0.18931262 0.046510484 0.122168064
000260 42 76 45 3b 8b dd 04 be df 8c 6a bd ce 28 49 3e
       0.0030130302 -0.12975137 -0.05726325 0.19644472
000270 72 0e f6 bd 67 d5 01 be 6d 05 d2 3d b8 d2 0d be
       -0.12014474 -0.12679063 0.10254941 -0.13849914
000280 f0 c6 b4 bd 8c b4 23 be
       -0.08827007 -0.15986842

LeNet.0.0.bias f4 [6]
000000 1a f9 cf bb f4 92 20 be 02 1a f4 3d b0 7f 1b be
       -0.006346834 -0.15681058 0.11919023 -0.15185428
000010 c4 9a 34 be 93 a3 e2 3d
       -0.17637163 0.110663556

LeNet.0.1.weight f4 [6]
000000 8d f5 83 3f 83 77 83 3f c6 96 80 3f aa 43 7d 3f
       1.0309311 1.0270847 1.0046012 0.9893137
000010 c2 58 87 3f 2e 30 83 3f
       1.0573962 1.0249078

LeNet.0.1.bias f4 [6]
000000 93 b1 a8 3c b7 b1 fb bc e0 d2 b4 bc d1 f6 63 3c
       0.020592486 -0.03072439 -0.02207321 0.013913826
000010 aa 41 33 3b ca de 7e 3c
       0.0027352371 0.015556047

LeNet.0.1.running_mean f4 [6]
000000 e7 9a 2e bf 56 9e d8 3c 7f d9 f1 3e ca d2 71 be
       -0.6820511 0.026442688 0.4723625 -0.23615566
000010 fc 06 41 be 23 dd 6c 3d
       -0.1885032 0.05782808

LeNet.0.1.running_var f4 [6]
000000 c9 32 14 3e 39 4e 3c 3c c8 65 24 3d 5d 63 74 3b
       0.14472498 0.011493259 0.04013613 0.003729067
000010 f3 49 31 3b 6b db d6 3a
       0.0027052134 0.0016392296

LeNet.1.0.weight f4 [16, 6, 3, 3]
000000 b5 4d 4a 3d 23 8a 02 3e 4c f1 d8 3d d4 de 76 3d
       0.049390513 0.12748007 0.10592899 0.0602711
000010 71 7e d2 bd 95 e8 05 3d 77 33 01 3e 57 51 2a 3d
       -0.10278023 0.03269251 0.12617289 0.041581478
000020 02 60 2c 3d 6b 90 3e bd 05 a5 19 3d ee ec 0a bd
       0.042083748 -0.046524446 0.03751089 -0.03391736
000030 1d 6d d0 bd 57 f0 06 3e fe b2 05 be 2c 70 dd 3b
       -0.10177062 0.1317762 -0.13056561 0.0067577567
000040 65 dd 8b 3b 07 2d bd 3c 45 0d f8 bd 00 07 40 bd
       0.0042683356 0.02309276 -0.12111906 -0.046881676
000050 55 84 1f bd 63 2e 08 be c8 61 5f bb 42 c5 31 bd
       -0.03894456 -0.13298945 -0.0034085382 -0.04340101
000060 fc 1a c1 3d 09 60 84 bd 3d 70 f8 3d 14 b2 a2 3d
       0.09428975 -0.0646363 0.12130783 0.07944122
000070 5c df 48 bc 0b 2c c2 bc e8 3f f0 3d b7 ab 05 be
       -0.012260284 -0.023702642 0.11730939 -0.13053785
000080 8f 9a 62 bd 19 81 e2 bd 71 a3 98 3d a1 46 a8 bb
       -0.05532318 -0.1105978 0.07453049 -0.0051353727
000090 ad bf c0 bd bc 97 80 bd e5 33 f4 bc 1c 99 e5 bd
       -0.09411559 -0.06278941 -0.029809901 -0.11210844
0000a0 73 36 a6 3d 21 ab 86 3d b7 2b 35 bd ae 13 a1 3c
       0.08115854 0.06575609 -0.044231143 0.019662704
0000b0 8a 1c 06 be b7 1e df 3c 22 15 81 3d 58 75 05 3e
       -0.13096824 0.027236326 0.06302859 0.13033044
0000c0 ef 3b 54 3b dc 31 b6 bd 8c 28 06 bd 05 56 33 3d
       0.0032384356 -0.08896229 -0.032753512 0.043783206
0000d0 de 8e dd 3d 6a a5 cb 3d b5 d3 84 bd ce 5e eb bc
       0.108182654 0.099436596 -0.064856924 -0.02873173
0000e0 35 51 8a bd 67 6c d5 bd 17 9c 39 bd ba 25 36 bd
       -0.0675377 -0.10421067 -0.045314875 -0.044469573
0000f0 4c 40 d9 bd 41 d8 b2 bd 78 a7 70 bd f3 41 dd 3c
       -0.10607967 -0.087326534 -0.05875346 0.027008986
000100 80 bb 84 bb 92 d4 c4 bd 3b f5 a8 bb 5e d3 f2 bd
       -0.004050672 -0.09610857 -0.005156187 -0.11856721
000110 02 9d d5 bc 07 b4 e0 bd 1b de 00 be 7a b4 fd bd
       -0.026075844 -0.109718375 -0.12584727 -0.12387939
000120 f6 52 d9 bd 7d 98 3c bd ed ed b1 3b 34 23 27 3d
       -0.10611527 -0.04604386 0.0054299743 0.040805057
000130 32 ad a7 bd 74 0f 8f 3d 61 7b 79 bd 4c 7b 83 bd
       -0.08187331 0.06985369 -0.06090868 -0.064200014
000140 38 66 cc 3a bd dd 4a 3c 31 47 81 3c 99 e4 99 bd
       0.0015594428 0.012381968 0.015781017 -0.07514305
000150 fc 7b ae bd 6e 41 98 bd 56 25 bc bd 79 f1 6a 3d
       -0.08519742 -0.07434355 -0.09186809 0.057359193
000160 3d 97 b6 bc 3c ce e6 bd 5d 05 a1 3d b0 46 c4 bd
       -0.022288913 -0.11269805 0.07862351 -0.09583795
000170 cd 3a 78 bd fc 5c c4 bc f9 60 aa 3d 0a 9e c9 bd
       -0.06060295 -0.02397012 0.08319277 -0.09844597
000180 27 56 e2 3d 21 d2 19 3e b3 31 45 3e 3d 59 e3 bd
       0.110515885 0.15021564 0.1925724 -0.11101005
000190 6b e2 04 3d 58 24 c5 bd b8 ce 53 3d b4 eb e1 bd
       0.03244249 -0.09626073 0.051710814 -0.11031285
0001a0 f5 17 96 bc 00 0b c9 3d 93 6e 08 be e3 26 30 bb
       -0.01832197 0.09816551 -0.1332343 -0.0026878647
0001b0 be f8 b4 3c 8a 95 ce bb f3 51 e6 bc fe 8c 10 be
       0.022091266 -0.0063044475 -0.028115248 -0.14116284
0001c0 30 f5 b7 3c 3e 66 c0 bd 60 98 85 3d ae 4e 6e bd
       0.022455782 -0.09394501 0.06523204 -0.058180504
0001d0 72 53 e1 bb a2 30 6a 3d d4 3e a0 bc 93 5f 9a 3c
       -0.0068764025 0.057175286 -0.019561209 0.018844401
0001e0 56 4a 82 bd ac 21 8f bd 8b 16 b8 bd 23 e3 33 3d
       -0.06361835 -0.06988844 -0.08988675 0.043917786
0001f0 02 08 1e 3c b7 7b c8 3d 96 3a c9 bc 98 11 e2 3d
       0.009645464 0.09789222 -0.024564069 0.11038512
000200 20 4f 32 bd e9 f7 cb bc 23 d3 af bd 1a 02 03 3e
       -0.04353249 -0.024898486 -0.08585193 0.1279377
000210 44 55 bb bd e0 73 9f bd 58 16 81 bd c0 d3 3c 3e
       -0.091471225 -0.07785773 -0.0630309 0.18440151
000220 9b cf a1 bd 64 52 1d bd 3c 69 59 3e 73 27 18 3d
       -0.07900926 -0.038408652 0.2123155 0.037146997
000230 d2 de 2f bc f1 48 33 3e ce 37 58 3d d9 9e d9 bd
       -0.010734277 0.17508294 0.052787594 -0.10626001
000240 c9 d6 4a bc 49 2a 99 bc 89 66 c4 3c 49 b9 16 3d
       -0.01238031 -0.018696921 0.023974674 0.036797795
000250 e6 95 56 bd d6 fd 6c bd 33 3e 85 3d 34 b4 28 bd
       -0.052389048 -0.057859264 0.06506004 -0.04118748
000260 34 de 81 bd e8 30 af 3d f2 ce 23 bb a7 87 10 bd
       -0.0634121 0.0855425 -0.0024995175 -0.03528562
000270 84 83 d9 bd eb ad dc bd 95 8a fc 3d 32 eb 34 3c
       -0.10620788 -0.1077536 0.1233112 0.011042403
000280 ca 0d a4 bd 9a e1 5f bd cf 42 80 bc a5 4e ad 3b
       -0.080104426 -0.05465851 -0.015656857 0.005288916
000290 9d 2c 32 3d f8 94 f9 bd df 57 53 3d 2f 30 16 3d
       0.043499578 -0.12186617 0.051597472 0.036667045
0002a0 a8 1f 32 3d 9d eb b2 bd e1 05 6f bd 0d 93 98 bd
       0.04348722 -0.08736346 -0.058355216 -0.07449923
0002b0 2c 28 85 3c e0 b2 d5 3d d9 cb e5 3d 05 46 d7 3d
       0.016254507 0.10434508 0.112205215 0.10511402
0002c0 b3 af b8 bd 1a 59 97 3c fa 81 ff 3d af 15 65 3d
       -0.09017887 0.018475104 0.12475963 0.055928882
0002d0 1a 10 f1 3d 44 e3 7b 3d 00 6c ee 3b 16 89 ea bd
       0.11770649 0.061496034 0.007276058 -0.11451928
0002e0 66 1d fa 3c d5 3b d6 bd 7c da 32 3c 86 31 f6 bd
       0.030531596 -0.10460631 0.010916349 -0.120211646
0002f0 cb b1 1c bc 09 88 77 bd 87 44 04 ba cb 27 bf 3d
       -0.0095638735 -0.060432468 -0.0005045612 0.09333762
000300 e2 36 83 3d 38 1f ef 3d b6 0d b6 bd 96 ed 94 bd
       0.064069524 0.116758764 -0.08889334 -0.072718784
000310 4b 2a d6 bd 35 7f 1d 3d ba 39 02 be d4 fb be bd
       -0.104572855 0.038451392 -0.12717333 -0.09325376
000320 85 48 77 3d ec bd 2f 3d 6d 40 07 bc 92 7c ca bd
       0.060371894 0.042905733 -0.008255106 -0.09887041
000330 4b 1c 33 bd 02 50 97 bd 85 b4 1b 3d a9 2f 03 be
       -0.043728154 -0.07388307 0.038013954 -0.1281115
000340 73 1f c6 bc 94 cf 33 bc e8 1e d6 3c 71 36 53 bc
       -0.024184918 -0.010974783 0.026137784 -0.012891398
000350 c7 4b bd 3d 02 5a f5 bc 20 7f b4 3d e1 3b 44 bc
       0.09242969 -0.029950146 0.0881331 -0.011977167
000360 96 af 49 bb a8 b3 a9 bc 0f 8a ab 3d 76 6f c7 3d
       -0.0030774823 -0.02071555 0.08375942 0.09738056
000370 04 7a dc 3d f7 04 eb 3d 05 15 0a 3d 6c 6a 9b bd
       0.1076546 0.11475556 0.033711452 -0.07588658
000380 57 f8 e5 bd 6e 4e a5 3c ec b5 de bd a0 e4 c7 3d
       -0.11229008 0.020179 -0.108745426 0.09760404
000390 54 cb 05 be 56 ed 0b be a6 e7 81 3d da 3c 36 3d
       -0.13065845 -0.13664755 0.063430116 0.044491626
0003a0 1c dc f5 3c eb 50 92 3d e5 6f a5 3d 44 5f 72 3d
       0.030012183 0.0714434 0.08077983 0.059172884
0003b0 88 48 cf 3c 88 30 4d bd 10 6b 00 be eb c5 a7 bd
       0.02530314 -0.05009511 -0.12540841 -0.08192047
0003c0 48 c3 bb bd ba 56 8e 3d 9c 50 43 3d fb 76 f9 3d
       -0.09168106 0.069501355 0.047684297 0.12180897
0003d0 dd 58 07 bd 5d fa 10 3e 8e ab 04 bd 7b 1f 47 bd
       -0.03304373 0.14158006 -0.03239017 -0.048614006
0003e0 66 f0 ef 3d c7 cd 7f 3d b2 80 0c 3e 88 ea b0 3d
       0.11715774 0.062452104 0.13720968 0.08638483
0003f0 4f 21 9d bd b2 64 f2 bd d4 1f c0 3d c3 8a b4 bd
       -0.07672369 -0.11835612 0.09381071 -0.08815529

LeNet.1.0.bias f4 [16]
000000 30 9e 61 bd 03 56 92 bd 41 6b fb bd 83 ea 00 be
       -0.0550825 -0.07145312 -0.122763164 -0.12589459
000010 02 e2 0a be 50 20 ed bb 18 7c ea 3d 70 bc f5 bd
       -0.13562778 -0.007236518 0.1144945 -0.11998832
000020 8e 93 bc 3d ee cc a7 3d 98 63 61 3d 68 bb 8b 3d
       0.09207831 0.08193384 0.05502662 0.06822854
000030 0a 36 9c 3d 76 66 8c bd 9c cd fe 3d 76 0c ce 3d
       0.07627495 -0.068554804 0.124415606 0.100609705

LeNet.1.1.weight f4 [16]
000000 73 d4 80 3f e4 96 8a 3f 64 5f 8b 3f 32 23 89 3f
       1.0064834 1.0827298 1.0888486 1.0713866
000010 ed 31 83 3f df 14 93 3f 83 2f 8e 3f 39 cc 80 3f
       1.0249611 1.1490744 1.110825 1.0062324
000020 c0 29 8b 3f 30 ca 83 3f 0c c5 98 3f d2 df 8b 3f
       1.0872116 1.0296078 1.1935134 1.092768
000030 4c 94 82 3f 19 e5 8b 3f dd 63 80 3f 4e b2 8b 3f
       1.0201507 1.092929 1.0030476 1.0913789

LeNet.1.1.bias f4 [16]
000000 bf 15 65 bc 1d 86 b7 3b b1 ea 1b 3b cd 99 d1 ba
       -0.013982235 0.0056007043 0.002379101 -0.0015991271
000010 84 9c 09 bc 47 09 d5 ba be 58 dd 3c bc bc b7 bc
       -0.008399133 -0.0016253375 0.027019855 -0.022428863
000020 09 8e c7 bb 56 8d f8 bb aa 5e 15 3d 20 6e 49 3c
       -0.00608993 -0.007585208 0.03646723 0.012294322
000030 bd f4 11 bc 13 0c a4 ba 60 ee 89 bc ee 11 a2 3b
       -0.008908448 -0.0012515805 -0.016837299 0.004945985

LeNet.1.1.running_mean f4 [16]
000000 98 d6 05 bd 0b 89 2b bf be cf 5a be 58 a4 32 be
       -0.032675356 -0.67005986 -0.2136831 -0.17445505
000010 b9 54 1a be 01 1f e0 bd 64 7a 97 be 21 b6 96 be
       -0.15071382 -0.109434135 -0.29585564 -0.29435828
000020 90 55 83 3e ec dd 52 3d f0 74 43 3e 7e a6 26 be
       0.25651217 0.051481172 0.19087577 -0.16274449
000030 c4 d1 56 bc bc 22 07 3e 6f 90 cd be e8 64 e5 3c
       -0.013111535 0.13196844 -0.40149257 0.028002217

LeNet.1.1.running_var f4 [16]
000000 e8 db 8c 3d 98 fb d8 3c 9d 62 a1 3c dc ae a3 3c
       0.06877881 0.026487157 0.019700343 0.01998084
000010 d2 d1 42 3d 76 19 e7 3c 00 1c 1c 3d 77 35 7f 3c
       0.04756338 0.028210383 0.03811264 0.015576712
000020 a0 56 6c 3c 5a 90 a8 3c d1 a1 05 3d 03 6a 8a 3c
       0.01442495 0.020576645 0.032625023 0.016896253
000030 e6 ad ae 3d 78 bd 89 3c ca 55 a5 3c 84 b5 a0 3c
       0.08529262 0.016813979 0.020182509 0.019617803

LeNet.3.weight f4 [2, 46656]
000000 8e b9 e5 ba df eb f4 3b 1f a8 3d 3c d1 07 03 3c
       -0.0017526613 0.007474407 0.011575728 0.007997469
000010 f2 99 5d 39 76 8e 57 bb b4 9a 36 bb b8 bb 93 ba
       0.00021133551 -0.003289131 -0.0027863206 -0.0011271155
000020 e1 ee 20 bc b5 eb ac bb d2 bd 46 bc ac d0 57 bb
       -0.009822578 -0.005277122 -0.012130218 -0.0032930775
000030 d3 10 fa ba 16 18 74 ba 23 eb 9b 3b c5 d5 8c 3b
       -0.00190785 -0.00093114504 0.004758255 0.0042979443
000040 cc 8d e9 3b 14 5c 16 3a 70 fd 4f bb 5f d7 eb bb
       0.007127499 0.00057357666 -0.0031736754 -0.007197305
000050 fe 7a 7c b9 64 4f 00 bc ac fd 0b bc 0f c1 33 bc
       -0.00024078411 -0.007831428 -0.008544367 -0.010971322
000060 12 59 f4 bb 87 a5 eb bb 3c ed 20 bc d2 6e c2 bb
       -0.007456907 -0.0071913633 -0.009822186 -0.005933621
000070 09 c6 72 bb 62 b8 a2 bb 38 70 9b bb 6a 8c 0b bb
       -0.0037044308 -0.004965828 -0.004743602 -0.002129341
000080 4f 41 7c bb e6 a3 52 bb 4b 3e c0 bb ec cf 5b bb
       -0.0038491075 -0.0032141148 -0.005866801 -0.003354068
000090 8c b5 88 3b 8b 73 67 ba 3f 4f 3e 3c 8b cf 96 b9
       0.0041720327 -0.0008829168 0.011615573 -0.0002876486
0000a0 d5 2e 97 3b 0f fb 6e 3b 9a 3c 35 3b 91 3a 8e 3b
       0.004613737 0.003646556 0.002765453 0.0043404778
0000b0 60 02 99 39 5c 10 97 3a f2 21 39 bb f5 d4 11 bb
       0.00029184204 0.0011525261 -0.0028248993 -0.0022252176
0000c0 a3 3f fc bb 72 90 fb 3a 05 b3 7f 3b 66 fe 8e 3b
       -0.007698016 0.0019192828 0.0039016616 0.0043638228
0000d0 89 83 0f 3c ca 3e 6c 3a 86 97 6f 3b 73 f0 c8 3b
       0.008759388 0.0009012042 0.003655882 0.0061321794
0000e0 f0 82 2b 3c 6a c2 20 3b 08 90 52 3b fb ab ac bb
       0.01046823 0.0024529942 0.0032129306 -0.005269525
0000f0 7a 21 f5 bb 69 3d 0c bc 1b 89 f2 bb 00 ec 1f bb
       -0.0074807974 -0.008559563 -0.007401598 -0.0024402142
000100 ac 90 7f bb a1 4f 05 bc f2 2f 4d bb 6f 27 3e bb
       -0.0038996143 -0.008136661 -0.0031309095 -0.0029015203
000110 6b e4 16 b8 ac 21 f9 ba ef a9 94 3b 35 96 c8 3a
       -3.5975518e-05 -0.0019007227 0.004536859 0.0015303554
000120 fc c8 46 bb 93 61 b3 3a d6 35 29 ba a9 9c b1 3a
       -0.0030332198 0.0013685696 -0.00064548606 0.0013550717
000130 aa 0a 02 bc b2 5f 7d bb 89 3e c2 bb 76 70 9a bb
       -0.007937113 -0.0038661775 -0.005927865 -0.0047131134
000140 3c 98 dd bb 20 11 7f bb d4 32 15 bc 31 8b e9 bb
       -0.0067625325 -0.003892012 -0.009106357 -0.0071271886
000150 7f c4 b0 bb aa 0b fa bb f8 3d a5 bb 99 8e a3 bb
       -0.005394518 -0.007630785 -0.0050427876 -0.004991364
000160 66 91 bd b9 dc 12 13 3a 99 da 5b 3b 1c c0 e5 b9
       -0.0003615722 0.0005610415 0.0033547042 -0.00043821416
000170 72 de 74 3b 2d 6e 4d 3b 57 c4 98 3b 2b a6 5d 3a
       0.0037364033 0.0031346187 0.0046620774 0.0008455242
000180 23 64 cb 3b e3 46 e8 3b dd ee 30 ba 68 9a 1d bb
       0.0062070056 0.0070885285 -0.00067494606 -0.0024048332
000190 06 60 af 39 9f e8 a0 ba fc 39 01 bc 0e 83 5f ba
       0.00033450144 -0.0012276358 -0.00788736 -0.00085263036
0001a0 b3 c5 2d ba 3e 24 ae 39 61 b6 ab 3a 11 c6 c7 3b
       -0.0006628886 0.0003321487 0.0013100618 0.0060966094
0001b0 78 b5 08 3c f3 6d 4f 3b 91 21 b7 39 ef 93 b6 3a
       0.008344047 0.0031651228 0.0003492949 0.0013929586
0001c0 30 f2 95 bb 4a 21 12 bc 10 7c e5 bb 46 22 3c bc
       -0.00457599 -0.00891907 -0.007003315 -0.011482781
0001d0 02 c1 a0 bb 41 05 18 bc 66 32 17 bc 2c 95 17 ba
       -0.004905821 -0.009278596 -0.0092283245 -0.0005782421
0001e0 4e 5a 3f bb 47 6a de 39 b7 1a e5 3a d9 cf bc ba
       -0.0029198113 0.00042422322 0.0017479275 -0.0014405205
0001f0 4d 20 2f 37 10 4f a5 3b 38 84 3b ba 7a 70 b1 bb
       1.0438333e-05 0.0050448254 -0.0007153186 -0.0054150196
000200 f6 d2 52 3a 73 46 26 bb 68 74 c9 bb 03 64 f3 bb
       0.00080423 -0.002537158 -0.00614791 -0.007427694
000210 12 e8 7f bb 99 62 7b bb d6 de 2e 3b 6d df 1e bb
       -0.0039048237 -0.003835833 0.0026683114 -0.002424206
000220 71 58 1c bc 34 4f d8 b9 7a c2 f6 bb ad 9b 90 bb
       -0.00954257 -0.0004125774 -0.0075305076 -0.0044130892
000230 c8 3c c0 ba ef 61 f0 bb 00 8b de b9 a2 a3 4e 3a
       -0.0014666552 -0.0073358933 -0.00042446703 0.00078826596
000240 84 a5 0d bb 7a f9 29 bb ac ce 2d ba 48 d0 3a 3b
       -0.0021613548 -0.0025936053 -0.0006630223 0.0028505493
000250 88 9e a5 3b 06 72 13 3b 92 90 52 3b 0e bf a3 3b
       0.005054299 0.0022498383 0.0032129628 0.0049971407
000260 a2 18 4d 3b a1 21 65 ba 12 50 20 3b a9 c0 fb bb
       0.00312952 -0.0008740668 0.0024461788 -0.007682879
000270 01 4c d8 bb 20 1e 05 bc 74 fd a0 bb fa a4 82 bb
       -0.0066008572 -0.008124858 -0.0049130265 -0.003986952
000280 5e 37 17 bb fe 96 e8 bb 0b ae 80 3b 29 55 40 3a
       -0.0023073773 -0.007098078 0.0039269975 0.00073369086
000290 15 eb 07 3c 03 63 6e 3b 77 84 04 3b 7d 13 03 bc
       0.008295794 0.0036374934 0.0020220557 -0.008000252
0002a0 6a 06 e6 bb bb 0f d2 ba 62 a2 cc bb 95 43 cb 3a
       -0.0070198076 -0.0016026417 -0.0062449435 0.0015507812
0002b0 6d 82 20 bb 8e 5d cf ba ce 18 b1 3b 4a 36 04 3b
       -0.0024491802 -0.0015820728 0.0054045683 0.002017396
0002c0 e3 62 19 3b 55 0c 9e bb 26 66 f3 39 c0 04 da 3a
       0.0023404888 -0.0048232474 0.00046424678 0.0016633496
0002d0 89 76 e4 39 99 2d b3 bb 18 79 f7 3a 6f f0 9c bb
       0.00043575864 -0.005468082 0.0018880693 -0.004789404
0002e0 d5 bb 6a bb bc e3 6f bb 3a 87 9d bb 2c 56 84 bb
       -0.0035817523 -0.0036604246 -0.00480738 -0.004038593
0002f0 52 9d 87 bb e9 f9 06 ba c5 a1 9a ba 75 e3 e0 38
       -0.004138627 -0.0005148934 -0.0011797479 0.000107235195
000300 77 8e 74 39 24 be 7f ba 5f 66 ba bb 43 70 00 bc
       0.00023322726 -0.0009755811 -0.005688473 -0.007839265
000310 25 b9 9a bb 47 fd 12 3b 7b 72 31 bb b9 04 92 3b
       -0.004721778 0.0022428797 -0.0027076292 0.0044561294
000320 1a 67 03 3b 43 88 57 3b 8d e0 95 3b 4c 0e ab 3b
       0.0020050467 0.0032887615 0.0045738877 0.00522021
000330 05 e7 86 ba 92 12 4f 3b d3 32 88 3b a1 15 3e 3b
       -0.0010292238 0.0031596762 0.0041564493 0.002900459
000340 61 ac 37 bb 87 f9 4d bb 30 25 af 39 98 38 e4 bb
       -0.002802633 -0.0031429247 0.00033406308 -0.0069647543
000350 34 a6 d0 ba 0a 59 64 3a ec 38 34 3b b8 ab 4a bb
       -0.0015918673 0.00087107776 0.0027499748 -0.0030925106
000360 e5 df 79 3c 46 0f 5f 3b 95 3a ff 3b 9d 82 8a 3b
       0.0152511345 0.0034036203 0.007788966 0.004226996
000370 19 76 f1 3a 6b 9c c0 38 3b ad 05 bc 98 1c ae bb
       0.0018422037 9.1844086e-05 -0.008158977 -0.0053134672
000380 ba 76 52 bb 0d ef ea ba 00 13 39 3b 37 a7 84 ba
       -0.0032114224 -0.0017924026 0.0028240085 -0.0010120635
000390 f8 d6 3b 3b 2a ff ab bb 77 f0 2b ba e0 15 b8 bb
       0.0028662067 -0.005248924 -0.00065589644 -0.005617842
0003a0 31 eb 0e 3b 11 09 97 bb 2b 05 9f ba b6 5c d1 bb
       0.0021807665 -0.004609235 -0.0012132277 -0.006389226
0003b0 64 e5 e4 bb 5f af e8 b9 5e aa 1c 39 9e 72 cd bb
       -0.0069853533 -0.0004438115 0.00014940786 -0.006269767
0003c0 96 d4 e3 b9 7b b5 57 3b 36 67 41 bb 3c b5 a0 bb
       -0.00043455203 0.0032914567 -0.0029510981 -0.0049044173
0003d0 b8 37 e0 3a 79 3e 71 bb 56 a0 32 bb 23 15 0d bc
       0.0017106449 -0.0036810918 -0.0027256212 -0.008610996
0003e0 66 d3 2f bb d9 3f 37 bc 56 51 10 bc d9 dd de bb
       -0.0026828884 -0.011184656 -0.0088084545 -0.0068013486
0003f0 7f c0 d9 ba c3 e4 38 ba 1f e9 15 3b 1d 41 88 3a
       -0.0016613154 -0.0007053131 0.0022874547 0.0010395382

LeNet.3.bias f4 [2]
000000 b5 1d f7 bb 70 12 ae 3b
       -0.007541383 0.0053122565
